Results/CartPole-Experiment3-Classifier/Classifier/trained/model.pt (torch_old, 2563 bytes, 6 tensors)

layers.0.weight f4 [16, 4]
000000 14 c8 ce 3e 39 a2 ab be 18 c2 ee 3f 94 d5 98 bd
       0.40387022 -0.33522204 1.8652983 -0.07462612
000010 6b 3c 5f bf 64 6e cc 3e 72 7a ee be 84 60 75 be
       -0.87201566 0.3992797 -0.46577793 -0.23962599
000020 a0 00 06 bd eb e5 ab 3d 4c ce 84 3f f3 31 e5 be
       -0.03271544 0.08393463 1.0375457 -0.4476467
000030 1f f8 6d 3e f5 81 4b bf b0 82 ba 3f da b6 f3 be
       0.23239182 -0.79495174 1.4571133 -0.47600442
000040 30 6c 94 3d 00 e7 02 bb 64 c9 df 3e 50 54 1f 3e
       0.07247198 -0.0019974113 0.43708336 0.15559506
000050 2a e6 09 bf c8 00 5e be 0b 8d c0 3f da ca a2 bf
       -0.5386683 -0.21679986 1.5043043 -1.2718155
000060 41 31 cd bd d2 6d d9 be 4c b9 16 3f e1 18 9f 3e
       -0.1001916 -0.424666 0.5887649 0.3107367
000070 4d 44 c3 be 22 f2 1a 3f 20 3d c8 3b 18 34 28 3f
       -0.38138047 0.60525715 0.0061108023 0.6570449
000080 0d 11 35 3f 03 1a fb be 1b 7c 93 be c8 af ca 3e
       0.7072914 -0.49043283 -0.28805622 0.39587235
000090 4a 2f 12 3f 3a d6 1f 3e 42 b2 03 3d e6 b5 c4 bd
       0.5710341 0.15609065 0.03215242 -0.09605007
0000a0 5f 01 7e 3e 3a f8 92 3e 42 4b 87 3f 13 45 ca bf
       0.2480521 0.28705007 1.0569842 -1.580233
0000b0 d6 24 72 bf bc 7c ab bd 4c ac d4 be 30 64 22 bf
       -0.9458746 -0.083734006 -0.41537702 -0.63434124
0000c0 90 2b c8 bd 50 c9 32 3e 27 74 99 bf d8 00 94 bf
       -0.09773934 0.17459607 -1.1988572 -1.1562757
0000d0 d6 c3 70 3e 2f 82 ac bc 5e 3a 8c 3f 69 49 97 3e
       0.23512205 -0.02105817 1.0955312 0.29548195
0000e0 c4 62 54 bf f7 2f 1b bf 6f 69 53 40 e5 64 82 bf
       -0.82963204 -0.60620064 3.3033102 -1.018704
0000f0 07 4e dd be 3f 16 a7 3e af d3 f7 3e bf 01 f0 3e
       -0.43223593 0.3263416 0.4840369 0.46876332

layers.0.bias f4 [16]
000000 d2 01 db be b7 d3 b3 3e e7 ca 1a bd db 4a e0 3e
       -0.42774826 0.35122463 -0.03779116 0.4380711
000010 78 48 c2 be d3 9e bb be 12 ad 06 3f bb 44 28 3e
       -0.37945914 -0.3664461 0.52607834 0.16432469
000020 35 e0 39 3e 76 40 b6 3d 42 42 63 3f 57 ee 26 3f
       0.18151934 0.08899014 0.88772976 0.6520743
000030 c1 a9 a3 3e a3 d1 62 3e 61 07 09 3d 86 2d eb 3e
       0.3196545 0.22150283 0.033454303 0.4593317

layers.1.weight f4 [16, 16]
000000 f8 c0 f3 bc db 19 36 be fe d1 83 bd 58 6c e9 be
       -0.0297551 -0.177833 -0.06436537 -0.45590472
000010 de 5a 16 3e 3c 42 14 be ce 2d 38 be 8a 2b 95 3e
       0.146831 -0.14478391 -0.17986223 0.2913478
000020 84 41 9a bc 3e 58 1a 3e 98 cb 31 3d d4 f7 3f be
       -0.018830068 0.15072724 0.043407053 -0.18746883
000030 75 0c 4a be bd b0 ab 3d 32 68 2b be 8b fb 83 be
       -0.19731314 0.083833195 -0.16738966 -0.2577785
000040 b1 a7 0d 40 32 63 87 bf 4b aa 5e bf 31 91 aa bd
       2.21336 -1.0577147 -0.86978596 -0.08328474
000050 4a 77 6a 3e b8 b1 83 be 64 58 7c 3f 7b 37 1c 3f
       0.22897068 -0.25721526 0.98572373 0.61022156
000060 a2 f9 ec be f7 fb bf be 66 a4 e4 3e a5 8d 4c bf
       -0.46284205 -0.3749692 0.44656676 -0.7990363
000070 23 1f 34 be e3 3f 0f 3e c0 9f 17 bd 7e b3 3c 3f
       -0.17590003 0.13989215 -0.037017584 0.73711383
000080 60 87 dd bf 97 50 5a 3f af de 3b 3f 54 64 12 3f
       -1.7306938 0.8527922 0.73386663 0.5718434
000090 94 74 39 3e 5c a2 5d 3e 37 21 83 bf 8f 31 4c bf
       0.18110877 0.21643966 -1.0244511 -0.7976312
0000a0 01 cd bd 3c b6 f8 3e 3e 9f f0 ad 3e 85 36 45 3f
       0.023169043 0.18649563 0.33972642 0.77036315
0000b0 2d 94 11 3f 2a 98 9d be 7d 55 e2 bf 39 14 a3 be
       0.56866723 -0.30780154 -1.7682339 -0.31851366
0000c0 c7 41 18 c0 98 3d 3e 3f e1 8a ad 3e a6 b7 b7 3e
       -2.3790147 0.74312735 0.3389502 0.358823
0000d0 68 e4 5c 3e 4c 44 17 bf 47 d9 bd be 14 0f 3f be
       0.21571505 -0.5908859 -0.37079832 -0.18658096
0000e0 be e8 34 3f 19 8d c8 3e f2 f7 3e be 9f df 10 3f
       0.70667636 0.3917015 -0.18649271 0.5659122
0000f0 f4 8c b3 3e 0f 7c a0 bd a9 30 9a bd 44 9c 91 be
       0.35068476 -0.07836162 -0.075288124 -0.28439534
000100 30 75 9e 3d bb 2a 7d 3d 8d ce 5d be 59 de 6a bd
       0.077371955 0.06180833 -0.21660824 -0.057340953
000110 48 4c 1c 3e 76 41 ac 3e 1d b1 27 be 83 72 29 3f
       0.15263474 0.33643693 -0.16376157 0.66190356
000120 a1 a0 4c be e0 b8 0c bc 9e f3 a0 be 0e ce 00 be
       -0.1998315 -0.0085889995 -0.31435865 -0.12578604
000130 f5 ee d8 3d 00 88 0f bf a0 de 4f 3e f3 8a 6c 3c
       0.105924524 -0.56066895 0.20299768 0.014437425
000140 84 8b 72 be 51 ab cb 3d 07 43 20 be db 91 3f be
       -0.23686033 0.099447854 -0.15650569 -0.18707983
000150 0e 79 04 be fd 17 06 3e b5 e1 64 be 38 9c 6e 3f
       -0.12936804 0.13095088 -0.22351725 0.9320712
000160 17 98 9f bf 78 4c 87 bf 41 20 0f bf 1c 4e 84 3c
       -1.2468289 -1.0570211 -0.5590859 0.016150527
000170 0d 18 1a 3f db 40 a9 be cb 46 45 3e a4 7d 08 3f
       0.6019295 -0.33057293 0.19265287 0.5331671
000180 a4 9a 2e 3e 60 6e 02 3c 3e 19 31 be 04 11 48 3e
       0.17051178 0.007960886 -0.17294785 0.19537741
000190 50 08 80 bd 40 92 a5 bc 32 8b 5c be f0 44 4a bd
       -0.062515855 -0.020211339 -0.21537474 -0.04938215
0001a0 ec 1d 25 be 6c 3d 6b 3e 40 51 5d be 2e 8c 47 be
       -0.16124696 0.2297265 -0.21613026 -0.19487068
0001b0 c0 15 0b bc 54 6c 0a be 18 33 b7 3d f8 14 c5 bd
       -0.008489072 -0.13517886 0.08945292 -0.0962314
0001c0 f6 13 fa 3f ec 8c c2 bf 42 d9 08 bf cd db 94 be
       1.9537342 -1.5199256 -0.5345651 -0.29073945
0001d0 3c 70 f0 3d 31 a0 c6 bd af e0 89 3f 15 8d 6f 3e
       0.11740157 -0.09698523 1.0771693 0.23393662
0001e0 fd 01 a0 be 68 ce bf be de 1f a7 3e 1a 2a ab bf
       -0.31251517 -0.37462163 0.326415 -1.3372223
0001f0 23 11 ec 3b 83 5b d5 bd d7 c5 77 be 26 9c 82 3e
       0.0072041913 -0.10417845 -0.24196564 0.25509757
000200 bd b3 10 40 2f 58 c6 bd cd 0f 8a bf 77 7d e7 bd
       2.2609704 -0.096847884 -1.0786072 -0.113032274
000210 40 47 66 be 8e 4d 0e 3e fd 83 2d 3f 4e 3e 4a 3f
       -0.22488117 0.13896772 0.67779523 0.7900132
000220 1b 45 8b 3d 91 c8 0b be 35 89 f6 3d 04 4a ed bd
       0.0680029 -0.13650729 0.12037889 -0.11586383
000230 3a 6a 98 bf 96 b6 ef 3e b1 74 f3 be 42 c6 fe 3d
       -1.1907418 0.4681899 -0.47549966 0.124401584
000240 bc 6b d8 3f 5b cb 31 3e 52 42 71 bf 6b 9c 22 3f
       1.6907878 0.1736273 -0.9424182 0.63519925
000250 56 c6 4a 3e bd 06 7b 3f ed da 0d 3f c2 fd 4f bf
       0.19802222 0.98057157 0.5541218 -0.8124658
000260 7e de ed 3d 8d 17 9d be 92 4d 4d bd 7d 9b c5 3e
       0.11614703 -0.3068203 -0.050122805 0.3859519
000270 c9 b7 91 bf 4a 0e 69 3e 9b 19 6a 3d 36 14 b9 bd
       -1.1384212 0.22759357 0.057153326 -0.09037058
000280 bd 73 1f c0 31 03 81 3f 0c ab 4d 3f 19 fa 89 3e
       -2.491439 1.0079099 0.8033912 0.26948622
000290 d6 cf 01 be a5 b5 4f be 8b be 97 bf 68 f8 0f bf
       -0.1267694 -0.20284136 -1.1855024 -0.5623841
0002a0 d6 b2 24 3d e8 9f c8 3e 77 12 a0 3e f6 01 4e 3f
       0.040209614 0.391845 0.31264088 0.8047174
0002b0 b4 7a f8 3e 7d bf 57 3c 7e b2 bc bf ae 48 84 be
       0.48531115 0.013168213 -1.4741971 -0.258367
0002c0 dc cd a7 3f c9 16 68 bf 0e 25 38 bd d3 61 70 c0
       1.3109698 -0.9065977 -0.044957213 -3.7559707
0002d0 86 a3 68 3e 99 e0 45 3e a6 01 a6 be 49 79 a1 3f
       0.22718629 0.19323958 -0.32423133 1.2615138
0002e0 68 fe 36 bf fc a9 ab 3d 1d 16 ed 3e 08 53 7b bf
       -0.71481943 0.08382031 0.46305934 -0.9817357
0002f0 16 2a 1a 3f 51 58 86 bd a1 44 1a 3f 3f 9e 78 3f
       0.6022047 -0.06559814 0.6026097 0.97116464
000300 8d ec 02 c0 b3 c3 93 3f 2a e7 1d 3f be d1 91 3e
       -2.045688 1.1544098 0.61680853 0.28480333
000310 a0 d7 5d be 7a 11 a0 bd 14 fe 8b bf 20 70 f4 be
       -0.21664286 -0.078158334 -1.0936913 -0.47741795
000320 14 63 57 3e 6d e8 95 3e 31 0d ac 3e ec 42 5f 3f
       0.21033889 0.2927889 0.33603814 0.8721149
000330 d2 88 bf 3e 44 0b 1d be 83 70 ed bf cf 2b f7 bd
       0.37409073 -0.15336329 -1.8549961 -0.12068903
000340 98 fc 41 bd 18 b3 4e 3d 00 84 17 3c f0 23 23 be
       -0.047360033 0.050463766 0.00924778 -0.15931678
000350 a8 2c 10 3e 9a 77 0f 3e 40 46 4e 3c 62 7b 11 be
       0.14079535 0.14010468 0.012589991 -0.14207223
000360 5c 8d d9 bd 00 a0 61 3b 28 43 12 be 5a d6 0e be
       -0.10622665 0.0034427643 -0.1428343 -0.13948956
000370 40 bf 18 bd 3c 6e 93 bd 50 5f 7b 3d b0 93 86 bd
       -0.037291765 -0.0719876 0.061370194 -0.06571138
000380 92 a2 02 40 6b 2e 95 bf ae d1 6f bf 5a 32 f4 3d
       2.0411725 -1.1654791 -0.9367932 0.11923666
000390 70 5c 43 3d e6 86 68 bd 42 d3 46 3f a0 75 e2 3e
       0.047695577 -0.056769274 0.77666104 0.44230366
0003a0 e9 97 1c bf bd 67 90 be b6 53 a0 3e 87 e0 80 bf
       -0.61169297 -0.28204146 0.31313866 -1.006852
0003b0 65 8d a6 be 7b 50 25 3e 80 90 2e 3e c9 42 1e 3f
       -0.3252975 0.16143982 0.1704731 0.61820656
0003c0 6f a0 02 c0 da 91 03 3f 64 af f9 3e 4b 4e 1c 3f
       -2.041042 0.51394427 0.48766625 0.61056966
0003d0 90 ab d5 3d 44 19 6d bf be 02 34 bf f1 47 26 bf
       0.104331136 -0.9261668 -0.70316684 -0.64953524
0003e0 15 67 6b 3e c5 59 1e 3e 64 a8 7a 3e 80 46 64 3f
       0.22988541 0.15463932 0.24478298 0.89170074
0003f0 ee e8 21 3f ae 8e ba be cc fa 97 bd 75 f2 28 bf
       0.6324605 -0.3643698 -0.074208826 -0.6599496

layers.1.bias f4 [16]
000000 60 9c 3f be 84 59 19 3e da 1d 0a 3e 33 0e a7 3d
       -0.18711996 0.14975554 0.1348795 0.08157005
000010 b7 02 53 be f2 09 f7 be 6c 1a 54 be ba 6a f3 3e
       -0.20606504 -0.48249775 -0.20713204 0.47542363
000020 d7 bd 9e 3c 69 06 a7 3d 24 90 ff bc 2e cb a2 3e
       0.019377632 0.081555195 -0.031196661 0.3179564
000030 40 63 26 be 80 49 16 be bb 2b d9 3e 7d 35 c9 3d
       -0.16248798 -0.14676476 0.42416176 0.09824655

layers.2.weight f4 [2, 16]
000000 9a f5 fc be 33 d0 e8 bf ef 46 c6 3f 7f 95 c6 3f
       -0.4940613 -1.8188537 1.5490397 1.5514373
000010 b1 5c 8b 3f 80 dc 6b 3f 58 5a f7 3d 32 cf 0e c0
       1.0887662 0.9213333 0.120777786 -2.2313962
000020 b6 da a0 bf 0b d6 99 bf ce cb b7 3f 4f e0 f6 bf
       -1.2566745 -1.2018446 1.4359071 -1.9287204
000030 49 ac e7 3f c0 9c 49 3c c5 2d 09 c0 53 8e a3 3f
       1.8099452 0.0123054385 -2.1434186 1.2777809
000040 0f d1 f3 3e 4d 3e d6 3f 23 bc d0 bf 56 4c a4 bf
       0.47620437 1.6737763 -1.6307415 -1.2835796
000050 5d 9c 56 bf a9 c2 6d bf 58 d5 ce 3d e0 e6 10 40
       -0.8383234 -0.9287515 0.10099286 2.2640915
000060 7e 58 82 3f cd 3b 97 3f a2 40 94 bf 44 3e f6 3f
       1.0183256 1.1815125 -1.1582224 1.9237752
000070 fb ab e0 bf 9a d7 58 be 75 99 06 40 40 83 bb bf
       -1.7552484 -0.21175995 2.1031163 -1.4649429

layers.2.bias f4 [2]
000000 58 ae 32 be e0 61 31 3e
       -0.1744932 0.17322493
