Results/Experiment-MountainCar-DQN-Training/DQN/trained/model.pt (torch_old, 19219 bytes, 6 tensors)

layers.0.weight f4 [64, 2]
0	0xbf089bc4	-0.5336268
1	0xc07dcb8a	-3.965548
2	0xbed25f97	-0.41088554
3	0xc039b43a	-2.9016252
4	0xbf878fbe	-1.0590742
5	0x4108e282	8.5553
6	0xbe88cc08	-0.26718163
7	0xc12a7adc	-10.654995
8	0xbe8e2bf9	-0.27767923
9	0xc06a98f8	-3.6655865
10	0xbec5672d	-0.3855528
11	0xc0999461	-4.7993627
12	0xbf434291	-0.7627345
13	0xc07e64ce	-3.9749026
14	0x3edbe962	0.42951494
15	0x3f2d7563	0.6775724
16	0xbdf31ef0	-0.11871135
17	0x400c256e	2.1897845
18	0x3f3309d7	0.6993689
19	0xbe507b14	-0.2035945
20	0xbf433ecd	-0.762677
21	0xc0b4ba55	-5.6477456
22	0xbe68b689	-0.22725882
23	0x3f9b5e09	1.2138072
24	0xbf47ff2e	-0.7812375
25	0xc0708f93	-3.758763
26	0x3ef9047a	0.48636228
27	0x3f02588b	0.50916356
28	0xbf202de9	-0.62570053
29	0xc0cf17cf	-6.4716563
30	0x3ee6346e	0.44961876
31	0xbf009736	-0.5023073
32	0xbec8202c	-0.39087045
33	0xbe6ddbca	-0.23228374
34	0x3e834b42	0.25643355
35	0x3f24c633	0.6436493
36	0x3fe7222a	1.8057301
37	0xc12128ee	-10.072493
38	0xbee3bf24	-0.44481766
39	0x406656ea	3.5990548
40	0x3df32dd0	0.118739724
41	0xbe928817	-0.28619453
42	0x3e44ac2c	0.19206303
43	0xbf20b8f4	-0.62782216
44	0xbf4088c5	-0.75208694
45	0xc0892041	-4.2851872
46	0xbdf12c50	-0.1177603
47	0x3eb82dc6	0.35972422
48	0xbfa696b9	-1.3014747
49	0xc01c96d6	-2.4467063
50	0xbf0e9b59	-0.5570579
51	0xbfc4aa5f	-1.5364493
52	0xbf8d811f	-1.105503
53	0xc07c243f	-3.9397123
54	0x3f6f7079	0.93530995
55	0x41197dc5	9.593205
56	0x3f5b74d9	0.8572517
57	0xc0dccf65	-6.9003167
58	0x3d111eb0	0.035429657
59	0xbd3d7d50	-0.046262085
60	0x3edb7120	0.42859745
61	0xc12b4b9f	-10.705962
62	0xbf4b6d4a	-0.79463637
63	0xc0aa57b6	-5.323207
64	0xbf519cee	-0.8188008
65	0xbf959463	-1.1685909
66	0xbef21f86	-0.47289675
67	0xc097dc2b	-4.745626
68	0xbf94d37b	-1.1627039
69	0x40788e14	3.8836718
70	0xbed41d91	-0.41428807
71	0xc01f34d2	-2.487599
72	0xbe03233c	-0.1280641
73	0xbeab715e	-0.3348493
74	0xbe36af28	-0.17840254
75	0xbea81646	-0.32829493
76	0x3ec67cf4	0.38767207
77	0x40e1d80c	7.057623
78	0xbebf55ca	-0.3737014
79	0x3f3e733a	0.7439457
80	0x3db2ed00	0.087366104
81	0xbecda63b	-0.40165886
82	0xbf4e403a	-0.8056675
83	0xc01849a4	-2.3794947
84	0xbf4e45bf	-0.80575174
85	0xc0aed8b3	-5.4639525
86	0xbf3a6952	-0.72816956
87	0xbfe470a8	-1.784688
88	0x3c45d740	0.012075245
89	0xbf138cd5	-0.5763677
90	0x3ed3aef2	0.4134441
91	0xbf0ec203	-0.5576479
92	0xbf11a00d	-0.56884843
93	0xc001a001	-2.0253909
94	0x3f5daa64	0.8658812
95	0xc08de8e6	-4.43468
96	0x3f26f45c	0.6521661
97	0xc0c596fd	-6.174681
98	0xbf0ebc5a	-0.5575615
99	0xc08d75b1	-4.4206166
100	0x3e8d593e	0.2760715
101	0x40f4a1de	7.644759
102	0xbf202ff9	-0.625732
103	0xc0a3e347	-5.121494
104	0xbe04d760	-0.12972784
105	0xc11dcbfb	-9.8623
106	0x3f6f8e4b	0.93576497
107	0xc06ec3dc	-3.7307043
108	0xbf2ac5f8	-0.66708326
109	0xc0613acd	-3.519214
110	0xbf38751f	-0.7205371
111	0xc1046881	-8.275514
112	0x3f1e7dad	0.61910516
113	0x3e039614	0.12850219
114	0xbf258b01	-0.6466523
115	0xc141332f	-12.074996
116	0xbee91ea9	-0.45531204
117	0xc00bcb39	-2.1842787
118	0xbf04afa9	-0.51830536
119	0xc1162beb	-9.385722
120	0xbef34fc4	-0.47521794
121	0xbe7c0ee6	-0.24615058
122	0x3f13d6f8	0.5774989
123	0xc0e06bbb	-7.0131507
124	0xc0092217	-2.1427057
125	0x40ab7263	5.357713
126	0xbee024ca	-0.43778068
127	0xbf817b53	-1.011576

layers.0.bias f4 [64]
0	0x3f15b933	0.58485717
1	0x3f1701bb	0.58987015
2	0xbf8016c9	-1.0006953
3	0xbe315cba	-0.17320529
4	0x3e82e25b	0.2556332
5	0x3eb88d99	0.3604553
6	0x3f39d8ec	0.7259662
7	0xbe81064b	-0.25200114
8	0x3f55967b	0.8343274
9	0xbeecc40b	-0.4624332
10	0x3eb4956b	0.35270247
11	0x3f6c8070	0.9238348
12	0x3ebbbe60	0.36668682
13	0xbec911d9	-0.3927143
14	0x3ea8dc18	0.32980418
15	0xbee72402	-0.4514466
16	0xbf130952	-0.57436097
17	0xbf22a418	-0.6353164
18	0x3fb32ac7	1.399743
19	0x3f867719	1.0505096
20	0xbf12b53e	-0.57307804
21	0xbf0b797a	-0.54482234
22	0x3f046606	0.51718175
23	0xbef35278	-0.47523856
24	0xbf706e10	-0.9391794
25	0x3ece809a	0.4033249
26	0x3f0a9564	0.541342
27	0x3f3ccb9e	0.73748195
28	0x3f4a1eff	0.78953546
29	0xbebe9b76	-0.37227982
30	0x3e8298ae	0.2550711
31	0x3eb90299	0.36134794
32	0x3f0fdbad	0.56194574
33	0x3e810f57	0.25207016
34	0xbf5ed168	-0.8703828
35	0x3ecf3295	0.4046828
36	0xbe6b668e	-0.2298834
37	0xbf11dce4	-0.5697768
38	0x3f1d3252	0.6140491
39	0x3f030e4a	0.5119368
40	0xbd4d62e0	-0.050143123
41	0xbf37b845	-0.7176555
42	0x3eb96948	0.36213136
43	0x3ec0c12e	0.37647384
44	0xbed82ee5	-0.42223278
45	0xbf0582a0	-0.5215244
46	0x3efca83b	0.493471
47	0x3f285cc3	0.65766543
48	0x3f24294a	0.641255
49	0x3f120e44	0.5705302
50	0x3f07c8c9	0.5304075
51	0x3ea483a8	0.32131696
52	0x3dcab4f1	0.09897793
53	0x3f8d91ac	1.106008
54	0x3f09d9a9	0.5384775
55	0x3ec7d384	0.3902856
56	0xbf0ddd9c	-0.55416274
57	0x3c0c0f59	0.008548581
58	0x3f379b84	0.71721673
59	0xbee755eb	-0.45182738
60	0xbf3101ab	-0.6914317
61	0x3f1dbc75	0.6161569
62	0xbf4546ac	-0.7706096
63	0x3f23a225	0.6391929

layers.1.weight f4 [64, 64]
0	0xbe1dd08e	-0.15411589
1	0xbc53fe80	-0.0129390955
2	0x3d2892cd	0.041155625
3	0xbd248820	-0.04016888
4	0xbdc5dab8	-0.09660858
5	0xbd2a22a1	-0.04153693
6	0xbd3f92a7	-0.046770718
7	0x3ddf770a	0.10911377
8	0x3b47032b	0.0030366878
9	0x3c82c7e0	0.015964448
10	0xbe194c90	-0.14970613
11	0x3b042091	0.0020161013
12	0xba77f6bb	-0.0009459068
13	0xbd408604	-0.047002807
14	0x3d752489	0.059849296
15	0xbde47f92	-0.111571446
16	0x3d4497dc	0.047996387
17	0x3c4276e0	0.011869162
18	0xbb414b61	-0.0029494392
19	0xbe4f505d	-0.202455
20	0x3d8b64e4	0.06806353
21	0xbdd9ce44	-0.10635045
22	0xbe4ed61b	-0.20198862
23	0xbb0fd700	-0.0021948218
24	0x3ccbf2c7	0.024896039
25	0xbdaa212e	-0.0830711
26	0xbdabe904	-0.083940536
27	0xbc1d4919	-0.009599947
28	0xbe034626	-0.12819728
29	0x3d0aced4	0.033888653
30	0xbd8edb6e	-0.06975447
31	0xbdd816b6	-0.10551207
32	0xbe4ab429	-0.19795288
33	0xbdf2164c	-0.11820659
34	0xbdb02edc	-0.08602688
35	0xbda6a3a2	-0.08136679
36	0xbda0366c	-0.0782288
37	0xbd6b7aac	-0.057490036
38	0x3c8081e7	0.015686942
39	0xbc5d541b	-0.013508822
40	0xbddf213e	-0.10895012
41	0xbd22ff62	-0.039794333
42	0xbd902ee2	-0.07040192
43	0xbde31819	-0.11088581
44	0x3c5cc7c0	0.0134753585
45	0xbd15e18c	-0.03659205
46	0xbded5e9c	-0.11590311
47	0xbd272d81	-0.04081488
48	0xbd1931fd	-0.03740119
49	0x3c6b8ac9	0.014376351
50	0xbc0fa4e2	-0.0087673385
51	0xbdd60694	-0.104504734
52	0xbde073bf	-0.10959577
53	0x3d71d2c5	0.059038896
54	0xbdc7fb06	-0.09764676
55	0x3d639386	0.05556061
56	0xbd828e70	-0.06374824
57	0x3db659dd	0.08903859
58	0xbe118bb1	-0.14213444
59	0x3d7b92f8	0.061419457
60	0xbddbc0bc	-0.107301205
61	0x3d7b0bbb	0.061290484
62	0xbdd3be31	-0.103390105
63	0x3ca96007	0.020675672
64	0xbde31ad1	-0.11089099
65	0xbda6564a	-0.08121927
66	0x3c9b72fd	0.01897573
67	0xbda762ce	-0.081731424
68	0xbe096d09	-0.134205
69	0x3d82da14	0.06389251
70	0xbe015d89	-0.12633337
71	0x3ddfdbae	0.109305725
72	0x3d7489bd	0.05970167
73	0xbdd5d666	-0.10441284
74	0xbb3651b4	-0.0027819695
75	0xbd921c1f	-0.0713427
76	0x3b428342	0.0029680287
77	0x3cb43cc0	0.022001624
78	0xbd55bc0f	-0.0521813
79	0x3d121ad4	0.035670117
80	0x3d941d04	0.07232097
81	0x3de7e004	0.113220245
82	0x3d37bf18	0.044859976
83	0xbc39e269	-0.011345484
84	0xbd8e4b70	-0.06947982
85	0x3dd24dc6	0.1026874
86	0xbdc90ee4	-0.09817293
87	0x3d4699a0	0.048486352
88	0xbdfe6a1e	-0.12422584
89	0xbcb627b6	-0.022235733
90	0xbe08e500	-0.13368607
91	0x3cecdcf4	0.028913952
92	0xbca09321	-0.019601407
93	0xbdf6c374	-0.120489985
94	0xbcb41680	-0.021983385
95	0xbce9a9fb	-0.028523436
96	0xbd927fd0	-0.071532845
97	0xbdbbdbe1	-0.09172798
98	0xbd0a726f	-0.03380054
99	0xbe2d14a2	-0.16902402
100	0xbcaaeaf8	-0.020863995
101	0xbdbc53d8	-0.091956794
102	0xbe0c1194	-0.1367858
103	0xbe1c3af5	-0.15256865
104	0xbbb25020	-0.0054416806
105	0x3d19cbbc	0.037547812
106	0x3ce17458	0.027521297
107	0xbc5e3816	-0.013563177
108	0x3d3b36a0	0.04570639
109	0xbcd9a790	-0.026569158
110	0xbe003782	-0.12521175
111	0xbd72a4bb	-0.05923913
112	0xbe28ced1	-0.16485144
113	0xbe10a57f	-0.14125632
114	0x3c9fbd7b	0.019499531
115	0x3dc4b49c	0.09604761
116	0x3d92e4d4	0.07172552
117	0x3d0a1e61	0.033720378
118	0xbc9c2442	-0.019060258
119	0x3d74d6e1	0.059775237
120	0x3d9a633e	0.0753846
121	0x3dc5f362	0.09665562
122	0xbe2a39ac	-0.16623563
123	0x3debc8b0	0.115128875
124	0xbdae88fc	-0.085222214
125	0xbd28cba8	-0.041209847
126	0x3d6cb362	0.05778826
127	0xbdfa94d5	-0.12235419
128	0x3d56e6a0	0.052466035
129	0xbcac4cf8	-0.021032795
130	0xbd7e3468	-0.062061697
131	0x3d9a880c	0.0754548
132	0x3d3b70b4	0.04576178
133	0x3b455f00	0.003011644
134	0x3d7e89f0	0.062143266
135	0xbd73ca84	-0.059519306
136	0xbda102f0	-0.078618884
137	0x3d4bc060	0.04974401
138	0xbd80ffd2	-0.06298794
139	0x3c927530	0.017878145
140	0x3dbb9664	0.09159544
141	0xbdbf5f50	-0.09344351
142	0x3d878e1c	0.06618902
143	0x3deafab4	0.11473599
144	0xbd3d1a58	-0.0461677
145	0x3c7dbd40	0.015487015
146	0x3c05b090	0.008159772
147	0xbdf29108	-0.11844069
148	0x3dd4d7d8	0.103927314
149	0x3da9dc5c	0.08293983
150	0x3dbdf644	0.09275487
151	0x3db3d5e4	0.08781031
152	0xbdbdeb6e	-0.0927342
153	0xbdd95254	-0.10611406
154	0xbdcd0192	-0.10010065
155	0xbd4fc3d8	-0.05072388
156	0xbd98ffbc	-0.074706525
157	0xbd0db9ec	-0.034601137
158	0x3d6fd494	0.05855234
159	0x3d5ce2c0	0.053927183
160	0xbdeec678	-0.11658949
161	0xbd927424	-0.07151058
162	0x3ce79400	0.028268814
163	0xbd7500ac	-0.059815094
164	0x3cdfb7a8	0.027309254
165	0x3d328688	0.04358533
166	0x3d509850	0.050926507
167	0x3db85bec	0.09001908
168	0xbda689d0	-0.081317544
169	0xbd2c4338	-0.042056292
170	0xbc077220	-0.008266956
171	0x3d957136	0.07296984
172	0x3da0ece6	0.07857685
173	0xbc8a5370	-0.01688549
174	0xbddb6c1a	-0.10713978
175	0xbdad134e	-0.08450948
176	0xbd256cfc	-0.04038714
177	0x3d4c2c14	0.049846724
178	0x39587800	0.00020644069
179	0xbd13840c	-0.0360146
180	0xbdc524d6	-0.096261665
181	0x3de418fc	0.11137578
182	0xbd6c33e4	-0.057666674
183	0xbd8e6f9c	-0.069548815
184	0xbdb2cf00	-0.08730888
185	0xbdf1c2c2	-0.11804725
186	0x3d4d01b8	0.050050467
187	0x3ca4d808	0.020122543
188	0x3d3aa5c4	0.045568243
189	0x3de4a274	0.11163798
190	0xbdf3fe58	-0.119137466
191	0xbda81854	-0.08207765
192	0xbc673470	-0.014111623
193	0xbdfae930	-0.12251508
194	0xbc8a2d00	-0.01686716
195	0x3d1938f8	0.037407845
196	0xbda74858	-0.08168095
197	0x3d632244	0.0554526
198	0xbc27a590	-0.010232344
199	0x3dc9a702	0.09846307
200	0x3d1f574c	0.038901612
201	0xbc7f6840	-0.01558882
202	0x3c018a30	0.007906482
203	0xbdada79c	-0.084792346
204	0x3d04e0dc	0.032441005
205	0x3d73abe4	0.0594901
206	0x3d9bf06e	0.07614218
207	0xbcc7e858	-0.024402782
208	0x3d72a868	0.059242636
209	0x3d8683de	0.065681204
210	0x3db46d76	0.088099405
211	0xbdf06242	-0.11737491
212	0xbdf71f52	-0.12066521
213	0xbbdff480	-0.0068345666
214	0xbd88b1fc	-0.06674573
215	0xbdcf8c2a	-0.10134156
216	0x3dcb1024	0.09915188
217	0xbcdf36a0	-0.027247727
218	0x3ca5c7c0	0.02023685
219	0x3cdf5308	0.027261272
220	0x3d9a98c6	0.075486705
221	0x3dda0e64	0.10647276
222	0xbc75f260	-0.0150114
223	0xbda86b4e	-0.08223592
224	0xbde906a8	-0.11378223
225	0x3d949502	0.072549835
226	0x3d66a000	0.05630493
227	0xbd67f9f8	-0.056634873
228	0xbd90eb12	-0.07076086
229	0xbd9fc32e	-0.078008994
230	0xbd29ac58	-0.041424125
231	0xbd27e218	-0.040987104
232	0xbc1fec80	-0.009760976
233	0x3dec283c	0.115311116
234	0x3db0e3d4	0.08637205
235	0xbdac8d22	-0.084253564
236	0xbd3fdc28	-0.046840817
237	0xbdf08cc0	-0.11745596
238	0xbd5d4a54	-0.054025963
239	0x3c6b3b60	0.014357418
240	0x3dc64f00	0.09683037
241	0xbc1c8900	-0.009554148
242	0xbdff46fe	-0.124647126
243	0x3d878298	0.06616706
244	0xbd60bc50	-0.05486709
245	0xbd4bdc90	-0.04977089
246	0x3db26112	0.08709921
247	0xbc43d500	-0.011952639
248	0x3de39cb6	0.111138746
249	0xbcfedde8	-0.031111673
250	0xbdf80e9a	-0.1211216
251	0xbd5052c8	-0.050860196
252	0x3d8012a2	0.06253554
253	0xbd9dc7f4	-0.07704154
254	0x3dfaedaa	0.12252362
255	0xbd2865f4	-0.041112855

layers.1.bias f4 [64]
0	0xbca4d730	-0.02012214
1	0x38505e42	4.967885e-05
2	0xbd90c16a	-0.07068141
3	0x3d2f306c	0.042770788
4	0x3f21debe	0.632305
5	0x3d2bcfc1	0.041946176
6	0x3c5c4245	0.013443534
7	0x3d4e8c13	0.050426554
8	0x3cada75f	0.021197973
9	0x3cef8940	0.02924025
10	0xbdf47a57	-0.11937397
11	0xbd4085ba	-0.04700253
12	0x3d954fcb	0.0729061
13	0x3e1d7b0f	0.15378974
14	0xbb9ab6e2	-0.0047215084
15	0xbda49477	-0.0803613
16	0x3f11b765	0.5692046
17	0xbd9a7140	-0.07541132
18	0x3b11d38e	0.002225134
19	0x3e6d6fac	0.2318713
20	0x3d09956f	0.033589777
21	0x3ea86c6a	0.32895213
22	0xbb851f60	-0.004062578
23	0xbd68351c	-0.056691274
24	0xbc148605	-0.009065156
25	0x3c0b9710	0.008519903
26	0xbcfcaf60	-0.030845344
27	0xbcb7870a	-0.022403259
28	0xbde18430	-0.11011541
29	0xbd560646	-0.052252077
30	0xbdb85843	-0.090012096
31	0xbdccfe0a	-0.100093916
32	0xbd2f4089	-0.042786155
33	0xbd65e80c	-0.0561295
34	0x3d52fa88	0.051508456
35	0x3d05df04	0.032683387
36	0x3df84da1	0.121241815
37	0xbd8455d3	-0.06461682
38	0xbd1e8d8a	-0.0387092
39	0xbe08097e	-0.13284871
40	0x3eccc2c3	0.3999234
41	0x3dacf505	0.08445171
42	0x3cc03243	0.023461467
43	0x3e66a1f1	0.22522713
44	0x3da691dc	0.08133289
45	0xbd853acc	-0.06505355
46	0x3d0f997e	0.03505849
47	0x3da590d1	0.08084262
48	0xbd4ebda0	-0.05047381
49	0xbde09de8	-0.10967618
50	0xbd951be7	-0.072807126
51	0xbd725480	-0.059162617
52	0xbb6c0209	-0.0036011955
53	0x3d5c3ab3	0.053766917
54	0xbdcba158	-0.09942883
55	0x3e784f02	0.24248889
56	0x3e0462f2	0.1292837
57	0xbd6bbb99	-0.057551954
58	0x3df37edc	0.11889431
59	0x3df4aafa	0.11946674
60	0xbdea1fa8	-0.11431819
61	0x3d12f7f6	0.035881005
62	0x3d3d2451	0.046177212
63	0x3f2edb7e	0.6830367

layers.2.weight f4 [3, 64]
0	0xbc3637b6	-0.011121681
1	0x3d72fab1	0.05932111
2	0x3bc8a4a0	0.0061231405
3	0x3de3b64c	0.11118755
4	0xbf4324c9	-0.76228005
5	0x3d94d5b2	0.07267322
6	0xbd67a194	-0.056550577
7	0x3d35bd9a	0.04437027
8	0xbf8531ef	-1.0405864
9	0xbd577204	-0.05259897
10	0xbd44e13f	-0.048066374
11	0x3db05076	0.08609097
12	0x3ba47267	0.0050185206
13	0x3ff9062c	1.9455009
14	0xbfe96d6d	-1.8236519
15	0x3d9d8e48	0.076931536
16	0x40906943	4.5128493
17	0x3ce14cba	0.027502406
18	0xbfdb7f46	-1.7148216
19	0xbfee1faf	-1.8603419
20	0x3da88962	0.08229329
21	0x3f8eae6a	1.1146977
22	0x3d06e72c	0.032935306
23	0x3c0bfe39	0.008544498
24	0x3db24e3b	0.087063275
25	0x3d4b7f08	0.049681693
26	0xbda0d964	-0.07853964
27	0x3d1e8f82	0.03871108
28	0x3db34092	0.0875255
29	0x3ee702c7	0.45119306
30	0x3e003d13	0.12523298
31	0x3d10a860	0.035316825
32	0x3cf6601f	0.030075131
33	0x3db22074	0.08697596
34	0xbdac7533	-0.084207915
35	0xbd883860	-0.06651378
36	0xbfc81892	-1.5632498
37	0xbcaf32ed	-0.021386588
38	0xbcd7faee	-0.02636477
39	0xbfe16020	-1.760746
40	0x3ed1352c	0.4086088
41	0x3dbbaa8f	0.09163391
42	0xbd6f1e94	-0.05837877
43	0xbfb5dc41	-1.4207841
44	0xbfba0156	-1.4531658
45	0xbcde9d2f	-0.02717456
46	0xbf812c8c	-1.009172
47	0xc0146a6f	-2.3189962
48	0xbd42eabc	-0.04758714
49	0x3c079290	0.008274689
50	0x3d3939ec	0.045221254
51	0x408cb98a	4.397649
52	0x3cb451c4	0.022011645
53	0xbcc1d818	-0.023662612
54	0xbcfaf8c5	-0.0306362
55	0xc00d0b6d	-2.2038224
56	0xc0148367	-2.3205202
57	0x3ee9277e	0.45537943
58	0xc0070933	-2.1099365
59	0xbf9ea106	-1.239289
60	0x3d5ae2d4	0.053438976
61	0xbdd97576	-0.10618107
62	0xbeb3daab	-0.35127768
63	0xbf382e09	-0.71945244
64	0x3d8c690c	0.068559736
65	0xbc4e3b9a	-0.012587452
66	0xbdc02cbc	-0.093835324
67	0x3d5afa7c	0.053461537
68	0xbf53620a	-0.8257147
69	0x3d8728b4	0.065995604
70	0x3df09472	0.11747064
71	0xbda47f3c	-0.080320805
72	0xbf8bb98a	-1.0915997
73	0xbc377160	-0.011196464
74	0x3dd6a83f	0.10481309
75	0xbcbe30da	-0.023216654
76	0x3c938f30	0.018012613
77	0xbf622e4c	-0.88351893
78	0xbfc99937	-1.5749882
79	0xbdea39fc	-0.11436841
80	0x405e9f29	3.4784644
81	0xbd50b1a9	-0.05095068
82	0xc0005ba5	-2.0055935
83	0xc005075d	-2.0785744
84	0x3d925038	0.07144207
85	0x401a8ff9	2.4150374
86	0xbd5c6660	-0.05380857
87	0xbda9a011	-0.08282483
88	0xbdfa6efe	-0.12228201
89	0xbbf842a0	-0.0075763017
90	0x3d1837c3	0.037162554
91	0x3d6b3559	0.057423923
92	0xbdd4c5de	-0.10389303
93	0x400f19bf	2.2359464
94	0xbd3db7ff	-0.04631805
95	0x3dd53c22	0.1041186
96	0xbddef99c	-0.10887453
97	0xbde1238a	-0.10993107
98	0x3ddb90c1	0.10720969
99	0xbdbd09cc	-0.09230384
100	0xbf95e0e0	-1.1709251
101	0x3c0cf541	0.008603395
102	0xbd396b1e	-0.04526817
103	0xc01b73d6	-2.428945
104	0x3f8df84c	1.1091399
105	0x3d9cac0d	0.076500036
106	0xbd1c1fe8	-0.038116366
107	0xbf873a19	-1.0564605
108	0xbfe903ec	-1.8204322
109	0x3ca80491	0.02050999
110	0xbfb03c0c	-1.3768325
111	0xc0109d4e	-2.259601
112	0xbd4a75fc	-0.049428925
113	0x3d97ec10	0.07418072
114	0xbdb62bd0	-0.08895075
115	0x409eb66a	4.9597673
116	0xbd862110	-0.06549275
117	0x3c4ec296	0.012619635
118	0x3bb73f60	0.0055922717
119	0xbf9dbe9f	-1.2323798
120	0xbfcb66b9	-1.5890723
121	0x3ef0d0b6	0.47034234
122	0xbf561dfd	-0.8363951
123	0xbfe40d80	-1.781662
124	0x3cd437f8	0.025905594
125	0xbb72cc40	-0.0037048012
126	0xbe450fad	-0.19244261
127	0xbf224be9	-0.6339708
128	0x3c1ff958	0.009764038
129	0x3c4ec01f	0.012619047
130	0xbd6c43b4	-0.057681754
131	0x3dd1cb90	0.102439046
132	0xbf3aad79	-0.7292095
133	0x3d4e5978	0.050378293
134	0xbd014846	-0.031563066
135	0x3d791dbf	0.060819384
136	0xbfbd878a	-1.4806988
137	0x3d7371d0	0.059434712
138	0xbd51154b	-0.051045697
139	0x3c1b2952	0.009470301
140	0xbca58602	-0.020205501
141	0xbfe5a8d2	-1.7942145
142	0xbfa3cf78	-1.279769
143	0xbbfbc896	-0.007683824
144	0x403714ae	2.8606372
145	0xbdad30de	-0.08456586
146	0xbf9c059b	-1.2189211
147	0xbfd67c61	-1.6756707
148	0x3d4f193b	0.05056117
149	0x402b310d	2.6748688
150	0xbdfa7f4e	-0.12231313
151	0x3c9b60ec	0.018967114
152	0x3d77fc61	0.06054342
153	0xbbb8e080	-0.005641997
154	0x3dccd4c4	0.10001519
155	0x3d4607a2	0.048347123
156	0xbd87b934	-0.066271216
157	0x4027c753	2.6215408
158	0xbc999407	-0.018747343
159	0xbdd72ae0	-0.10506225
160	0x3dad80b6	0.08471815
161	0x3c2e1470	0.01062499
162	0x3e1f082e	0.15530464
163	0xbc040fbc	-0.008060392
164	0xbf892522	-1.0714457
165	0x3d05a895	0.032631475
166	0x3debd675	0.11515514
167	0xc05c7a9d	-3.4449837
168	0x3fbb2a38	1.4622259
169	0xbd6cc491	-0.057804648
170	0xbbe4517c	-0.0069677215
171	0xbe2c7319	-0.16840781
172	0xc0024db6	-2.035993
173	0x3db0df71	0.08636368
174	0xbfe91284	-1.8208776
175	0xbffcabb9	-1.9739906
176	0x3bb5f860	0.0055532902
177	0x3cad2880	0.021137476
178	0x3c50c7e0	0.012742966
179	0x4092ee37	4.591579
180	0x3d72f03f	0.059311148
181	0x3d8321e2	0.06402947
182	0x3d96f18e	0.07370292
183	0xbed0473f	-0.40679356
184	0xbf9648de	-1.1740987
185	0xbc51d300	-0.012806654
186	0xbf802f26	-1.0014389
187	0xc000eb46	-2.01436
188	0xbd914bb7	-0.070945196
189	0xbbbbe8b3	-0.005734527
190	0xbcb02936	-0.021504026
191	0xbf2472eb	-0.6423785

layers.2.bias f4 [3]
0	0xbeefac8c	-0.4681133
1	0xbf0fe6e7	-0.56211704
2	0xbfa88aea	-1.3167393
