Results/MountainCar-A/trained/model.pt (torch_old, 19132 bytes, 6 tensors)

l1.weight f4 [64, 2]
0	0xbe43e0b1	-0.19128682
1	0xc059b125	-3.401437
2	0xbf81a8c1	-1.0129625
3	0xc09f8e5a	-4.986127
4	0xbec66c92	-0.38754708
5	0xc108857a	-8.532587
6	0xbfc5c4ce	-1.5450685
7	0x3ddc8876	0.10768215
8	0x3dfdf900	0.124010086
9	0x3e809448	0.2511313
10	0xc01cd8c2	-2.4507298
11	0xc059565b	-3.3958957
12	0xbc2d8d40	-0.010592759
13	0x3e35f514	0.17769271
14	0x3e8f394c	0.27973402
15	0xbe892a09	-0.26789883
16	0xbe07e71f	-0.1327176
17	0x40da0592	6.81318
18	0xbf0c6c53	-0.5485279
19	0xbedaa873	-0.42706642
20	0x3e9c7b2e	0.3056273
21	0xbf12c770	-0.5733557
22	0x3e98809e	0.29785627
23	0x3ef06aa2	0.46956354
24	0xbf07c390	-0.5303278
25	0x3df36752	0.11884941
26	0xbe8ee657	-0.2791011
27	0x403fe39f	2.998268
28	0x3f23082d	0.6368435
29	0xbf12a386	-0.57280767
30	0xbdfd84ec	-0.123788685
31	0x40a4a175	5.144709
32	0xbfac1650	-1.3444309
33	0xc0df46e9	-6.977406
34	0xbf182f39	-0.59447056
35	0xc00a84e9	-2.1643622
36	0xbce3b208	-0.027794853
37	0x408a6f32	4.3260736
38	0xbfad0152	-1.3516028
39	0x3f91a967	1.1379822
40	0x3e580c9c	0.2109856
41	0xbea0d93c	-0.31415737
42	0xbfa3e747	-1.2804955
43	0xc0f7b1c2	-7.740449
44	0xbfa7dc98	-1.3114195
45	0xbfbe8cdb	-1.4886736
46	0xbf402af9	-0.7506557
47	0xc0f9408d	-7.7891297
48	0xbe8336ec	-0.2562784
49	0x3f18c790	0.5967951
50	0xbd1f5540	-0.03889966
51	0x3eaa837e	0.33303446
52	0xbfacd2fa	-1.3501885
53	0x3fc57727	1.5426987
54	0x3f1b8cb7	0.6076159
55	0x3e96392e	0.293405
56	0x3dcf4934	0.10121384
57	0xc14824d0	-12.508987
58	0xbec2d38b	-0.3805202
59	0xbe5608aa	-0.20901743
60	0xbe225340	-0.1585207
61	0x40930de8	4.5954475
62	0x3c7af484	0.015317086
63	0x3fae27ad	1.3605858
64	0xbda037ce	-0.07823144
65	0x403fa48e	2.9944186
66	0x3df05678	0.117352426
67	0xbeedc996	-0.4644286
68	0x3ec7b946	0.3900854
69	0x3e91d858	0.2848537
70	0x3d37bd20	0.044858098
71	0xbc1869c0	-0.0093025565
72	0x3e833505	0.25626388
73	0x3eea53fd	0.45767203
74	0x3d35a313	0.044344973
75	0x40a1726a	5.0452166
76	0xbfb38ba5	-1.4026991
77	0x3f3e1f7f	0.7426681
78	0x3f8580b1	1.0429899
79	0xc0e51311	-7.1585774
80	0xbda2e608	-0.07954031
81	0xbe7531ac	-0.2394473
82	0x3d0fe65c	0.035131797
83	0x4081f7fa	4.0615206
84	0xbee58720	-0.44829655
85	0x3e473130	0.19452357
86	0x3dcf3054	0.1011664
87	0x408bc52c	4.367819
88	0xbf945777	-1.1589192
89	0xc0f82562	-7.7545633
90	0x3ec659c3	0.38740358
91	0x3fbd87a9	1.4807025
92	0x3e735105	0.23761375
93	0xc130f73d	-11.060361
94	0x3c48d868	0.0122586265
95	0x4099f0d2	4.810647
96	0xbd5d3010	-0.054000914
97	0xbf0d4bf7	-0.5519404
98	0xbe9d4ff1	-0.30725053
99	0xbe404324	-0.18775612
100	0x3e553d44	0.20824152
101	0x3f288f93	0.65844077
102	0x3dcf9f12	0.10137762
103	0x406f8462	3.742455
104	0x3ee261c8	0.44215226
105	0x3e838903	0.2569047
106	0x3ea1ae8e	0.31578487
107	0xbe3a0dc4	-0.18169314
108	0x3eb43976	0.3520009
109	0x3d823a00	0.06358719
110	0xbe706c04	-0.23478705
111	0x40fcb194	7.896677
112	0xbd063c4b	-0.032772344
113	0x403a4f3c	2.911086
114	0x3f269e3b	0.6508519
115	0x4113fff7	9.249991
116	0xbe62bd5e	-0.2214255
117	0x40e191eb	7.0490623
118	0x3e2cba10	0.16867852
119	0x3f0490db	0.5178353
120	0x3dfeada8	0.12435466
121	0x409c0331	4.8753896
122	0x3f101a41	0.5629006
123	0xbf271b71	-0.6527625
124	0x3c71321f	0.014721422
125	0x404aa597	3.1663568
126	0xbd5d3998	-0.054010004
127	0xbf0cc521	-0.54988295

l1.bias f4 [64]
0	0x3f55f3f7	0.83575386
1	0xbf12117f	-0.57057947
2	0xbeed27c1	-0.46319392
3	0x3f3ea4ad	0.74470025
4	0xbe556a74	-0.2084139
5	0x3f11fb5b	0.57024163
6	0xbebb54f7	-0.3658826
7	0x3dd7158c	0.105021566
8	0xbefbf2a4	-0.49208558
9	0xbef7ef09	-0.48424557
10	0xbf20921a	-0.62722933
11	0xbed2ba2e	-0.4115767
12	0xbf255fd2	-0.64599335
13	0xbec7c393	-0.390164
14	0xbec52cd4	-0.38510764
15	0xbeccfa4b	-0.40034708
16	0x401d5779	2.458464
17	0x3eeef307	0.4666979
18	0xbe971ae7	-0.29512712
19	0x3f1e6268	0.61868906
20	0xbf16853e	-0.5879706
21	0x400f9b96	2.2438712
22	0x3f319e46	0.6938213
23	0x3ffde3b4	1.9835114
24	0xbe9f585b	-0.31122097
25	0xbf0fb60c	-0.56137156
26	0x3f1a3e56	0.6025137
27	0xbeb3c123	-0.3510829
28	0xbee418f2	-0.44550282
29	0xbf001d01	-0.50044256
30	0xbebba654	-0.36650336
31	0x3ee38bde	0.44442648
32	0xbdb6bdb7	-0.08922904
33	0xbf049b70	-0.5179968
34	0xbebb6dcd	-0.3660721
35	0xbf30a501	-0.69001776
36	0x3bcb6cbb	0.00620803
37	0xbea9885d	-0.3311185
38	0x3f64ca3f	0.89371103
39	0x3f424d0c	0.75898814
40	0xbeab9df8	-0.33518958
41	0xbe800ec9	-0.2501128
42	0xbf27d5b5	-0.65560466
43	0xbe91e1b8	-0.28492522
44	0x3ea15265	0.31508175
45	0x3e1771bb	0.14789478
46	0x3daaf2d6	0.083470985
47	0xbea728a5	-0.32648197
48	0xbe963893	-0.29340038
49	0xbee34c15	-0.44393983
50	0xbeb37186	-0.3504755
51	0xbe75fdc5	-0.24022587
52	0xbe823e44	-0.2543813
53	0xbeb7d0cc	-0.35901487
54	0xbf1977bb	-0.5994832
55	0xbe9b7851	-0.30365232
56	0xbe47e898	-0.19522321
57	0xbde70989	-0.112811156
58	0xbf0e7cb9	-0.5565906
59	0xbeb58ec8	-0.35460496
60	0xbea1d402	-0.31607062
61	0xbeb37969	-0.35053566
62	0xbe4b55d6	-0.19856963
63	0x3f3372fb	0.7009732

l2.weight f4 [64, 64]
0	0xbe142bd9	-0.14469852
1	0x3de3510d	0.110994436
2	0xbdf2c410	-0.11853802
3	0xbdc9edde	-0.09859823
4	0x3da5ce8e	0.08096038
5	0xbc80cc0a	-0.015722293
6	0xbc13afa0	-0.00901404
7	0xbd8d0754	-0.06886163
8	0xbcddfae1	-0.027097167
9	0xbda0ad37	-0.07845538
10	0xbbd4e3c0	-0.0064968765
11	0x3c5cea40	0.013483584
12	0x3daf2620	0.08552194
13	0x3d9820b2	0.07428111
14	0x3d9252fa	0.07144733
15	0x3d4748f4	0.048653558
16	0xbd9bfaa3	-0.076161645
17	0xbde7e2c5	-0.1132255
18	0x3da791b4	0.081820875
19	0x3bcd8f73	0.006273204
20	0x3d125fd4	0.03573592
21	0x3ba60980	0.0050670505
22	0xbe075287	-0.13215075
23	0xbd9e13d3	-0.07718625
24	0xbdc28de8	-0.09499723
25	0x3c93cf58	0.018043205
26	0xbd547ac5	-0.051874895
27	0x3cbfd660	0.023417652
28	0x3db5435a	0.08850737
29	0x3c682800	0.014169693
30	0xbc78eb65	-0.015192841
31	0x3d8412ca	0.06448896
32	0x3d8f810f	0.07007038
33	0x3d235e5c	0.03988491
34	0x3c586b00	0.013209105
35	0xbde2e714	-0.11079231
36	0x3db317fd	0.0874481
37	0x3d9455ec	0.07242951
38	0x3dc44125	0.09582738
39	0xbdb20417	-0.08692186
40	0xbd29f13c	-0.041489825
41	0xbd973e93	-0.07384982
42	0x3c30b380	0.010784984
43	0xbdca1da3	-0.09868934
44	0x3c44b658	0.012006365
45	0xbd0f88f7	-0.03504273
46	0xbdea1644	-0.11430028
47	0xbddab877	-0.10679715
48	0xbd7e2894	-0.062050417
49	0xbd00f230	-0.031480968
50	0x3c90ff88	0.017699972
51	0x3dbf9533	0.09354629
52	0xbd321268	-0.043474585
53	0xbd8133a2	-0.06308676
54	0xbdbf5fd4	-0.0934445
55	0xbd7f6e13	-0.062360834
56	0xbcf4bc86	-0.029875051
57	0xbb628a80	-0.0034567416
58	0xbde4e7ec	-0.11177048
59	0xbde11d3a	-0.10991903
60	0x3d858047	0.065186076
61	0xbdf6baea	-0.1204737
62	0x3da14303	0.078741096
63	0xbe11a0dd	-0.1422152
64	0x4017b9a8	2.3707066
65	0x3db3cd8f	0.087794416
66	0xbeca9951	-0.39570096
67	0x3f7c0ecf	0.98460096
68	0x3dc828c2	0.09773399
69	0xbe9058ea	-0.28192836
70	0xbdd3f54e	-0.103495225
71	0x4004742f	2.0695913
72	0x3f85242d	1.0401665
73	0xbf53f521	-0.8279591
74	0xbaed6f00	-0.0018114746
75	0xbdc94618	-0.098278224
76	0x3d5bb448	0.053638726
77	0xbfa3b03f	-1.2788161
78	0xbd4b14b8	-0.049580306
79	0x3f8ab1c0	1.0835495
80	0xbfcebd7c	-1.6151576
81	0x401e3c34	2.4724245
82	0x3f400708	0.7501073
83	0x3f9f7311	1.245699
84	0x3dc00222	0.09375407
85	0xc0145a03	-2.3179939
86	0x3f8031f5	1.0015246
87	0xbfcc8cfb	-1.5980524
88	0xbd910160	-0.070803404
89	0x3d48ee40	0.049055338
90	0x3f95e824	1.1711469
91	0x3c7764e0	0.015099734
92	0xbf9dd7f5	-1.233153
93	0xbd3fbae4	-0.046809092
94	0x3e98c77b	0.29839692
95	0x405430f1	3.3154871
96	0x402eff62	2.7343373
97	0xbcfdd8f0	-0.030987233
98	0xbc9cbc60	-0.019132793
99	0x3d793c6c	0.06084864
100	0x3fe2d624	1.77216
101	0xbeab0e5c	-0.33409393
102	0x3e92b676	0.28654832
103	0xbebb2609	-0.36552456
104	0x3d157658	0.036489815
105	0x3e9c10ce	0.3048157
106	0xbd931648	-0.07181984
107	0xbd9e40c9	-0.077272005
108	0xbea8f6dc	-0.3300084
109	0x403f7212	2.9913373
110	0x3fa0ec93	1.2572197
111	0xbeb6e882	-0.35724264
112	0x3c808970	0.015690535
113	0xbd0589f0	-0.03260225
114	0x3beda0e0	0.007251844
115	0xbb89b841	-0.004202873
116	0xbd8fef10	-0.070280194
117	0x3ce0d8d8	0.02744715
118	0x3df08cfc	0.11745641
119	0x402dbab0	2.7145195
120	0x3f4fa923	0.8111746
121	0xbc2b0e51	-0.010440425
122	0x3e0db748	0.13839447
123	0x3dd7ac90	0.105309606
124	0xbe1f8c63	-0.15580897
125	0x3b9f4c40	0.0048613846
126	0xbab3f229	-0.0013728786
127	0x401c510f	2.4424474
128	0x3cd965e9	0.026537852
129	0xbe1bd278	-0.15217006
130	0x3de8af8e	0.113616094
131	0xbd887360	-0.06662631
132	0xbd612dc0	-0.05497527
133	0x3dbb8855	0.09156863
134	0xbd8493be	-0.06473492
135	0x3dafc785	0.08582977
136	0x3c33d0b2	0.01097505
137	0x3d3456ca	0.04402808
138	0xbdc720c0	-0.097230434
139	0xbd310dc0	-0.043226004
140	0x3d77022c	0.060304806
141	0xbdf795aa	-0.12089093
142	0xbbb54080	-0.0055313706
143	0xbdd4bc04	-0.10387424
144	0x3b7bcdbf	0.0038422195
145	0xbe1734bf	-0.14766215
146	0x3dbcc195	0.0921661
147	0x3c7fae6c	0.01560555
148	0xbdd59e86	-0.104306266
149	0x3bb728ea	0.005589594
150	0xbda83931	-0.082140334
151	0x3d2cd29a	0.042193033
152	0x3cfb2288	0.030656114
153	0xbd538a5c	-0.05164562
154	0xbd211038	-0.039322108
155	0x3d1dd5a0	0.038533807
156	0xbd3ab4e0	-0.045582652
157	0xbdffc778	-0.124892175
158	0xbdb46aa4	-0.088094026
159	0xbd388cea	-0.04505626
160	0xbcb3756f	-0.021906583
161	0xbd9d2ee8	-0.07674962
162	0x3d6fe190	0.058564723
163	0x3ddd2384	0.1079779
164	0xbc837a60	-0.016049564
165	0xbdc35848	-0.09538323
166	0xbe10efac	-0.14153928
167	0xbdb865c0	-0.09003782
168	0x3de3d40a	0.111244276
169	0x3dca082e	0.098648414
170	0x3c936ae0	0.017995298
171	0xbd2865ef	-0.041112836
172	0xbda8e9e4	-0.08247736
173	0x3ce0f61b	0.027461102
174	0x3ba74da0	0.005105689
175	0xbd9428c3	-0.07234337
176	0x3d501408	0.050800353
177	0xbc13bb50	-0.009016827
178	0x3d156a9c	0.036478624
179	0xbda1deb2	-0.07903804
180	0x3d7a0e80	0.061048985
181	0xbc17c420	-0.009263068
182	0x3d30889c	0.04309903
183	0x3d22a7ac	0.039710686
184	0x3d07bfb9	0.033141825
185	0xbc98d530	-0.018656343
186	0x3da01daf	0.07818162
187	0x3d906482	0.0705042
188	0xbe04dfd5	-0.1297601
189	0x3df9f2c8	0.1220451
190	0x3d79bbaf	0.060970005
191	0xbd839b00	-0.06426048
192	0xbfd7cd65	-1.6859556
193	0xc0042ab9	-2.0651076
194	0xc02522f7	-2.580259
195	0xbf16dfbb	-0.58935136
196	0x3cadd118	0.021217868
197	0xbe417d6b	-0.188955
198	0x3dca5c3e	0.09880875
199	0xbffde14f	-1.9834384
200	0xc00e5a20	-2.2242508
201	0xc02997fe	-2.6499019
202	0xbdec471c	-0.115370005
203	0xbcd2c370	-0.025727957
204	0x3d45a934	0.048257068
205	0xc055bf3a	-3.3397965
206	0x3dfcc474	0.12342158
207	0xbfc0223a	-1.5010445
208	0x3fc4a618	1.5363188
209	0xbffa4a75	-1.9553972
210	0xc0167790	-2.3510475
211	0xbf580f9f	-0.84398836
212	0xbd8ba8b8	-0.0681929
213	0x3fd946ff	1.6974791
214	0xbf4c9920	-0.7992115
215	0x3fb1e681	1.3898469
216	0x3d3073ca	0.043079175
217	0x3ce69f58	0.028152153
218	0xbf27abfb	-0.65496796
219	0xbd9ca246	-0.07648139
220	0xc10aa186	-8.664434
221	0x3dc63b2e	0.096792564
222	0xc00af3d6	-2.1711326
223	0xc02a06b2	-2.6566586
224	0xc04c231a	-3.1896424
225	0x3db936e0	0.0904367
226	0xbcc8f620	-0.024531424
227	0xb9a70a00	-0.00031860173
228	0xc013201b	-2.2988346
229	0xc024f9b5	-2.577741
230	0xbe7855a2	-0.24251416
231	0xbf366c31	-0.71258837
232	0xbdc47b8a	-0.09593876
233	0xc01eefa1	-2.4833758
234	0xbdd9f29c	-0.10641977
235	0xbfde86ac	-1.7384849
236	0xbda90159	-0.0825221
237	0xc02cd9f8	-2.7008038
238	0xc189b6df	-17.214293
239	0xc01d023e	-2.4532619
240	0x3db39972	0.08769502
241	0xbd88f4c8	-0.06687313
242	0x3dba101e	0.09085105
243	0xc068dd87	-3.638521
244	0xbb782a40	-0.003786698
245	0xbc1a0df0	-0.009402737
246	0xbd94bdf4	-0.07262793
247	0xc08d968c	-4.4246273
248	0xbf85a8ae	-1.0442102
249	0xc0133115	-2.2998707
250	0xc0088d54	-2.133626
251	0x3ccb3c58	0.024809048
252	0xc0255482	-2.583283
253	0x3db1bfae	0.08679138
254	0xc017bb79	-2.3708174
255	0xc00bb35b	-2.182822

l2.bias f4 [64]
0	0xbd90f710	-0.070783734
1	0x400c6227	2.1934907
2	0xbd14bb27	-0.036311295
3	0xbf6efe90	-0.9335718
4	0xbf412072	-0.7544013
5	0xbca86d5c	-0.02055996
6	0xbd831796	-0.06400983
7	0x3c198a38	0.009371333
8	0xbf437de5	-0.76363975
9	0xbf7fedee	-0.99972427
10	0x3d0a276b	0.033729
11	0xbdc7b424	-0.09751156
12	0xbcf8874f	-0.030337958
13	0xbde208b6	-0.11036818
14	0xbf801628	-1.0006762
15	0x3d43c2b8	0.04779312
16	0xbee6f26f	-0.45106837
17	0xbf468839	-0.7755161
18	0xbe0c32ec	-0.136913
19	0xbe355c9b	-0.17711107
20	0xbd4f80f1	-0.050660077
21	0x3dc111fe	0.0942726
22	0xbe2b4b3a	-0.16727915
23	0xbda3b499	-0.07993431
24	0x3fba926f	1.4575938
25	0xbde5aab4	-0.112142
26	0x3d25016a	0.04028455
27	0xbe1d1c4e	-0.15342829
28	0xbde26e72	-0.11056222
29	0xbd50a1a4	-0.050935403
30	0xbd84cb42	-0.06484081
31	0x3bd5bc18	0.0065226667
32	0xbde86c02	-0.11348726
33	0xbdaf59a7	-0.08562022
34	0xbfab45f5	-1.3380724
35	0xbb2a64cd	-0.0026000023
36	0xbef292b0	-0.4737754
37	0xbdfbe6f7	-0.122999124
38	0xbde687e9	-0.112563916
39	0xbdda8de9	-0.106715985
40	0x3cf887cf	0.030338196
41	0xbd972df5	-0.073818125
42	0xbf527646	-0.8221172
43	0xbab9919c	-0.0014157775
44	0xbdf53b95	-0.11974255
45	0x3d934228	0.07190353
46	0x3c672b23	0.014109406
47	0xbe19bf32	-0.15014341
48	0x3d1f964d	0.038961697
49	0xbc8f765e	-0.017512497
50	0xbf212fbc	-0.6296346
51	0xbd0b6464	-0.034031287
52	0x3cff2324	0.031144686
53	0xbda1819b	-0.078860484
54	0xbdeff43a	-0.117165044
55	0xbf2c9113	-0.67408866
56	0x3c918390	0.01776293
57	0x3cfba7d8	0.030719683
58	0xbc08b149	-0.008343049
59	0x3c5edc53	0.013602334
60	0xbd6640d4	-0.05621417
61	0xbc27994b	-0.010229419
62	0xbd93b5bb	-0.07212397
63	0xbde5258b	-0.111888014

l3.weight f4 [3, 64]
0	0xbda3166a	-0.079632595
1	0x4023cdb3	2.55943
2	0xbdd39fd2	-0.10333218
3	0xbfdfb701	-1.7477723
4	0xbe2cf1bb	-0.16889088
5	0xbbc61536	-0.006045009
6	0xbd80d5ee	-0.06290804
7	0xbc3855e8	-0.01125095
8	0xbf8fdd8e	-1.1239488
9	0x3f9eb013	1.2397484
10	0x3bae3f20	0.0053175837
11	0xbda07176	-0.07834141
12	0xbd242e60	-0.04008329
13	0xbdbfdcc4	-0.093682796
14	0x3efc9e58	0.49339557
15	0xbf694e7d	-0.9113539
16	0xbf7a051d	-0.9766405
17	0xbf548e30	-0.8302946
18	0x3da2d55f	0.079508536
19	0xbc98fe65	-0.018675992
20	0xbc392906	-0.011301285
21	0xbde471e8	-0.111545384
22	0x3d02bff4	0.031921342
23	0xbde847a4	-0.11341789
24	0x4035b03b	2.8388813
25	0x3e059bdb	0.13047735
26	0x3dc2d4f7	0.09513276
27	0x3ccc364f	0.02492824
28	0xbcd600de	-0.02612346
29	0xbb0ef16b	-0.0021811377
30	0xbcd211d8	-0.025643274
31	0x3d5216a5	0.051291127
32	0x3d1e60af	0.038666423
33	0xbcb36d88	-0.021902815
34	0xbf28538f	-0.657525
35	0xbd2c9f8b	-0.04214434
36	0xc098ded0	-4.777199
37	0x38729000	5.7831407e-05
38	0xb9c0eca3	-0.00036797402
39	0xbc54ca15	-0.012987633
40	0xbdb3001d	-0.08740256
41	0x3c1c4ec3	0.009540263
42	0xbfdc2a63	-1.7200435
43	0x3d1221b4	0.035676673
44	0xbd41afe1	-0.04728687
45	0x3c99e952	0.018788014
46	0xbcf5666d	-0.029956067
47	0xbb491052	-0.0030679894
48	0x3b90a2f3	0.0044139563
49	0x3b048c7a	0.0020225332
50	0xbfc4bca3	-1.5370067
51	0x3c482f4c	0.012218308
52	0xbd2417dc	-0.040061817
53	0xbd7ab359	-0.061206196
54	0xbf48d583	-0.78450793
55	0xbffd4a9d	-1.9788395
56	0xbd076070	-0.033050954
57	0x3cda2e98	0.026633546
58	0xba58a59a	-0.00082644226
59	0xbc18abf0	-0.009318337
60	0xbcb4a00e	-0.022048976
61	0x3d72e138	0.059296817
62	0x3d97c5f0	0.074108005
63	0x3d5dae6b	0.054121416
64	0xbd455b2c	-0.04818265
65	0x4036d44e	2.856708
66	0x3c2c9d20	0.010535508
67	0xbfd86a2e	-1.6907403
68	0xbf239514	-0.6389935
69	0x3d10be90	0.035337985
70	0x3d9080d8	0.07055825
71	0x3d7fd55a	0.062459327
72	0xbf110f91	-0.5666438
73	0xbd408bab	-0.047008198
74	0x3dc20e40	0.09475374
75	0x3c0b5fb0	0.0085067
76	0x3c888ae8	0.016667798
77	0x3dbdd5cc	0.09269294
78	0xbf1a79ae	-0.6034192
79	0xbef6b32c	-0.48183572
80	0xbf4152e9	-0.75517136
81	0xbf23a975	-0.63930446
82	0x3d04bcab	0.03240649
83	0xbdf286e9	-0.11842138
84	0x3cf2a4ad	0.02961954
85	0xbc182250	-0.0092855245
86	0x3ddbc3bb	0.10730692
87	0x3d1d7d50	0.038449585
88	0x40386168	2.8809452
89	0x3a66c03a	0.00088024477
90	0x3da0b160	0.078463316
91	0xbd0cb736	-0.03435441
92	0xbc21ebc2	-0.009882869
93	0x3dc88a16	0.09791963
94	0x3cb627d8	0.022235796
95	0x3c1f423a	0.0097203795
96	0x3bf2349c	0.0073915254
97	0x3d253031	0.040329162
98	0xbe7e6595	-0.24843438
99	0x3dd008ab	0.10157903
100	0xc095c15b	-4.679853
101	0x3d03ce8e	0.032179408
102	0x3ddb0e3a	0.10696073
103	0xb781ff5e	-1.5496913e-05
104	0xbc47e1f0	-0.012199864
105	0x3cb816fd	0.0224719
106	0xbf35ee73	-0.7106697
107	0x3d752b08	0.05985549
108	0xbda8553e	-0.08219384
109	0x3bf79ee0	0.007556781
110	0xbd02a3f5	-0.031894643
111	0x3c67716a	0.014126161
112	0xbda63684	-0.08115867
113	0xbdb06fbf	-0.08615064
114	0xbf6761c7	-0.9038357
115	0xbcc1a04b	-0.023636004
116	0x3cec06a2	0.028811757
117	0x3d82a005	0.063781776
118	0xbf47d272	-0.7805549
119	0xbf7550d6	-0.9582647
120	0xbccd2297	-0.025040908
121	0x3de17dd2	0.110103264
122	0xbc47fb18	-0.0122058615
123	0xbdb92c7f	-0.0904169
124	0xbdbf9335	-0.093542494
125	0xbc9f01ff	-0.019410131
126	0x3c943115	0.01808981
127	0x3d32bdd8	0.04363808
128	0xbda43aaa	-0.08019002
129	0x403c1ef4	2.9393892
130	0x3d8ee318	0.069769084
131	0xbfb48b34	-1.4104981
132	0xbf62a414	-0.88531613
133	0xbd51a514	-0.05118282
134	0xbc114f20	-0.0088689625
135	0x3dc1d226	0.09463911
136	0xbf56ac7c	-0.8385694
137	0xbf65f2d8	-0.89823675
138	0xbd358fad	-0.044326473
139	0xbde6049a	-0.112313464
140	0xbd1badf3	-0.038007688
141	0x3d2e980c	0.042625472
142	0xbf58e8f2	-0.84730446
143	0xbe14a49c	-0.14515918
144	0xbf4498c7	-0.7679562
145	0xbf581cf1	-0.8441916
146	0x3bb6d70a	0.005579834
147	0x3d32c89d	0.04364835
148	0xbd0fb177	-0.035081353
149	0xbc94ecf0	-0.018179387
150	0x3c4786ff	0.012178182
151	0x3d5fc22f	0.054628547
152	0x403b0523	2.9221885
153	0x3bb3c4d6	0.005486111
154	0xbdd012d1	-0.10159839
155	0xbedafe53	-0.4277216
156	0xbce63ddb	-0.028105667
157	0x3d0520a4	0.03250183
158	0xbdc78da6	-0.09743814
159	0xbc88099e	-0.016606148
160	0xbd14bb81	-0.03631163
161	0x3d5cafda	0.053878643
162	0xbf2f1b02	-0.68400586
163	0x3d0d1f02	0.0344534
164	0xc09b8c0e	-4.8608465
165	0x3d911cdb	0.07085582
166	0x3b8d1449	0.0043053967
167	0x3cb958be	0.022625323
168	0x3d838a75	0.06422893
169	0x3d38daae	0.045130424
170	0xbf1a5697	-0.60288376
171	0x3c210fe0	0.009830445
172	0xbceba7db	-0.028766563
173	0x3cb066b0	0.02153334
174	0x3c1f2fe6	0.00971601
175	0xbc26003b	-0.010131891
176	0x3d2a599e	0.04158937
177	0x3d07689f	0.03305876
178	0xbf1f59a5	-0.6224616
179	0xbd36dc86	-0.0446439
180	0x3d0c5e2e	0.034269504
181	0x3d676109	0.056489024
182	0xbf085435	-0.5325349
183	0xbf19b497	-0.60041183
184	0x3dc95d3c	0.09832236
185	0xbde1ecb0	-0.11031473
186	0x3cc1a8c2	0.02364004
187	0x3d972256	0.07379596
188	0x3d42b8af	0.04753941
189	0xbdf8d41d	-0.121498324
190	0xbd3bb8e0	-0.045830607
191	0xbcba0578	-0.022707686

l3.bias f4 [3]
0	0x4004de5c	2.0760717
1	0x3fa1ea7e	1.2649686
2	0x401089c0	2.2584076
