Results/CartPole-A/Classifier/trained/model.pt (torch_old, 2563 bytes, 6 tensors)

layers.0.weight f4 [16, 4]
000000 b6 d7 7f bf 29 33 2e bf a1 41 14 be 5d 97 83 3e
       -0.99938524 -0.68046814 -0.1447816 0.2570142
000010 00 c2 57 bf 55 a1 0d 3f e4 b8 de 3e 66 7d 40 bf
       -0.84280396 0.553243 0.43500435 -0.7519134
000020 e6 9b b4 3e 91 4e c1 be e9 18 48 bd 8f 0d 9d 3e
       0.3527519 -0.37755254 -0.04885188 0.30674407
000030 e9 8b 8d 3e 2b 63 26 3e f2 9d 6c bd d5 05 b5 3e
       0.27645805 0.16248767 -0.057767816 0.35356012
000040 e7 5a aa bd 9f c3 86 3d f4 06 91 be a3 bd 92 bf
       -0.083181195 0.065802805 -0.28325617 -1.1464123
000050 2e 01 ae be d5 06 e0 be a6 dc ad bf 3b 1b 17 bf
       -0.33985275 -0.43755212 -1.3582962 -0.59025925
000060 a8 d5 ae 3e ad 63 7c 3d f7 10 3c be fa 9c 34 3f
       0.34147382 0.061618496 -0.18365847 0.7055203
000070 65 11 43 3f a9 af 24 3d cd bf 36 bf 6f 79 ae 3e
       0.76198417 0.040206585 -0.71386415 0.3407702
000080 4e d7 14 3f 08 78 02 be 16 9c d6 3d 77 e5 24 bf
       0.5814103 -0.12741101 0.1047899 -0.64412636
000090 c4 e0 d6 3e 51 60 78 3f bf 63 12 3f 5d 90 e4 be
       0.41968358 0.9702197 0.5718345 -0.4464139
0000a0 13 6d c5 3e 4a 8f 63 be 17 b3 0f 40 ea b4 f0 3d
       0.3855978 -0.22222629 2.2453058 0.117532566
0000b0 dc c1 82 3c f3 86 0c 3f 4b a3 8d 3d ff 3e a3 be
       0.01596158 0.54893416 0.06915911 -0.31884
0000c0 08 2d d6 3e 97 0c 75 be 89 a9 36 be 1e b3 24 bf
       0.4183123 -0.23930584 -0.1783811 -0.6433581
0000d0 46 bb 77 be f0 a3 57 3f 8d 18 57 be 2e fb d7 bd
       -0.24192533 0.84234524 -0.21005459 -0.105459556
0000e0 b3 84 b1 3e 54 f1 87 be 96 22 3e 3f e8 76 8f bf
       0.34671554 -0.26551306 0.74271524 -1.1208162
0000f0 9c 7c 2c 3e eb c8 22 bf 73 51 53 40 47 e6 3a be
       0.1684441 -0.63587826 3.3018463 -0.18251906

layers.0.bias f4 [16]
000000 a8 4f b1 be 80 da 42 3d ac df 1b 3f 91 05 2d 3f
       -0.34631085 0.04757166 0.6088817 0.6758662
000010 37 f0 d9 3e a4 d8 d1 3e cd 4e 82 3e f8 68 30 bf
       0.42566082 0.40985596 0.25450745 -0.6891017
000020 23 5a 58 3e 0d c2 81 3f cd 69 f6 be d8 b6 83 3f
       0.21128134 1.0137345 -0.48127595 1.0290174
000030 0b 01 86 3e c4 da 9b be 74 0e 73 3e b9 c2 1a bd
       0.2617267 -0.30440342 0.23735982 -0.03778336

layers.1.weight f4 [16, 16]
000000 82 37 82 3d eb 50 5b 3f e2 ae 82 bd 59 78 c5 bd
       0.063582435 0.85670346 -0.063810125 -0.09642095
000010 90 61 2d 3f 44 5b 86 3d a2 61 d0 bd c4 71 8e 3f
       0.67726994 0.06560376 -0.10174872 1.1128469
000020 30 5a 48 3e 3a 7b 45 3e 45 30 13 c0 9f 91 27 bd
       0.19565654 0.19285288 -2.2998211 -0.04091036
000030 4b f1 8a 3e ca 4b 8b bf cb b9 12 3f ef 22 d6 bf
       0.27137217 -1.0882504 0.5731475 -1.6729411
000040 f0 20 3e 3e a7 5b 8a 3f 3f df ab 3d ce 74 91 bd
       0.18567252 1.080922 0.0839219 -0.07102357
000050 28 71 2d 3f df 3c e1 3e 7d 09 92 be 74 03 51 3f
       0.6775079 0.43991753 -0.28522864 0.81645894
000060 79 dd 78 3e b2 7a 52 3e 52 af 18 c0 cf ca 63 3e
       0.24303235 0.20554617 -2.3857007 0.22245334
000070 7f e4 99 3e f3 17 5e bf ea 78 af 3e 3e fc c4 bf
       0.3005714 -0.86755294 0.34271938 -1.5389478
000080 4e 49 a7 3e 09 f2 cf 3f 7d b6 f9 3e 5d 8e 07 be
       0.32673115 1.6245738 0.4877204 -0.13237901
000090 2a 71 76 bd 7b 9d 62 3e ba 00 83 3d e9 36 aa 3e
       -0.060166515 0.22130387 0.06396623 0.33245018
0000a0 88 de 66 bf 72 3f 15 be a7 10 da 3f 50 7a 1f be
       -0.90183306 -0.14574984 1.7036332 -0.15574002
0000b0 05 83 04 bf fb 4a 0c be d7 bc 56 be b8 d9 87 3f
       -0.5176242 -0.13700478 -0.20970474 1.0613317
0000c0 79 2d 0f 3f b5 a4 b8 bf f7 2f b8 3d e5 98 21 be
       0.5592876 -1.4425265 0.089935236 -0.15780981
0000d0 78 f5 16 3e f7 24 4a 3f 83 a1 2a bf 89 b5 0a c0
       0.14742076 0.78962654 -0.666527 -2.16733
0000e0 9b 2a 09 be 68 31 e7 3d 61 3f a2 be e7 32 83 3c
       -0.13395159 0.1128872 -0.3168898 0.016015483
0000f0 89 a4 b7 3d e8 e8 d5 bd c0 56 49 bd 9e ae 5c bf
       0.089669295 -0.10444814 -0.049154997 -0.86203945
000100 93 ae 76 3e c0 de 92 3f 90 64 0f bf 6d 93 1d be
       0.24090032 1.1474228 -0.5601282 -0.1538827
000110 ce 8a ed 3d 68 fa b2 bd aa c4 a2 be 46 43 fd be
       0.115987405 -0.087391675 -0.31790668 -0.49465388
000120 0f c2 16 bf 32 bc 68 3e a5 5a 20 be 74 92 5f 3e
       -0.5888986 0.22728041 -0.15659578 0.21833211
000130 93 98 34 bf e8 1c bd 3e 3f f6 fe be 8e b2 ce be
       -0.7054531 0.36936116 -0.49797246 -0.403706
000140 a7 dc cb be b4 7d 3a 3f 7e d0 88 3d 4d ef b6 3c
       -0.39816782 0.7284806 0.06680392 0.022330904
000150 94 fa 09 3f 54 9a e4 bd 90 ea 58 bc b6 bc 4a 3f
       0.53897977 -0.11162248 -0.013239518 0.791942
000160 15 33 88 3e df 89 8f 3e ba a0 0e c0 cd fb b6 3d
       0.26601472 0.28034875 -2.22856 0.08934746
000170 b9 d3 10 3f 9a e5 60 bf f6 1b 64 3e e1 ee fc bf
       0.56573063 -0.87850344 0.22276291 -1.97604
000180 4e c9 b4 be fc 50 44 bf ad 57 52 3e 2b 9a ea bc
       -0.35309833 -0.7668607 0.20541258 -0.028637966
000190 b3 b9 35 bf 55 70 60 bf 06 c8 88 3e d3 af 68 bf
       -0.7098648 -0.87671405 0.26715106 -0.90893286
0001a0 77 47 ce be fc 4f ad 3e fd e1 0f 40 44 d6 12 3d
       -0.40288898 0.33850086 2.2481682 0.03584887
0001b0 4b 76 be be 35 e1 72 3f 3f 25 e9 be 35 5e d1 3f
       -0.37199625 0.9487489 -0.4553623 1.6356875
0001c0 85 65 13 bf d9 40 73 bf 05 1e 09 3e 73 0c 52 3e
       -0.5757678 -0.95020825 0.13390358 0.20512562
0001d0 b1 a4 07 bf 90 9c 02 bf 81 2a 9d 3e 79 17 83 bf
       -0.52985674 -0.51020145 0.3069649 -1.0241538
0001e0 46 2e 5c be 64 a9 1c 3c 88 6d f6 3f 8f 94 76 3e
       -0.21502027 0.00956187 1.9252176 0.24080108
0001f0 dd 41 80 bc b3 d6 78 3f 3e cd f9 be c2 41 b9 3f
       -0.015656406 0.97202605 -0.487894 1.4473193
000200 26 f3 19 be 0a 61 4d 3f 1c cb 0b 3e ff 84 e4 3e
       -0.1503416 0.80226195 0.13651699 0.44632718
000210 9e 95 f2 3e 80 7a bd 3e 60 ac 47 3e 1e cb 64 3f
       0.47379774 0.37007523 0.1949935 0.8937243
000220 26 a4 10 3f 5a 36 f2 3e 62 d6 08 c0 b5 e3 f6 3d
       0.5650047 0.47307092 -2.138085 0.120551504
000230 fc 27 ff 3e 16 20 0f bf 76 03 bd 3e 55 f0 8d bf
       0.49835193 -0.55908334 0.36916703 -1.1088969
000240 06 9f 0b bf ad 00 24 bf 5d 92 3e 3e a3 7c ae 3e
       -0.54539526 -0.6406353 0.1861052 0.34079465
000250 d3 ed 09 bf bc a1 d1 be a2 0f 8d bd 64 e4 7c bf
       -0.53878516 -0.40943706 -0.06887747 -0.98785996
000260 bd a9 38 3c 12 54 90 bd 7a 09 0b 40 07 eb b7 3d
       0.0112709375 -0.07047285 2.1724534 0.08980375
000270 e1 af b5 3d 7c 62 51 3f 18 65 98 be 3b 22 a2 3f
       0.08871437 0.817909 -0.29764628 1.2666696
000280 0f cb ef be 93 e1 b1 3e 70 f9 99 3f b7 b4 db 3f
       -0.4683461 0.34742412 1.2029247 1.7164525
000290 6c 0f ba 3f 3a ec 45 bc cc 7c 23 3f 60 1b 63 bf
       1.4535956 -0.012080247 0.638623 -0.88713646
0002a0 af fd 31 3f 33 1a c7 3f bf a3 a3 be c2 a7 fe 3f
       0.69527715 1.555487 -0.31960866 1.9894946
0002b0 4d 39 52 3f 50 dd a4 3f 53 7d 0f 3f 2c 51 8a 3d
       0.82118684 1.2880039 0.56050605 0.067537636
0002c0 9c bf 91 3e ef 8e cb 3f b3 80 c3 3d 7e 55 75 be
       0.284665 1.5902995 0.09546032 -0.23958394
0002d0 85 7f 61 3a 14 1b f6 3e a1 9a a4 3e ca d4 00 be
       0.0008602071 0.48067534 0.32149222 -0.12581173
0002e0 c1 50 84 bf 8d 98 ef be 36 75 95 3e 7c 90 5d 3e
       -1.0337144 -0.46796075 0.29190987 0.21637148
0002f0 3c 02 97 be 1b 06 31 3d 0f 69 c5 be c7 fb 3e 3f
       -0.29493892 0.043218713 -0.38556716 0.7460293
000300 0a c3 09 bf 56 2c 93 bf 5e 50 af 3d 24 de 72 3e
       -0.5381323 -1.1497905 0.08560251 0.23717552
000310 6f b8 f0 be 0c 9c 29 bf 24 b5 67 3d a3 3a 62 bf
       -0.47015712 -0.66253734 0.056569234 -0.8837072
000320 43 72 cb be 47 40 75 3e 26 39 f3 3f 0f c9 42 3d
       -0.39735612 0.23950301 1.9001815 0.047555026
000330 a1 c4 cb bb 75 b0 99 3f 3d 56 c0 be 3f 7d ec 3f
       -0.0062185084 1.2006975 -0.37565795 1.8475722
000340 03 9b 8e 3e 95 04 cb bf 60 12 e0 bc 27 7b b1 bd
       0.2785264 -1.5860773 -0.027352512 -0.086660676
000350 75 57 09 bf 59 13 a7 bf 61 73 bc 3e 38 7e 4f bf
       -0.53649074 -1.305278 0.36806777 -0.8105197
000360 8a 44 a1 be 0d ea ac 3e 48 49 fe 3f 80 d6 21 3e
       -0.31497604 0.33772317 1.9866114 0.15804482
000370 fc 07 c9 be dc cb 7f 3f 32 15 0b bf 36 59 b9 3f
       -0.39263904 0.9992044 -0.54329216 1.448035
000380 b1 48 13 bf 74 44 51 bf d6 34 0b 3e 95 e3 c3 3e
       -0.57532793 -0.81745076 0.13594374 0.3825957
000390 61 f0 70 be 5f 7b 11 bf df 74 a2 3e d5 9d 62 bf
       -0.23529197 -0.56828874 0.3172979 -0.8852208
0003a0 aa b3 b8 bd de 58 be bd e5 92 f2 3f 4f 0a 09 3e
       -0.09018643 -0.09294294 1.8951079 0.13382839
0003b0 fb aa 6c bd 0b 3e 73 3f 78 98 a8 be b5 3a df 3f
       -0.057780247 0.95016545 -0.32928824 1.7439791
0003c0 35 3b b7 3e 5f 22 d0 bd 4c cf 31 3e b5 16 cd be
       0.3578736 -0.10162806 0.17364234 -0.40056387
0003d0 f5 73 22 be 1e 6c f2 3e ff e0 97 bf 2e d3 90 3d
       -0.15864547 0.47348112 -1.1865538 0.07071529
0003e0 68 28 88 bb 8a 04 25 bf 93 f4 8f 3e f4 80 2d bf
       -0.0041552074 -0.6446005 0.28116283 -0.6777489
0003f0 6f 72 85 3e 40 6d 1b be e7 d1 d1 3d 25 71 01 3f
       0.26063868 -0.15178394 0.10245114 0.5056327

layers.1.bias f4 [16]
000000 2f ab e4 3d 3e 11 a3 3e d9 91 cc 3e 71 a4 dc 3e
       0.11165463 0.31849092 0.39955023 0.4309421
000010 f7 a5 3a be 26 19 ca bd 62 1f d3 3e 12 14 9e 3e
       -0.18227373 -0.09868078 0.4123488 0.30874687
000020 5c 8a 21 3e 5e 2d 9d 3e f0 e9 01 40 42 58 f4 3e
       0.15775436 0.30698675 2.0299034 0.47723585
000030 de 19 b4 3e 9c 8b 8d 3e 13 c0 65 3e 58 67 71 3e
       0.35175985 0.27645576 0.22436552 0.23574579

layers.2.weight f4 [2, 16]
000000 76 06 92 3f 88 16 8b 3f 89 f9 94 bf f8 b2 c6 3f
       1.1408222 1.0866251 -1.1638652 1.5523367
000010 54 45 21 40 39 40 47 3f c7 85 ba bf 17 10 c1 bf
       2.5198565 0.7783237 -1.4572076 -1.5083035
000020 c4 7e 0e 3f db 4e f0 bf 5a 42 7d 3e b1 e5 6c bf
       0.5566218 -1.8774065 0.24732342 -0.9253798
000030 f0 c1 bf bf e4 8a ca bf 4d 09 9d bf 57 c9 a9 3e
       -1.498106 -1.5823636 -1.2268463 0.33161423
000040 61 a7 7b bf 9f 33 01 bf 2d 69 67 3f 8e b9 d5 bf
       -0.98302275 -0.5046939 0.9039486 -1.6697252
000050 28 fe 0c c0 37 0e 0d bf 98 76 d1 3f 6d c6 c6 3f
       -2.2030125 -0.55099815 1.6364317 1.5529305
000060 41 1a 49 bd b7 80 fd 3f 0b 15 8c 3e 53 9e 3e 3f
       -0.049097303 1.9804906 0.27359805 0.74460334
000070 58 16 d2 3f 9f f2 c6 3f ef 2f c4 3f 8b 07 2a bf
       1.6413069 1.5542792 1.5327128 -0.6641776

layers.2.bias f4 [2]
000000 44 6c 84 3e 48 4c dd 3e
       0.2586385 0.4322226
