Results/CartPole-Experiment-PolicyGradient/trained/model.pt (torch_old, 2488 bytes, 6 tensors)

l1.weight f4 [16, 4]
0.11118346 -0.22554573 -0.15908207 0.166969 -0.42665532 0.43122455 0.50468576 0.3950752
0.41888374 0.13390279 0.1835026 -0.0439513 -0.17674454 -0.2193768 0.4006373 0.08538677
0.07247198 -0.0019974113 0.43708336 0.15559506 -0.076617226 0.075904086 -0.33514178 -0.5582282
-0.05512794 0.28851724 1.2756312 0.7657509 -0.057723433 0.7209371 0.7684058 0.80741584
0.0900592 -0.7857666 -1.0487012 -0.5346988 -0.06583324 -0.40841764 -0.7018971 -0.7487792
0.026160482 -0.4875405 0.39109206 -0.0026833545 -0.2144961 0.36252877 -0.5816067 -0.10647996
-0.40611345 -0.19973212 -1.5676712 -1.0272112 0.2844164 0.114126496 1.5888243 0.87964517
0.059521273 -0.32940933 0.7858721 0.45176718 -0.4299531 0.50328314 1.538031 1.070829
00000000: 27b4 e33d 76f5 66be 69e6 22be ecf9 2a3e
00000010: 9172 dabe 77c9 dc3e 1633 013f 4c47 ca3e
00000020: ee77 d63e d01d 093e 1be8 3b3e 4706 34bd
00000030: 85fc 34be 50a4 60be 5520 cd3e 42df ae3d
00000040: 306c 943d 00e7 02bb 64c9 df3e 5054 1f3e
00000050: 7ee9 9cbd 9a73 9b3d b497 abbe 0be8 0ebf
00000060: d6cd 61bd 88b8 933e e247 a33f 4008 443f
00000070: 686f 6cbd 558f 383f 3eb6 443f ceb2 4e3f
00000080: f570 b83d 0028 49bf d73b 86bf 05e2 08bf
00000090: 94d3 86bd 1e1c d1be 87af 33bf feaf 3fbf
000000a0: 824e d63c e99e f9be 383d c83e 38db 2fbb
000000b0: dea4 5bbe 5f9d b93e 2de4 14bf 2a12 dabd
000000c0: 1aee cfbe 9486 4cbe 73a9 c8bf a87b 83bf
000000d0: 079f 913e 27bb e93d 985e cb3f 6d30 613f
000000e0: 94cc 733d 57a8 a8be ea2e 493f 074e e73e
000000f0: d022 dcbe 2ad7 003f 33de c43f ed10 893f

l1.bias f4 [16]
-0.40324783 -0.065268226 -0.22878224 0.07260907 -0.37945914 -0.3740513 0.22310953 0.170255
0.19510481 0.33154777 0.16550626 0.026374653 0.49571157 0.35116526 -0.41784966 0.20348611
00000000: 8076 cebe 59ab 85bd e445 6abe 10b4 943d
00000010: 7848 c2be a783 bfbe d376 643e 5457 2e3e
00000020: 8ec9 473e a1c0 a93e 797a 293e a80f d83c
00000030: e8cd fd3e efcb b33e 64f0 d5be aa5e 503e

l2.weight f4 [16, 16]
-0.27083516 -0.11080631 0.118886605 -0.042601794 0.146831 -0.14478391 -0.30413055 0.34065977
-0.16479708 0.06590891 0.19244088 -0.26744983 -0.0486146 0.09978755 -0.16738966 -0.21101859
0.12440686 0.27363133 -0.31795916 -0.06555866 0.22897068 -0.042693134 0.41486892 0.45106587
-0.49194837 -0.5028438 0.20213069 0.18779652 -0.15745313 0.35108474 0.11661578 0.65361804
0.24044015 -0.05587714 -0.15119074 0.34204438 0.18110877 0.32598963 -0.26639032 -0.46483752
0.40490776 0.57134414 0.41237292 0.17847668 0.80260223 -0.40024108 -0.28650415 -0.41042382
0.09413553 0.18087325 -0.20648338 -0.046750214 0.21571505 0.16566339 0.053501 0.12640393
0.06813867 -0.011509594 -0.26989192 -0.30163282 -0.1992527 -0.13991036 -0.15323806 -0.013322105
0.077371955 -0.056608826 0.09608519 0.08079618 0.15263474 0.16836092 -0.08466318 0.2442564
-0.028901935 -0.0085889995 -0.23597002 -0.16090405 -0.14605087 -0.10693073 0.17774239 -0.08169526
-0.27882513 0.04572272 0.08004239 0.06687976 -0.12936804 0.12793012 -0.3136508 -0.05103707
-0.27805603 -0.14079146 -0.17160316 0.14434509 0.0033528625 -0.061973903 0.24952629 -0.009983432
0.17051178 -0.08745642 -0.26158056 0.19537741 -0.062515855 -0.020211339 -0.21537474 -0.04938215
-0.16124696 0.1332182 -0.21613026 -0.29136217 -0.10499858 -0.13517886 0.08945292 -0.0962314
-0.0394273 -0.014926958 0.5102379 -0.22604452 0.11740157 0.02032805 0.43551177 0.16778313
-0.29244182 -0.44483417 0.14374352 -0.12984987 -0.16702269 0.3134483 0.018505417 0.36225712
0.08111035 0.40110898 0.21080922 0.11157996 -0.22488117 0.074054874 0.5316838 0.62112564
-0.1263805 -0.3059987 -0.055797685 0.37623402 -0.45615363 0.66441804 -0.1593761 0.35006082
0.0118055595 -0.17962226 -0.057275176 0.08494816 0.19802222 0.12597917 -0.12831095 -0.14065543
0.1553176 -0.05325654 -0.1739118 0.0074667777 -0.3380897 0.09938548 0.046225615 -0.27198854
-0.32455522 0.032258168 0.20121536 -0.116862 -0.1267694 -0.00021558095 -0.4227539 -0.166868
-0.4037041 0.18384099 0.24485405 -0.1470633 -0.09814873 -0.04789304 0.029954344 -0.34059843
0.19598229 0.07839925 -0.014488876 -0.025111765 0.22718629 0.1988415 -0.17095004 0.15206534
-0.034963515 -0.2290006 0.15520753 -0.2737039 0.13258217 -0.14207818 0.16432329 0.06594996
0.059464484 0.03916407 -0.10383737 -0.27369922 -0.21664286 -0.010259926 -0.28655812 -0.1580764
-0.21940355 -0.0852091 0.048152775 -0.09416887 -0.24873555 0.044858754 -0.21803826 0.04217887
-0.047360033 0.050463766 0.00924778 -0.15931678 0.14079535 0.14010468 0.012589991 -0.14207223
-0.10622665 0.0034427643 -0.1428343 -0.13948956 -0.037291765 -0.0719876 0.061370194 -0.06571138
0.014763032 0.1953853 0.13800305 0.2929478 0.047695577 0.13385035 0.28280848 0.33435386
-0.4899168 -0.3444776 0.22414167 -0.11537128 -0.39722142 0.6004642 0.1901951 0.6106873
0.001325842 -0.18949418 -0.2683242 0.105828725 0.104331136 0.10260384 -0.26579314 -0.23026192
0.54323494 0.49318427 0.3260955 0.34412643 0.94260263 -0.49819133 0.042371664 -0.48340783
00000000: e8aa 8abe 6bee e2bd d27a f33d 387f 2ebd
00000010: de5a 163e 3c42 14be 00b7 9bbe f56a ae3e
00000020: 91c0 28be 40fb 863d 390f 453e 2fef 88be
00000030: 1a20 47bd 6a5d cc3d 3268 2bbe 4215 58be
00000040: 06c9 fe3d 6819 8c3e 8bcb a2be 9e43 86bd
00000050: 4a77 6a3e ffde 2ebd b369 d43e 1bf2 e63e
00000060: a8e0 fbbe 5fba 00bf 59fb 4e3e bb4d 403e
00000070: 653b 21be 61c1 b33e 41d4 ee3d 8353 273f
00000080: f135 763e 6edf 64bd bfd1 1abe 7120 af3e
00000090: 9474 393e 1de8 a63e 5064 88be 2fff edbe
000000a0: 1250 cf3e 9c43 123f 8b22 d33e 97c2 363e
000000b0: 5777 4d3f 66ec ccbe acb0 92be 1223 d2be
000000c0: 21ca c03d d636 393e 6170 53be 277d 3fbd
000000d0: 68e4 5c3e aaa3 293e dd23 5b3d 0870 013e
000000e0: 498c 8b3d bc92 3cbc 462f 8abe 9e6f 9abe
000000f0: e608 4cbe a944 0fbe 70ea 1cbe f544 5abc
00000100: 3075 9e3d a8de 67bd 50c8 c43d 7878 a53d
00000110: 484c 1c3e ce66 2c3e e463 adbd 5a1e 7a3e
00000120: c0c3 ecbc e0b8 0cbc 20a2 71be 08c4 24be
00000130: 5c8e 15be 80fe dabd 1a02 363e d84f a7bd
00000140: 2bc2 8ebe bf47 3b3d 44ed a33d 41f8 883d
00000150: 0e79 04be 1d00 033e d696 a0be 3f0c 51bd
00000160: 5c5d 8ebe a32b 10be bdb8 2fbe 33cf 133e
00000170: b3bb 5b3b 59d8 7dbd d283 7f3e 8c91 23bc
00000180: a49a 2e3e 5a1c b3bd e3ed 85be 0411 483e
00000190: 5008 80bd 4092 a5bc 328b 5cbe f044 4abd
000001a0: ec1d 25be 5a6a 083e 4051 5dbe 6c2d 95be
000001b0: 7f09 d7bd 546c 0abe 1833 b73d f814 c5bd
000001c0: 857e 21bd 3390 74bc f39e 023f 3778 67be
000001d0: 3c70 f03d 0387 a63c 66fb de3e 57cf 2b3e
000001e0: efba 95be 4ec1 e3be 8031 133e 5df7 04be
000001f0: ff07 2bbe 4c7c a03e ac98 973c c479 b93e
00000200: 2f1d a63d 285e cd3e 5fde 573e 0984 e43d
00000210: 4047 66be 15aa 973d 6e1c 083f 1702 1f3f
00000220: e469 01be ddab 9cbe 1d8c 64bd bfa1 c03e
00000230: f88c e9be 4d17 2a3f 7d33 23be 2c3b b33e
00000240: 1b6c 413c e6ee 37be 6099 6abd 4df9 ad3d
00000250: 56c6 4a3e af00 013e f263 03be fa07 10be
00000260: 940b 1f3e 8823 5abd ef15 32be dfab f43b
00000270: 181a adbe 9d8a cb3d 1257 3d3d 1542 8bbe
00000280: 1a2c a6be 2421 043d 660b 4e3e 5855 efbd
00000290: d6cf 01be 920d 62b9 3373 d8be 72df 2abe
000002a0: 4eb2 cebe d040 3c3e 05bb 7a3e c397 16be
000002b0: 3402 c9bd 7e2b 44bd d062 f53c eb62 aebe
000002c0: 95af 483e c98f a03d c062 6dbc 30b7 cdbc
000002d0: 86a3 683e 1b9d 4b3e 870d 2fbe 04b7 1b3e
000002e0: e735 0fbd 227f 6abe b9ee 1e3e eb22 8cbe
000002f0: 9fc3 073e f17c 11be 5d44 283e c610 873d
00000300: 0891 733d 816a 203d b0a8 d4bd 4e22 8cbe
00000310: a0d7 5dbe 4019 28bc bfb7 92be c8de 21be
00000320: 53ab 60be 1c82 aebd d83b 453d 9cdb c0bd
00000330: 88b4 7ebe d0bd 373d 6c45 5fbe c0c3 2c3d
00000340: 98fc 41bd 18b3 4e3d 0084 173c f023 23be
00000350: a82c 103e 9a77 0f3e 4046 4e3c 627b 11be
00000360: 5c8d d9bd 00a0 613b 2843 12be 5ad6 0ebe
00000370: 40bf 18bd 3c6e 93bd 505f 7b3d b093 86bd
00000380: a5e0 713c 1613 483e ac50 0d3e 41fd 953e
00000390: 705c 433d 1110 093e 46cc 903e 6e30 ab3e
000003a0: 60d6 fabe 5e5f b0be 6585 653e c747 ecbd
000003b0: 9b60 cbbe 06b8 193f 81c2 423e 0156 1c3f
000003c0: e0c7 ad3a c30a 42be ca61 89be bbbc d83d
000003d0: 90ab d53d f621 d23d 0a16 88be c8c9 6bbe
000003e0: 7211 0b3f a682 fc3e fdf5 a63e 5731 b03e
000003f0: 684e 713f ef12 ffbe e98d 2d3d 3b81 f7be

l2.bias f4 [16]
-0.24682656 -0.13470575 0.49518043 -0.067050405 -0.12761211 -0.37259436 -0.3036387 0.1122244
0.012686884 -0.1259729 -0.22529988 -0.22784036 -0.39682207 -0.14676476 0.16933385 0.45595577
00000000: 1ac0 7cbe 4ef0 09be 4a88 fd3e b951 89bd
00000010: c0ac 02be b0c4 bebe 8876 9bbe e8d5 e53d
00000020: a6dc 4f3c 0aff 00be 03b5 66be fc4e 69be
00000030: 432c cbbe 8049 16be da65 2d3e 0973 e93e

l3.weight f4 [2, 16]
-0.04545081 -0.36824906 0.8422225 0.08575976 0.24085858 0.1343161 0.024289591 -0.092585355
-0.47753635 -0.17567258 0.027138088 -0.02507799 -0.064030156 0.0123054385 -0.57347065 0.5399463
0.027594246 0.22317074 -0.92393446 0.18211626 0.009587944 -0.14173487 0.19748102 0.12527794
0.23917621 0.1553392 0.25055546 0.02013192 0.11872879 -0.21175995 0.53315973 -0.72710544
00000000: a12a 3abd 248b bcbe e59b 573f d0a2 af3d
00000010: a2a3 763e 298a 093e f7fa c63c 649d bdbd
00000020: a57f f4be 83e3 33be b250 de3c 5b70 cdbc
00000030: 3e22 83bd c09c 493c f9ce 12bf ec39 0a3f
00000040: 540d e23c df86 643e f886 6cbf af7c 3a3e
00000050: c016 1d3c f222 11be 7738 4a3e dc48 003e
00000060: 9cea 743e 3d11 1f3e ce48 803e b2eb a43c
00000070: 1428 f33d 9ad7 58be 287d 083f 9523 3abf

l3.bias f4 [2]
-0.00463194 0.0033635178
00000000: 87c7 97bb 776e 5c3b
