Results/Experiment-MountainCar-DQN-Training/DQN/initial/model.pt (torch_old, 19219 bytes, 6 tensors)

layers.0.weight f4 [64, 2]
000000 cc 90 43 be 96 78 bf be 00 20 18 3e dc 8e 63 3e
       -0.19098204 -0.37396687 0.14855957 0.22222465
000010 5f 36 28 3f cd 09 34 3f c3 55 0e 3f 72 02 c0 3e
       0.65707964 0.70327455 0.5559961 0.37501866
000020 40 16 40 3c ac a0 30 3e 10 ab 0e be 25 87 09 bf
       0.011724055 0.17248791 -0.13932443 -0.5372184
000030 ce 2c bf be 36 d6 aa 3e 62 e9 db 3e 63 75 2d 3f
       -0.3733887 0.33366555 0.42951494 0.6775724
000040 2a 81 f4 3e c0 1d c0 be d7 09 33 3f 14 7b 50 be
       0.47754794 -0.37522697 0.6993689 -0.2035945
000050 41 38 be be 51 42 9b be de 45 e6 3e 8b 05 24 3f
       -0.37152293 -0.30324033 0.4497518 0.6407096
000060 36 90 9f be 95 9a 31 3f 7a 04 f9 3e 8b 58 02 3f
       -0.31164712 0.693765 0.48636228 0.50916356
000070 bb dd 92 be d0 ef c5 3d 6e 34 e6 3e 36 97 00 bf
       -0.28684792 0.09664881 0.44961876 -0.5023073
000080 2c 20 c8 be ca db 6d be 42 4b 83 3e 33 c6 24 3f
       -0.39087045 -0.23228374 0.25643355 0.6436493
000090 50 75 26 bf 02 72 af be e4 0f 0f 3e 3f d5 ff be
       -0.65022755 -0.3426667 0.13970906 -0.4996738
0000a0 d0 2d f3 3d 17 88 92 be 2c ac 44 3e f4 b8 20 bf
       0.118739724 -0.28619453 0.19206303 -0.62782216
0000b0 1e f8 d9 be 60 1b 06 bd 50 2c f1 bd c6 2d b8 3e
       -0.4257211 -0.03274095 -0.1177603 0.35972422
0000c0 4d ca 1b 3f 3f 91 2c bf 34 cc 0e 3e 40 21 f7 3d
       0.6085556 -0.6740913 0.13945085 0.12066889
0000d0 4e 0f 1e bf 80 81 66 3e f6 3d e5 be 64 98 50 3e
       -0.61742103 0.22510338 -0.44773835 0.20370632
0000e0 5f e4 04 bf 13 b2 c5 be b0 1e 11 3d 50 7d 3d bd
       -0.51910967 -0.38612422 0.035429657 -0.046262085
0000f0 c7 6d 2f bf 52 bc fd be ad 97 22 bf b3 64 29 3f
       -0.6852688 -0.4955774 -0.6351269 0.6616928
000100 d0 04 d3 be 37 d2 16 3f 90 7b fe bd 7f 5a ab be
       -0.4121461 0.5891451 -0.124259114 -0.3346748
000110 47 e2 26 3f c3 9b 14 3f 78 15 15 3e 00 7a b8 3a
       0.6518902 0.58050174 0.14558971 0.0014074445
000120 3c 23 03 be 5e 71 ab be 28 af 36 be 46 16 a8 be
       -0.1280641 -0.3348493 -0.17840254 -0.32829493
000130 68 52 78 3e 70 e9 12 bd a0 7c 8b 3e f3 6b 29 3f
       0.24250185 -0.035867155 0.2724352 0.6618034
000140 00 ed b2 3d 3b a6 cd be 40 ed 31 3e 5c 9f 22 bf
       0.087366104 -0.40165886 0.1737566 -0.63524413
000150 da 53 dc be e5 9a 90 be ac f6 41 be ff 27 33 3f
       -0.43032724 -0.28243175 -0.18941754 0.69982904
000160 40 d7 45 3c d5 8c 13 bf f2 ae d3 3e 03 c2 0e bf
       0.012075245 -0.5763677 0.4134441 -0.5576479
000170 60 6a b5 bc 75 3b 08 3f 66 98 7e be e4 05 79 3e
       -0.02214545 0.53215724 -0.24862823 0.24318653
000180 2d e6 04 bf b6 cc a1 3e d8 cd 77 be da b6 d3 be
       -0.5191372 0.31601495 -0.24199617 -0.41350442
000190 e1 0f 16 3f 3e 17 07 bf 6c 30 23 be 24 fd 30 bf
       0.5861798 -0.5276984 -0.1593644 -0.6913626
0001a0 1a 1f ae 3e 46 c3 ea 3e 77 cc 2b bf 5a 55 a5 3e
       0.34008104 0.45852107 -0.67108864 0.3229168
0001b0 ca b0 5c be 14 e8 0d be 9a 6b 32 bf ae 79 bc 3e
       -0.21551815 -0.13858062 -0.69695437 0.36811584
0001c0 ad 7d 1e 3f 14 96 03 3e 2c f2 6a be 45 a0 31 3f
       0.61910516 0.12850219 -0.22943944 0.69385177
0001d0 50 dd 92 3d 50 2c 0a 3d e5 75 17 3f 71 f1 2e 3f
       0.07171118 0.033733666 0.5916427 0.6833716
0001e0 c4 4f f3 be e6 0e 7c be 8f 19 c3 be c6 27 18 bf
       -0.47521794 -0.24615058 -0.38105437 -0.5943569
0001f0 d2 cc a5 3e 24 2d 08 be 04 58 14 3e c4 31 9b be
       0.32382828 -0.1329847 0.144867 -0.30311406

layers.0.bias f4 [64]
000000 f3 b7 17 3f 2e 75 e8 3e d9 6d 95 be c0 12 78 3d
       0.5926506 0.454019 -0.2918537 0.060564756
000010 44 da 19 3e 56 7a a9 3e ed d6 2b 3f 4b 06 81 be
       0.15024668 0.33101147 0.67124826 -0.25200114
000020 27 69 04 3f 0b c4 ec be 86 6a e9 3e 11 2f 27 3f
       0.5172295 -0.4624332 0.45589083 0.6530619
000030 ae b6 d7 3e d9 11 c9 be 76 44 95 3e 02 24 e7 be
       0.4213156 -0.3927143 0.29153794 -0.4514466
000040 52 09 13 bf 18 a4 22 bf 60 e2 04 be 40 72 77 3d
       -0.57436097 -0.6353164 -0.1297698 0.06041169
000050 3e b5 12 bf 7a 79 0b bf 3f da 07 3f 78 52 f3 be
       -0.57307804 -0.54482234 0.5306739 -0.47523856
000060 10 45 d7 3d 12 b4 9a 3e d5 b1 14 3f f8 dd 45 be
       0.105112195 0.30215508 0.5808385 -0.19322956
000070 80 a0 72 3d 76 9b be be 56 f8 21 bf c6 f6 8a 3e
       0.059235096 -0.37227982 -0.63269556 0.27141398
000080 7b 28 1c 3f 18 d0 88 3e 5c c2 2a be 62 f8 ab 3e
       0.6099927 0.26721263 -0.16675705 0.3358794
000090 8e 66 6b be e4 dc 11 bf 78 46 30 3e 0a e2 d2 3e
       -0.2298834 -0.5697768 0.17214382 0.4118808
0000a0 e0 62 4d bd 20 30 54 bd 9a 0c c0 3e 6a b3 d9 3e
       -0.050143123 -0.051803708 0.37509614 0.42519695
0000b0 e5 2e d8 be a0 82 05 bf 89 c7 00 3f e8 ad 93 3d
       -0.42223278 -0.5215244 0.50304466 0.07210904
0000c0 c4 58 2b 3e c3 3e 17 3f ce 15 bd 3e 52 b8 af 3e
       0.1673308 0.5908014 0.36930698 0.34320313
0000d0 18 08 98 3d 40 db c1 be 77 8f 07 3f 30 50 23 bd
       0.07423419 -0.37862587 0.52953285 -0.039871395
0000e0 9c dd 0d bf c0 df 52 bc 57 f9 34 3f 60 b5 32 3d
       -0.55416274 -0.012870729 0.7069296 0.043630004
0000f0 ab 01 31 bf 10 6a f2 3d 60 42 46 3e 11 2a 00 3f
       -0.6914317 0.11836636 0.19361258 0.5006419

layers.1.weight f4 [64, 64]
000000 84 3e 8f bd a2 37 91 3d b2 3a 95 3d fc 09 4d bd
       -0.06994346 0.07090689 0.07286586 -0.05005835
000010 d0 a5 42 bc 5c a4 30 3d 1c aa 1a 3d 0a 77 df 3d
       -0.011880353 0.043125495 0.037759885 0.10911377
000020 06 a1 aa 3d e0 c7 82 3c 7e 12 c3 bd 78 15 aa 3d
       0.08331494 0.015964448 -0.095250115 0.08304876
000030 f0 31 58 3d 04 86 40 bd 8e ef eb 3d 92 7f e4 bd
       0.052782 -0.047002807 0.11520301 -0.111571446
000040 dc 97 44 3d e0 76 42 3c 88 67 75 3d 0c d9 f3 bd
       0.047996387 0.011869162 0.05991319 -0.11906633
000050 e4 64 8b 3d 44 ce d9 bd 02 1d f6 bd 00 d7 0f bb
       0.06806353 -0.10635045 -0.120172516 -0.0021948218
000060 80 7e 8a 3c 00 38 70 39 38 98 f7 bc 38 19 b5 3c
       0.016906023 0.00022909045 -0.03022395 0.022106752
000070 0a a9 88 bd d4 ce 0a 3d 6e db 8e bd 16 64 a7 bd
       -0.06672867 0.033888653 -0.06975447 -0.08173387
000080 b8 08 eb bd 02 07 82 bd e8 78 5e bd 00 5c e7 3a
       -0.11476272 -0.06348993 -0.054314524 0.001765132
000090 6c 36 a0 bd ac 7a 6b bd 70 7e c4 3d c8 fc 8a 3d
       -0.0782288 -0.057490036 0.095944285 0.067864954
0000a0 3e 21 df bd 40 c5 04 bc e0 fb 7e bc 70 22 6e bd
       -0.10895012 -0.008103669 -0.015562981 -0.05813831
0000b0 c0 c7 5c 3c 8c e1 15 bd e4 c2 06 bd 70 11 9c 3c
       0.0134753585 -0.03659205 -0.032900706 0.019051284
0000c0 58 8e a0 3c 4e 69 ca 3d 14 17 7f 3d d4 b9 49 bd
       0.019599125 0.098833665 0.06227787 -0.049249485
0000d0 9a 99 d2 bd 16 d4 b9 3d a0 07 5b bc 98 2f b0 3d
       -0.102832034 0.09073655 -0.013368517 0.08602828
0000e0 70 8e 82 bd 4e cc ee 3d 2c 60 74 bd f4 25 a8 3d
       -0.06374824 0.11660062 -0.05966203 0.08210364
0000f0 bc c0 db bd de fa f6 3d 58 85 6d bd 04 7a d3 3d
       -0.107301205 0.12059568 -0.057988495 0.10326007
000100 3c d4 68 bd 40 71 f6 bc 50 6a 01 3c ce 62 a7 bd
       -0.056843027 -0.030083299 0.007898882 -0.081731424
000110 10 4b ab bd 66 b1 ef 3d 6c 0b 91 bd ae db df 3d
       -0.083639264 0.11703758 -0.07082257 0.109305725
000120 80 bf de 3d 66 d6 d5 bd 58 3a c8 3c b8 86 b2 bc
       0.108763695 -0.10441284 0.024441883 -0.021792755
000130 f8 1c fd 3c c0 3c b4 3c 28 e1 c9 bc d4 1a 12 3d
       0.030897602 0.022001624 -0.024643496 0.035670117
000140 04 1d 94 3d 04 e0 e7 3d 98 0c d3 3d 84 57 16 3d
       0.07232097 0.113220245 0.103051364 0.036704555
000150 70 4b 8e bd c6 4d d2 3d 98 29 94 bd a0 99 46 3d
       -0.06947982 0.1026874 -0.07234496 0.048486352
000160 1e 6a fe bd 30 b8 e6 3c d2 21 d3 bd c8 bf 9a 3d
       -0.12422584 0.028164 -0.10309185 0.075561106
000170 bc 79 19 3d 74 c3 f6 bd 80 16 b4 bc a0 72 7d 3c
       0.03746961 -0.120489985 -0.021983385 0.015469223
000180 50 a4 6d bc 20 45 87 bd 60 fe d5 3b 1e d9 f1 bd
       -0.014504507 -0.066049814 0.006530568 -0.1180899
000190 f8 ea aa bc d8 53 bc bd 90 9c b7 bd 9e ea cf bd
       -0.020863995 -0.091956794 -0.08965409 -0.101521716
0001a0 20 50 b2 bb bc cb 19 3d 7c ec 6d 3d 60 3c 47 3c
       -0.0054416806 0.037547812 0.058086857 0.012160391
0001b0 a0 36 3b 3d 90 a7 d9 bc 7c 38 92 bd 00 f3 1e bb
       0.04570639 -0.026569158 -0.0713968 -0.0024253726
0001c0 b8 ae d1 bd 5e a8 b1 bd b2 a3 8b 3d ca a2 f7 3d
       -0.10238403 -0.086746916 0.06818332 0.120915964
0001d0 d4 e4 92 3d 8e a2 a7 3d 84 27 15 3d 5c 82 d2 3d
       0.07172552 0.08185302 0.03641464 0.1027877
0001e0 3e 63 9a 3d 62 f3 c5 3d 18 74 eb bd b0 c8 eb 3d
       0.0753846 0.09665562 -0.114967525 0.115128875
0001f0 fc 88 ae bd a0 cc 8c 3c 7a 74 a0 3d 44 53 92 bd
       -0.085222214 0.017187417 0.07834716 -0.07144788
000200 a0 e6 56 3d f8 4c ac bc 68 34 7e bd 0c 88 9a 3d
       0.052466035 -0.021032795 -0.062061697 0.0754548
000210 b4 70 3b 3d 00 5f 45 3b f0 89 7e 3d 84 ca 73 bd
       0.04576178 0.003011644 0.062143266 -0.059519306
000220 f0 02 a1 bd 60 c0 4b 3d d2 ff 80 bd 30 75 92 3c
       -0.078618884 0.04974401 -0.06298794 0.017878145
000230 64 96 bb 3d 50 5f bf bd 1c 8e 87 3d b4 fa ea 3d
       0.09159544 -0.09344351 0.06618902 0.11473599
000240 58 1a 3d bd 40 bd 7d 3c 90 b0 05 3c 08 91 f2 bd
       -0.0461677 0.015487015 0.008159772 -0.11844069
000250 d8 d7 d4 3d 5c dc a9 3d 44 f6 bd 3d e4 d5 b3 3d
       0.103927314 0.08293983 0.09275487 0.08781031
000260 6e eb bd bd 54 52 d9 bd 92 01 cd bd d8 c3 4f bd
       -0.0927342 -0.10611406 -0.10010065 -0.05072388
000270 bc ff 98 bd ec b9 0d bd 94 d4 6f 3d c0 e2 5c 3d
       -0.074706525 -0.034601137 0.05855234 0.053927183
000280 78 c6 ee bd 24 74 92 bd 00 94 e7 3c ac 00 75 bd
       -0.11658949 -0.07151058 0.028268814 -0.059815094
000290 a8 b7 df 3c 88 86 32 3d 50 98 50 3d ec 5b b8 3d
       0.027309254 0.04358533 0.050926507 0.09001908
0002a0 d0 89 a6 bd 38 43 2c bd 20 72 07 bc 36 71 95 3d
       -0.081317544 -0.042056292 -0.008266956 0.07296984
0002b0 e6 ec a0 3d 70 53 8a bc 1a 6c db bd 4e 13 ad bd
       0.07857685 -0.01688549 -0.10713978 -0.08450948
0002c0 fc 6c 25 bd 14 2c 4c 3d 00 78 58 39 0c 84 13 bd
       -0.04038714 0.049846724 0.00020644069 -0.0360146
0002d0 d6 24 c5 bd fc 18 e4 3d e4 33 6c bd 9c 6f 8e bd
       -0.096261665 0.11137578 -0.057666674 -0.069548815
0002e0 00 cf b2 bd c2 c2 f1 bd b8 01 4d 3d 08 d8 a4 3c
       -0.08730888 -0.11804725 0.050050467 0.020122543
0002f0 c4 a5 3a 3d 74 a2 e4 3d 58 fe f3 bd 54 18 a8 bd
       0.045568243 0.11163798 -0.119137466 -0.08207765
000300 70 34 67 bc 30 e9 fa bd 00 2d 8a bc f8 38 19 3d
       -0.014111623 -0.12251508 -0.01686716 0.037407845
000310 58 48 a7 bd 44 22 63 3d 90 a5 27 bc 02 a7 c9 3d
       -0.08168095 0.0554526 -0.010232344 0.09846307
000320 4c 57 1f 3d 40 68 7f bc 30 8a 01 3c 9c a7 ad bd
       0.038901612 -0.01558882 0.007906482 -0.084792346
000330 dc e0 04 3d e4 ab 73 3d 6e f0 9b 3d 58 e8 c7 bc
       0.032441005 0.0594901 0.07614218 -0.024402782
000340 68 a8 72 3d de 83 86 3d 76 6d b4 3d 42 62 f0 bd
       0.059242636 0.065681204 0.088099405 -0.11737491
000350 52 1f f7 bd 80 f4 df bb fc b1 88 bd 2a 8c cf bd
       -0.12066521 -0.0068345666 -0.06674573 -0.10134156
000360 24 10 cb 3d a0 36 df bc c0 c7 a5 3c 08 53 df 3c
       0.09915188 -0.027247727 0.02023685 0.027261272
000370 c6 98 9a 3d 64 0e da 3d 60 f2 75 bc 4e 6b a8 bd
       0.075486705 0.10647276 -0.0150114 -0.08223592
000380 a8 06 e9 bd 02 95 94 3d 00 a0 66 3d f8 f9 67 bd
       -0.11378223 0.072549835 0.05630493 -0.056634873
000390 12 eb 90 bd 2e c3 9f bd 58 ac 29 bd 18 e2 27 bd
       -0.07076086 -0.078008994 -0.041424125 -0.040987104
0003a0 80 ec 1f bc 3c 28 ec 3d d4 e3 b0 3d 22 8d ac bd
       -0.009760976 0.115311116 0.08637205 -0.084253564
0003b0 28 dc 3f bd c0 8c f0 bd 54 4a 5d bd 60 3b 6b 3c
       -0.046840817 -0.11745596 -0.054025963 0.014357418
0003c0 00 4f c6 3d 00 89 1c bc fe 46 ff bd 98 82 87 3d
       0.09683037 -0.009554148 -0.124647126 0.06616706
0003d0 50 bc 60 bd 90 dc 4b bd 12 61 b2 3d 00 d5 43 bc
       -0.05486709 -0.04977089 0.08709921 -0.011952639
0003e0 b6 9c e3 3d e8 dd fe bc 9a 0e f8 bd c8 52 50 bd
       0.111138746 -0.031111673 -0.1211216 -0.050860196
0003f0 a2 12 80 3d f4 c7 9d bd aa ed fa 3d f4 65 28 bd
       0.06253554 -0.07704154 0.12252362 -0.041112855

layers.1.bias f4 [64]
000000 6c a9 7a 3d 44 67 51 3d 6a c1 90 bd 6c 30 2f 3d
       0.06119673 0.051123872 -0.07068141 0.042770788
000010 c8 6c 52 bd b8 2b 58 3d 00 c5 38 3d ac da e6 3d
       -0.051373273 0.05277607 0.04510975 0.11272177
000020 b0 1c e0 bc 40 89 ef 3c c6 2d e8 bd 88 52 c3 bc
       -0.02735743 0.02924025 -0.113368556 -0.023843065
000030 2c bd e3 3d 90 0f 72 bc 6c 59 4f bd 8c 9e 48 bd
       0.11120066 -0.014774218 -0.05062239 -0.048979327
000040 98 d0 a5 3c 8c 24 0b bd 3a 7e c8 3d fc e3 bf 3d
       0.020241067 -0.0339704 0.09789701 0.093696564
000050 96 f9 b9 3d c8 f4 31 bd 60 1f 85 bb 28 89 b5 bc
       0.09080808 -0.043446332 -0.004062578 -0.022160128
000060 00 e0 64 3a 10 97 0b 3c a0 b8 55 bc 80 dc 93 3a
       0.00087308884 0.008519903 -0.013044506 0.0011280924
000070 30 84 e1 bd d4 7e 95 bd 1c 55 5b bd 0a fe cc bd
       -0.11011541 -0.07299581 -0.053547964 -0.100093916
000080 c0 e2 39 3b 0c e8 65 bd 16 9a c8 3d b0 8f 64 3d
       0.0028363913 -0.0561295 0.097950146 0.055801094
000090 a8 27 4c 3d cc f4 46 bd 10 d5 1d bc e0 63 de 3b
       0.049842507 -0.0485733 -0.009633318 0.0067868084
0000a0 f4 26 da 3d c6 d2 e7 3d d2 1f b2 3d 92 a7 b3 3d
       0.10651961 0.11319499 0.086974755 0.08772196
0000b0 ee a8 94 3d f8 a4 f4 bc f0 04 50 3d 5c b4 4c bd
       0.07258783 -0.02986382 0.05078596 -0.04997669
0000c0 a0 bd 4e bd e8 9d e0 bd 68 ac 22 bd e0 48 e3 bc
       -0.05047381 -0.10967618 -0.0397152 -0.02774471
0000d0 b0 a6 5a 3d 20 30 95 3d 1e d4 8a bd 34 aa f3 3d
       0.05338162 0.0728457 -0.067787394 0.11897698
0000e0 20 ec cc 3b 10 3c 6a bd 08 58 ca bc 56 28 ec 3d
       0.006253734 -0.057186186 -0.02470018 0.11531131
0000f0 54 48 50 bd 3c 5a bf 3d 64 c5 d9 3d 26 c6 8d 3d
       -0.050850227 0.09343383 0.106333524 0.069225594

layers.2.weight f4 [3, 64]
000000 c0 5c c2 bb c4 27 ca 3d a0 a4 c8 3b 4c b6 e3 3d
       -0.005931467 0.09870866 0.0061231405 0.11118755
000010 ce 3a e8 bd b2 d5 94 3d 94 a1 67 bd b0 42 84 3d
       -0.11339341 0.07267322 -0.056550577 0.06458032
000020 70 26 ce bc 04 72 57 bd 14 48 2c bd 16 57 d7 3d
       -0.025164813 -0.05259897 -0.042060927 0.10514657
000030 30 fc 50 3c e2 88 9c 3d 48 cd 43 bd 48 8e 9d 3d
       0.012755439 0.07643296 -0.047803193 0.076931536
000040 c0 b3 0a 3c e4 04 1f 3d 68 03 db 3d b0 30 6d 3c
       0.008465707 0.038823023 0.10694009 0.01447694
000050 ee 1a d0 3d ec be ef bd 2c e7 06 3d 18 a7 d2 bc
       0.101613864 -0.11706337 0.032935306 -0.025714442
000060 06 dc c2 3d 08 7f 4b 3d 92 d4 82 bd d8 aa a3 3d
       0.095146224 0.049681693 -0.06388201 0.0799157
000070 92 40 b3 3d 4e 0b c5 bd b4 6a 48 3d 60 a8 10 3d
       0.0875255 -0.09621297 0.048929885 0.035316825
000080 54 96 59 3d 74 20 b2 3d 6e 5d f2 bd 60 38 88 bd
       0.05312188 0.08697596 -0.118342265 -0.06651378
000090 84 74 eb bd a0 91 4e bd d2 a7 87 bd 4c ec 39 3d
       -0.11496833 -0.050431848 -0.06623806 0.045391366
0000a0 c8 ee 88 3c 4a b1 e9 3d 94 1e 6f bd 18 ea b4 bd
       0.016715422 0.11410768 -0.05837877 -0.08833712
0000b0 3a 1e c1 3d 00 66 ce b9 60 86 17 3d 5c 23 c7 bd
       0.094295934 -0.00039367378 0.036993384 -0.09723541
0000c0 bc ea 42 bd 90 92 07 3c 72 e9 aa 3d 66 aa ca 3d
       -0.04758714 0.008274689 0.083453074 0.09895782
0000d0 68 a5 32 3d 68 e7 17 3d 78 1e 7b bd d6 12 df bd
       0.043614775 0.03708592 -0.061308354 -0.108922645
0000e0 16 47 ff 3d 40 7f b8 3c 04 94 58 bd 6c 7d 3a 3d
       0.124647304 0.022521615 -0.052875534 0.045529768
0000f0 ce cc 91 3d 76 75 d9 bd 66 71 dd 3d d8 20 df bd
       0.071191415 -0.10618107 0.10812645 -0.10894936
000100 5e 1e b3 3d 0c d8 34 bd bc 2c c0 bd 7c fa 5a 3d
       0.087460265 -0.04415135 -0.093835324 0.053461537
000110 a0 61 a4 3d b4 28 87 3d 72 94 f0 3d 3c 7f a4 bd
       0.08026433 0.065995604 0.11747064 -0.080320805
000120 04 74 51 bd 60 71 37 bc ca f4 e2 3d 40 50 60 bb
       -0.05113603 -0.011196464 0.11081846 -0.003422752
000130 48 55 d2 3c 6c 7f 93 3d bc 6f b0 bd fc 39 ea bd
       0.02567543 0.07202038 -0.08615062 -0.11436841
000140 dc fb 75 3d 0c 10 61 bd 4a 76 e9 bd 16 79 d9 bd
       0.060054645 -0.054946944 -0.11399515 -0.106187984
000150 54 a6 fc 3d de 11 92 bd 60 66 5c bd ce c7 96 bd
       0.12336412 -0.07132314 -0.05380857 -0.073623285
000160 5c e7 e9 bd a0 42 f8 bb 30 14 55 3d f8 ce 3a bd
       -0.114210814 -0.0075763017 0.052021205 -0.045607537
000170 de c5 d4 bd 40 b3 6c bd 20 9d fe bd 22 3c d5 3d
       -0.10389303 -0.057788134 -0.12432313 0.1041186
000180 14 68 c6 bd 8a 23 e1 bd f8 44 b4 3d cc 09 bd bd
       -0.0968782 -0.10993107 0.08802217 -0.09230384
000190 a0 f5 92 bb dc 51 1e 3d ca 34 c4 bd c0 d4 82 bd
       -0.004484847 0.038652286 -0.09580381 -0.06388235
0001a0 e2 11 c5 bd 12 b5 cd 3d e8 1f 1c bd 30 b0 35 3c
       -0.096225515 0.10044302 -0.038116366 0.01108937
0001b0 72 07 fd bd b0 02 4b 3d a8 6f f4 bc 38 b5 62 bd
       -0.12354936 0.04956311 -0.029838398 -0.055348605
0001c0 fc 75 4a bd 10 ec 97 3d d0 2b b6 bd 2e c6 bf 3d
       -0.049428925 0.07418072 -0.08895075 0.09363972
0001d0 2c 36 2e bd 20 de 4d 3d 60 3f b7 3b dc d1 ae bd
       -0.04253213 0.050260663 0.0055922717 -0.08536121
0001e0 10 ed bc bd 52 96 f4 3d dc b0 20 3d 36 0f b6 bd
       -0.092249036 0.11942734 0.039231166 -0.0888962
0001f0 f8 37 d4 3c 40 cc 72 bb ac a0 9c bd b4 ff d5 3d
       0.025905594 -0.0037048012 -0.07647833 0.10449162
000200 60 b6 be 3b d8 ee 8f 3d b4 43 6c bd 90 cb d1 3d
       0.0058200806 0.07027978 -0.057681754 0.102439046
000210 fe 7a ad bd 1c 6d 4e 3d d8 f9 7e bd d0 67 8b 3d
       -0.084707245 0.050397024 -0.06224999 0.0680691
000220 30 9b 22 bc d0 71 73 3d 2c 7c 38 bd 68 10 ee 3c
       -0.009924695 0.059434712 -0.045040295 0.029060557
000230 38 f1 33 bd 1c 75 ac bd 10 14 0e 3c b0 45 30 3c
       -0.043931216 -0.08420774 0.008671775 0.010758802
000240 ec b3 2e 3d 22 23 a0 bd e0 45 a0 3b 2c 83 58 3d
       0.042652056 -0.07819201 0.0048911422 0.05285947
000250 a2 c9 aa 3d 20 86 98 bc 4e 7f fa bd 00 00 ec 37
       0.0833924 -0.018618643 -0.12231313 2.8133392e-05
000260 da 79 8c 3d 80 e0 b8 bb 28 f5 ea 3d 00 d8 f7 3a
       0.06859179 -0.005641997 0.11472541 0.0018908978
000270 34 b9 87 bd 10 aa 1b 3d 66 6d af bd e0 2a d7 bd
       -0.066271216 0.03800398 -0.08565788 -0.10506225
000280 26 e3 c5 3d 70 14 2e 3c 5c 54 a5 3d e0 1e 7d 3c
       0.09662466 0.01062499 0.08072731 0.015449256
000290 08 30 59 bd c0 f1 08 3d 98 2d 52 3d f0 e8 e3 bd
       -0.05302432 0.033433676 0.051313013 -0.11128414
0002a0 30 82 2f 3c 68 d1 0b bd 26 14 8c bd 18 2a 14 3d
       0.010712191 -0.034135252 -0.068397805 0.036172956
0002b0 a0 07 5b 3c 1e e8 ec 3d c0 b9 09 bc e6 50 ef 3d
       0.013368517 0.1156771 -0.008406103 0.11685352
0002c0 60 f8 b5 3b 80 28 ad 3c e0 c7 50 3c c0 a3 17 3d
       0.0055532902 0.021137476 0.012742966 0.0370214
0002d0 d8 c2 cc 3d 98 12 49 3d 8e f1 96 3d 10 4f 2d 3c
       0.09998101 0.049089998 0.07370292 0.010577932
0002e0 70 e3 a2 3c ca 86 e5 3d 3c ca 23 bd c0 91 7c 3b
       0.019883841 0.112073496 -0.039987788 0.0038539022
0002f0 3a ca c9 bd 80 e7 07 bb 10 c0 83 3c 66 88 98 bd
       -0.09853025 -0.002073735 0.016082793 -0.07447891

layers.2.bias f4 [3]
000000 3c 79 8d bd ac 5c ed 3d 4e f1 a4 bd
       -0.06907889 0.115899414 -0.08053838
