Results/Experiment-MountainCar-DQN-Training/DQN/best/model.pt (torch_old, 19219 bytes, 6 tensors)

layers.0.weight f4 [64, 2]
0	0xbeda89f0	-0.42683363
1	0xc0af7d36	-5.4840345
2	0x3d952fd9	0.07284517
3	0xc111039a	-9.063379
4	0xbfa13494	-1.259417
5	0x40066721	2.1000445
6	0x3f6bf58a	0.9217154
7	0xc11434b7	-9.26287
8	0xbe3920c0	-0.180789
9	0xc0cfe268	-6.4963875
10	0xbe7f9ff7	-0.24963365
11	0xc0eae660	-7.340622
12	0xbf489d51	-0.78365046
13	0xc09fa1bc	-4.988493
14	0x3edbe962	0.42951494
15	0x3f2d7563	0.6775724
16	0xbf125ba8	-0.57171106
17	0x3fa1209a	1.2588074
18	0x3f3309d7	0.6993689
19	0xbe507b14	-0.2035945
20	0xbee3ca43	-0.4449025
21	0xc0fa1593	-7.8151336
22	0xbeee953f	-0.4659824
23	0xbfb15e54	-1.3856912
24	0xbf4c3205	-0.79763824
25	0xc08ca036	-4.394557
26	0x3ef9047a	0.48636228
27	0x3f02588b	0.50916356
28	0xbec897dc	-0.3917836
29	0xc104dbe1	-8.303681
30	0x3ee6346e	0.44961876
31	0xbf009736	-0.5023073
32	0xbec8202c	-0.39087045
33	0xbe6ddbca	-0.23228374
34	0x3e834b42	0.25643355
35	0x3f24c633	0.6436493
36	0x4022ffb1	2.5468562
37	0xbf25570c	-0.6458595
38	0xbf077a02	-0.52920544
39	0x400b07a0	2.1723404
40	0x3df32dd0	0.118739724
41	0xbe928817	-0.28619453
42	0x3e44ac2c	0.19206303
43	0xbf20b8f4	-0.62782216
44	0xbf4056f9	-0.7513271
45	0xc0a232a5	-5.068682
46	0xbdf12c50	-0.1177603
47	0x3eb82dc6	0.35972422
48	0xbf8f0939	-1.117469
49	0xc109f947	-8.623359
50	0xbfa7a08d	-1.3095871
51	0xc0ea5b8b	-7.3236747
52	0xbf925286	-1.1431434
53	0xc083eaef	-4.1224284
54	0xbded6532	-0.11591567
55	0x41694091	14.578263
56	0x3f7f50cc	0.9973266
57	0xc0434d0e	-3.051578
58	0x3d111eb0	0.035429657
59	0xbd3d7d50	-0.046262085
60	0x3fc3c5f6	1.5294788
61	0xbf0b4702	-0.54405224
62	0xbf35fbea	-0.71087515
63	0xc0c9d1f4	-6.306879
64	0xbf819c94	-1.0125909
65	0xbfe36b9b	-1.7767214
66	0xbe85c723	-0.26128492
67	0xc0e2d1f3	-7.0881286
68	0xbfa21137	-1.2661504
69	0xbf9985d3	-1.1993965
70	0xbdb2aab3	-0.087239645
71	0xc0f1dc05	-7.558108
72	0xbe03233c	-0.1280641
73	0xbeab715e	-0.3348493
74	0xbe36af28	-0.17840254
75	0xbea81646	-0.32829493
76	0x3e776535	0.24159701
77	0x40f4a888	7.6455727
78	0xbfa8d4d8	-1.3189955
79	0xbee25ea8	-0.44212842
80	0x3db2ed00	0.087366104
81	0xbecda63b	-0.40165886
82	0xbeefbc1f	-0.46823213
83	0xc106b0a1	-8.418122
84	0xbf31cae7	-0.6945023
85	0xc0d8614e	-6.761878
86	0xbf5f3ac4	-0.87199044
87	0xc030a7b2	-2.7602353
88	0x3c45d740	0.012075245
89	0xbf138cd5	-0.5763677
90	0x3ed3aef2	0.4134441
91	0xbf0ec203	-0.5576479
92	0xbedab5d7	-0.42716858
93	0xc0ee75e9	-7.4518933
94	0x3fe3d039	1.779792
95	0x40a3f5ba	5.123746
96	0x3f622360	0.8833523
97	0xc02076a1	-2.5072405
98	0xbea2f33c	-0.31826198
99	0xc0e68554	-7.2037754
100	0x3de44241	0.111454494
101	0x4105ade0	8.35495
102	0xbe8b6831	-0.2722793
103	0xc0f05d87	-7.511417
104	0x3f1dd0d3	0.61646765
105	0xc0eb278a	-7.3485765
106	0x3f773567	0.9656586
107	0xc08987e9	-4.2978406
108	0xbf292c13	-0.66082877
109	0xc0995a8d	-4.7923036
110	0xbedf753a	-0.43644124
111	0xc1208c18	-10.034203
112	0x3f1e7dad	0.61910516
113	0x3e039614	0.12850219
114	0x3c08cb6f	0.008349284
115	0xc17761c4	-15.461369
116	0xbf16d957	-0.58925384
117	0xc0df92a6	-6.9866514
118	0x3f0e5825	0.5560325
119	0xc1332df8	-11.198723
120	0xbef34fc4	-0.47521794
121	0xbe7c0ee6	-0.24615058
122	0x3f745606	0.9544376
123	0xc0986408	-4.762211
124	0xc02f497c	-2.7388601
125	0xc0b6c2e8	-5.7112923
126	0xbf222c1c	-0.63348556
127	0xc08ea14e	-4.4571905

layers.0.bias f4 [64]
0	0x3f0b9d9b	0.5453736
1	0x3ea7b7fa	0.3275755
2	0xbf9d0d7c	-1.226974
3	0x3ed75ff4	0.42065394
4	0x3e639db6	0.2222813
5	0x3e6f1a8e	0.23349974
6	0x3f36ec22	0.7145406
7	0xbe81064b	-0.25200114
8	0x3f1ac394	0.6045468
9	0xbeecc40b	-0.4624332
10	0x3e96e84b	0.294741
11	0x3f240792	0.6407405
12	0x3eab95e6	0.335128
13	0xbec911d9	-0.3927143
14	0x3e90954d	0.28238907
15	0xbee72402	-0.4514466
16	0xbf130952	-0.57436097
17	0xbf22a418	-0.6353164
18	0x3fd26a7a	1.6438744
19	0x3f76e8e2	0.964491
20	0xbf12b53e	-0.57307804
21	0xbf0b797a	-0.54482234
22	0x3f03fb91	0.51555735
23	0xbef35278	-0.47523856
24	0xbf3312f9	-0.69950825
25	0xbdbfd5d2	-0.09366955
26	0x3f15faa5	0.5858558
27	0x3d7dee48	0.06199482
28	0x3f80e99c	1.0071292
29	0xbebe9b76	-0.37227982
30	0x3f22d62e	0.6360806
31	0x3ea3f354	0.32021582
32	0x3efb88bb	0.49127755
33	0x3e6955e6	0.22786674
34	0xbf5b4bbc	-0.85662436
35	0x3e97fc7a	0.29684812
36	0xbe6b668e	-0.2298834
37	0xbf11dce4	-0.5697768
38	0x3f154622	0.5831014
39	0x3dc0c2e4	0.094121724
40	0xbd4d62e0	-0.050143123
41	0xbf0a72ef	-0.54081625
42	0x3ea64151	0.32471707
43	0x3ec0b62a	0.3763898
44	0xbed82ee5	-0.42223278
45	0xbf0582a0	-0.5215244
46	0x3e7abd8a	0.24486366
47	0x3f2815ca	0.6565825
48	0x3f48cd92	0.78438675
49	0x3ef33756	0.47503155
50	0x3f0bcd93	0.54610556
51	0x3e705522	0.23469976
52	0x3ed61f66	0.4182083
53	0x3f8425a8	1.0323992
54	0x3f033b7b	0.51262635
55	0x3eaa2397	0.33230278
56	0xbf0ddd9c	-0.55416274
57	0x3e693726	0.22774944
58	0x3e7c989d	0.24667592
59	0x3d46e1f0	0.048555315
60	0xbf3101ab	-0.6914317
61	0x3f174516	0.5908979
62	0xbf85c181	-1.0449678
63	0x3ea1a4ae	0.31570953

layers.1.weight f4 [64, 64]
0	0xbe1dd08e	-0.15411589
1	0xbc53fe80	-0.0129390955
2	0x3d2892cd	0.041155625
3	0xbd248820	-0.04016888
4	0xbdc5dab8	-0.09660858
5	0xbd2a22a1	-0.04153693
6	0xbd3f92a7	-0.046770718
7	0x3ddf770a	0.10911377
8	0x3b47032b	0.0030366878
9	0x3c82c7e0	0.015964448
10	0xbe194c90	-0.14970613
11	0x3b042091	0.0020161013
12	0xba77f6bb	-0.0009459068
13	0xbd408604	-0.047002807
14	0x3d752489	0.059849296
15	0xbde47f92	-0.111571446
16	0x3d4497dc	0.047996387
17	0x3c4276e0	0.011869162
18	0xbb414b61	-0.0029494392
19	0xbe4f505d	-0.202455
20	0x3d8b64e4	0.06806353
21	0xbdd9ce44	-0.10635045
22	0xbe4ed61b	-0.20198862
23	0xbb0fd700	-0.0021948218
24	0x3ccbf2c7	0.024896039
25	0xbdaa212e	-0.0830711
26	0xbdabe904	-0.083940536
27	0xbc1d4919	-0.009599947
28	0xbe034626	-0.12819728
29	0x3d0aced4	0.033888653
30	0xbd8edb6e	-0.06975447
31	0xbdd816b6	-0.10551207
32	0xbe4ab429	-0.19795288
33	0xbdf2164c	-0.11820659
34	0xbdb02edc	-0.08602688
35	0xbda6a3a2	-0.08136679
36	0xbda0366c	-0.0782288
37	0xbd6b7aac	-0.057490036
38	0x3c8081e7	0.015686942
39	0xbc5d541b	-0.013508822
40	0xbddf213e	-0.10895012
41	0xbd22ff62	-0.039794333
42	0xbd902ee2	-0.07040192
43	0xbde31819	-0.11088581
44	0x3c5cc7c0	0.0134753585
45	0xbd15e18c	-0.03659205
46	0xbded5e9c	-0.11590311
47	0xbd272d81	-0.04081488
48	0xbd1931fd	-0.03740119
49	0x3c6b8ac9	0.014376351
50	0xbc0fa4e2	-0.0087673385
51	0xbdd60694	-0.104504734
52	0xbde073bf	-0.10959577
53	0x3d71d2c5	0.059038896
54	0xbdc7fb06	-0.09764676
55	0x3d639386	0.05556061
56	0xbd828e70	-0.06374824
57	0x3db659dd	0.08903859
58	0xbe118bb1	-0.14213444
59	0x3d7b92f8	0.061419457
60	0xbddbc0bc	-0.107301205
61	0x3d7b0bbb	0.061290484
62	0xbdd3be31	-0.103390105
63	0x3ca96007	0.020675672
64	0xbde31ad1	-0.11089099
65	0xbda6564a	-0.08121927
66	0x3c9b72fd	0.01897573
67	0xbda762ce	-0.081731424
68	0xbe096d09	-0.134205
69	0x3d82da14	0.06389251
70	0xbe015d89	-0.12633337
71	0x3ddfdbae	0.109305725
72	0x3d7489bd	0.05970167
73	0xbdd5d666	-0.10441284
74	0xbb3651b4	-0.0027819695
75	0xbd921c1f	-0.0713427
76	0x3b428342	0.0029680287
77	0x3cb43cc0	0.022001624
78	0xbd55bc0f	-0.0521813
79	0x3d121ad4	0.035670117
80	0x3d941d04	0.07232097
81	0x3de7e004	0.113220245
82	0x3d37bf18	0.044859976
83	0xbc39e269	-0.011345484
84	0xbd8e4b70	-0.06947982
85	0x3dd24dc6	0.1026874
86	0xbdc90ee4	-0.09817293
87	0x3d4699a0	0.048486352
88	0xbdfe6a1e	-0.12422584
89	0xbcb627b6	-0.022235733
90	0xbe08e500	-0.13368607
91	0x3cecdcf4	0.028913952
92	0xbca09321	-0.019601407
93	0xbdf6c374	-0.120489985
94	0xbcb41680	-0.021983385
95	0xbce9a9fb	-0.028523436
96	0xbd927fd0	-0.071532845
97	0xbdbbdbe1	-0.09172798
98	0xbd0a726f	-0.03380054
99	0xbe2d14a2	-0.16902402
100	0xbcaaeaf8	-0.020863995
101	0xbdbc53d8	-0.091956794
102	0xbe0c1194	-0.1367858
103	0xbe1c3af5	-0.15256865
104	0xbbb25020	-0.0054416806
105	0x3d19cbbc	0.037547812
106	0x3ce17458	0.027521297
107	0xbc5e3816	-0.013563177
108	0x3d3b36a0	0.04570639
109	0xbcd9a790	-0.026569158
110	0xbe003782	-0.12521175
111	0xbd72a4bb	-0.05923913
112	0xbe28ced1	-0.16485144
113	0xbe10a57f	-0.14125632
114	0x3c9fbd7b	0.019499531
115	0x3dc4b49c	0.09604761
116	0x3d92e4d4	0.07172552
117	0x3d0a1e61	0.033720378
118	0xbc9c2442	-0.019060258
119	0x3d74d6e1	0.059775237
120	0x3d9a633e	0.0753846
121	0x3dc5f362	0.09665562
122	0xbe2a39ac	-0.16623563
123	0x3debc8b0	0.115128875
124	0xbdae88fc	-0.085222214
125	0xbd28cba8	-0.041209847
126	0x3d6cb362	0.05778826
127	0xbdfa94d5	-0.12235419
128	0x3d56e6a0	0.052466035
129	0xbcac4cf8	-0.021032795
130	0xbd7e3468	-0.062061697
131	0x3d9a880c	0.0754548
132	0x3d3b70b4	0.04576178
133	0x3b455f00	0.003011644
134	0x3d7e89f0	0.062143266
135	0xbd73ca84	-0.059519306
136	0xbda102f0	-0.078618884
137	0x3d4bc060	0.04974401
138	0xbd80ffd2	-0.06298794
139	0x3c927530	0.017878145
140	0x3dbb9664	0.09159544
141	0xbdbf5f50	-0.09344351
142	0x3d878e1c	0.06618902
143	0x3deafab4	0.11473599
144	0xbd3d1a58	-0.0461677
145	0x3c7dbd40	0.015487015
146	0x3c05b090	0.008159772
147	0xbdf29108	-0.11844069
148	0x3dd4d7d8	0.103927314
149	0x3da9dc5c	0.08293983
150	0x3dbdf644	0.09275487
151	0x3db3d5e4	0.08781031
152	0xbdbdeb6e	-0.0927342
153	0xbdd95254	-0.10611406
154	0xbdcd0192	-0.10010065
155	0xbd4fc3d8	-0.05072388
156	0xbd98ffbc	-0.074706525
157	0xbd0db9ec	-0.034601137
158	0x3d6fd494	0.05855234
159	0x3d5ce2c0	0.053927183
160	0xbdeec678	-0.11658949
161	0xbd927424	-0.07151058
162	0x3ce79400	0.028268814
163	0xbd7500ac	-0.059815094
164	0x3cdfb7a8	0.027309254
165	0x3d328688	0.04358533
166	0x3d509850	0.050926507
167	0x3db85bec	0.09001908
168	0xbda689d0	-0.081317544
169	0xbd2c4338	-0.042056292
170	0xbc077220	-0.008266956
171	0x3d957136	0.07296984
172	0x3da0ece6	0.07857685
173	0xbc8a5370	-0.01688549
174	0xbddb6c1a	-0.10713978
175	0xbdad134e	-0.08450948
176	0xbd256cfc	-0.04038714
177	0x3d4c2c14	0.049846724
178	0x39587800	0.00020644069
179	0xbd13840c	-0.0360146
180	0xbdc524d6	-0.096261665
181	0x3de418fc	0.11137578
182	0xbd6c33e4	-0.057666674
183	0xbd8e6f9c	-0.069548815
184	0xbdb2cf00	-0.08730888
185	0xbdf1c2c2	-0.11804725
186	0x3d4d01b8	0.050050467
187	0x3ca4d808	0.020122543
188	0x3d3aa5c4	0.045568243
189	0x3de4a274	0.11163798
190	0xbdf3fe58	-0.119137466
191	0xbda81854	-0.08207765
192	0xbd3b9852	-0.04579956
193	0xbe1dbc11	-0.15403773
194	0xbc8a2d00	-0.01686716
195	0x3d1938f8	0.037407845
196	0xbda74858	-0.08168095
197	0x3d632244	0.0554526
198	0xbd2bc6d0	-0.04193765
199	0x3dc9a702	0.09846307
200	0x3bea4e47	0.0071504447
201	0xbc7f6840	-0.01558882
202	0x3c018a30	0.007906482
203	0xbdeead9a	-0.116542056
204	0x3d04e0dc	0.032441005
205	0x3d73abe4	0.0594901
206	0x3d9bf06e	0.07614218
207	0xbcc7e858	-0.024402782
208	0x3d72a868	0.059242636
209	0x3d8683de	0.065681204
210	0x3d66c309	0.056338344
211	0xbe18b4e7	-0.14912759
212	0xbdf71f52	-0.12066521
213	0xbbdff480	-0.0068345666
214	0xbd88b1fc	-0.06674573
215	0xbdcf8c2a	-0.10134156
216	0x3dcb1024	0.09915188
217	0xbcdf36a0	-0.027247727
218	0x3ca5c7c0	0.02023685
219	0xbb93592e	-0.004496715
220	0x3d331f70	0.043731153
221	0x3dda0e64	0.10647276
222	0xbd3f848b	-0.046757262
223	0xbda86b4e	-0.08223592
224	0xbe14ec67	-0.14543305
225	0x3d949502	0.072549835
226	0x3d66a000	0.05630493
227	0xbd67f9f8	-0.056634873
228	0xbd90eb12	-0.07076086
229	0xbd9fc32e	-0.078008994
230	0xbd95df23	-0.073179506
231	0xbd94e055	-0.072693504
232	0xbc1fec80	-0.009760976
233	0x3dec283c	0.115311116
234	0x3db0e3d4	0.08637205
235	0xbdac8d22	-0.084253564
236	0xbd3fdc28	-0.046840817
237	0xbdf08cc0	-0.11745596
238	0xbdacfcdf	-0.08446669
239	0xbc8e8b82	-0.017400507
240	0x3d85476c	0.06507763
241	0xbd28b6b6	-0.04118987
242	0xbe202791	-0.15640093
243	0x3d878298	0.06616706
244	0xbd60bc50	-0.05486709
245	0xbda6f860	-0.081528425
246	0x3d636c82	0.055523403
247	0xbc43d500	-0.011952639
248	0x3de39cb6	0.111138746
249	0xbcfedde8	-0.031111673
250	0xbe1c7e05	-0.15282448
251	0xbd5052c8	-0.050860196
252	0x3d8012a2	0.06253554
253	0xbddece09	-0.10879142
254	0x3dfaedaa	0.12252362
255	0xbd952167	-0.072817616

layers.1.bias f4 [64]
0	0xbca4d730	-0.02012214
1	0x38505e42	4.967885e-05
2	0xbd90c16a	-0.07068141
3	0x3c347ee5	0.011016582
4	0x3f319a47	0.69376034
5	0x3d2bcfc1	0.041946176
6	0x3c5c4245	0.013443534
7	0x3d4e8c13	0.050426554
8	0xbcda97c3	-0.026683694
9	0xbb1f6b7c	-0.002432554
10	0xbdf47a57	-0.11937397
11	0xbd4085ba	-0.04700253
12	0x3d954fcb	0.0729061
13	0x3e99eb62	0.30062395
14	0x3db3e19b	0.08783265
15	0xbda4db40	-0.08049631
16	0x3e93194b	0.28730235
17	0xbd9a7140	-0.07541132
18	0xbc248c6e	-0.010043247
19	0x3e3b1a3a	0.18271723
20	0x3d09956f	0.033589777
21	0x3e53029a	0.20606461
22	0xbb851f60	-0.004062578
23	0xbd68351c	-0.056691274
24	0xbc148605	-0.009065156
25	0x3c0b9710	0.008519903
26	0xbd801c6f	-0.06255423
27	0xbcb7870a	-0.022403259
28	0xbde18430	-0.11011541
29	0xbe077989	-0.13229956
30	0xbdb85843	-0.090012096
31	0xbdccfe0a	-0.100093916
32	0xbd2f4089	-0.042786155
33	0xbdb3f317	-0.087866
34	0x3d52fa88	0.051508456
35	0x3d05df04	0.032683387
36	0x3d261d6a	0.040555395
37	0xbd8455d3	-0.06461682
38	0xbd1e8d8a	-0.0387092
39	0xbc5e6d01	-0.013575793
40	0x3f1dcca2	0.6164037
41	0x3dacf505	0.08445171
42	0x3f2072cc	0.62675166
43	0x3e77b2d0	0.24189305
44	0x3e516e16	0.2045215
45	0xbd853acc	-0.06505355
46	0xbd8868d3	-0.06660619
47	0x3dc301ac	0.09521803
48	0xbd4ebda0	-0.05047381
49	0xbe10761d	-0.14107557
50	0xbd951be7	-0.072807126
51	0x3b5f6a3c	0.003409042
52	0xbb6c0209	-0.0036011955
53	0x3d5c3ab3	0.053766917
54	0xbdcba158	-0.09942883
55	0x3e7b9bdb	0.24571173
56	0x3c5210d3	0.012821394
57	0xbc8ac660	-0.016940296
58	0x3cb00b29	0.021489697
59	0x3def9c8e	0.11699782
60	0xbdea1fa8	-0.11431819
61	0x3d12f7f6	0.035881005
62	0x3d3d2451	0.046177212
63	0x3f418ba7	0.7560372

layers.2.weight f4 [3, 64]
0	0xbc3637b6	-0.011121681
1	0x3d72fab1	0.05932111
2	0x3bc8a4a0	0.0061231405
3	0x3de3b64c	0.11118755
4	0xbf8ab39b	-1.0836061
5	0x3d94d5b2	0.07267322
6	0xbd67a194	-0.056550577
7	0x3d35bd9a	0.04437027
8	0xbfbb12a5	-1.4615065
9	0xbd52140e	-0.051288657
10	0xbd44e13f	-0.048066374
11	0x3db05076	0.08609097
12	0x3ba47267	0.0050185206
13	0x3f651856	0.8949026
14	0xc009e573	-2.1546295
15	0x3d9d8e48	0.076931536
16	0x4080e310	4.0277176
17	0x3ce14cba	0.027502406
18	0xc037f846	-2.8745284
19	0xbf8c1e92	-1.0946829
20	0x3da88962	0.08229329
21	0x4057a81f	3.3696363
22	0x3d06e72c	0.032935306
23	0x3c0bfe39	0.008544498
24	0x3db24e3b	0.087063275
25	0x3d4b7f08	0.049681693
26	0xbda0d964	-0.07853964
27	0x3d1e8f82	0.03871108
28	0x3db34092	0.0875255
29	0xbfac7423	-1.3472942
30	0x3e003d13	0.12523298
31	0x3d10a860	0.035316825
32	0x3cf6601f	0.030075131
33	0x3db22074	0.08697596
34	0xbdac7533	-0.084207915
35	0xbd883860	-0.06651378
36	0xbfdd3916	-1.7283046
37	0xbcaf32ed	-0.021386588
38	0xbcd7faee	-0.02636477
39	0xc0367941	-2.8511508
40	0x403acd32	2.9187741
41	0x3dbbaa8f	0.09163391
42	0x3fe627e1	1.798092
43	0xbfd79687	-1.6842812
44	0xbff6e6a1	-1.9289132
45	0xbcde9d2f	-0.02717456
46	0xbf95bc8b	-1.1698164
47	0xc032d7e4	-2.794427
48	0xbd42eabc	-0.04758714
49	0xbca910a9	-0.020637827
50	0x3d3939ec	0.045221254
51	0x40fc4d3d	7.8844285
52	0x3cb451c4	0.022011645
53	0xbcc1d818	-0.023662612
54	0xbcfaf8c5	-0.0306362
55	0xc031b072	-2.7763944
56	0xbfeefdc0	-1.8671188
57	0x3fae842b	1.3634084
58	0xbfd7a386	-1.6846778
59	0xbffa16e9	-1.9538242
60	0x3d5ae2d4	0.053438976
61	0xbdd97576	-0.10618107
62	0xbeb3daab	-0.35127768
63	0xbf85b501	-1.0445863
64	0x3d8c690c	0.068559736
65	0xbc4e3b9a	-0.012587452
66	0xbdc02cbc	-0.093835324
67	0x3d5afa7c	0.053461537
68	0xbf82ca04	-1.02179
69	0x3d8728b4	0.065995604
70	0x3df09472	0.11747064
71	0xbda47f3c	-0.080320805
72	0xbfe07213	-1.7534813
73	0xbc377160	-0.011196464
74	0x3dd6a83f	0.10481309
75	0xbcbe30da	-0.023216654
76	0x3c938f30	0.018012613
77	0xbf5094eb	-0.8147723
78	0xbfbfc886	-1.498307
79	0xbdea39fc	-0.11436841
80	0x404cc309	3.199404
81	0xbd50b1a9	-0.05095068
82	0xc035d55a	-2.841147
83	0xbfc7c103	-1.5605778
84	0x3d925038	0.07144207
85	0x40426f1c	3.0380316
86	0xbd5c6660	-0.05380857
87	0xbda9a011	-0.08282483
88	0xbdfa6efe	-0.12228201
89	0xbbf842a0	-0.0075763017
90	0x3c19341a	0.009350801
91	0x3d6b3559	0.057423923
92	0xbdd4c5de	-0.10389303
93	0x3fe793e0	1.8092003
94	0xbd3db7ff	-0.04631805
95	0x3dd53c22	0.1041186
96	0xbddef99c	-0.10887453
97	0xbde1238a	-0.10993107
98	0x3ddb90c1	0.10720969
99	0xbdbd09cc	-0.09230384
100	0xbfecb10b	-1.8491529
101	0x3c0cf541	0.008603395
102	0xbd396b1e	-0.04526817
103	0xc0540d7a	-3.3133225
104	0x404b50b8	3.1768017
105	0x3d9cac0d	0.076500036
106	0x3fd9d89c	1.7019229
107	0xbfb0aa93	-1.3802055
108	0xbff9ef13	-1.9526085
109	0x3ca80491	0.02050999
110	0xbfb9ac83	-1.4505771
111	0xc02e9dff	-2.7283933
112	0xbd4a75fc	-0.049428925
113	0x3d97ec10	0.07418072
114	0xbdb62bd0	-0.08895075
115	0x40e2b458	7.0845146
116	0xbd862110	-0.06549275
117	0x3c4ec296	0.012619635
118	0x3bb73f60	0.0055922717
119	0xbfd344da	-1.6505387
120	0xc01cdd3c	-2.451003
121	0x3f8fc3fd	1.1231686
122	0xbfafd4a9	-1.3736774
123	0xc033c6c8	-2.8090076
124	0x3cd437f8	0.025905594
125	0xbb72cc40	-0.0037048012
126	0xbe450fad	-0.19244261
127	0xbf4f916a	-0.8108126
128	0x3c1ff958	0.009764038
129	0x3c4ec01f	0.012619047
130	0xbd6c43b4	-0.057681754
131	0x3d97df41	0.07415629
132	0xbf3b6f72	-0.7321693
133	0x3d4e5978	0.050378293
134	0xbd014846	-0.031563066
135	0x3d791dbf	0.060819384
136	0xc0065d33	-2.0994384
137	0x3d7371d0	0.059434712
138	0xbd51154b	-0.051045697
139	0x3c1b2952	0.009470301
140	0xbca58602	-0.020205501
141	0xbff13e98	-1.8847227
142	0xbfc2861a	-1.5197175
143	0xbbfe5b07	-0.007762316
144	0x401abe66	2.417871
145	0xbdad30de	-0.08456586
146	0xc01d190f	-2.4546545
147	0xc00aedba	-2.1707597
148	0x3d4f193b	0.05056117
149	0x400d30d2	2.2061048
150	0xbdfa7f4e	-0.12231313
151	0x3c9b60ec	0.018967114
152	0x3d77fc61	0.06054342
153	0xbbb8e080	-0.005641997
154	0x3dccd4c4	0.10001519
155	0x3d4607a2	0.048347123
156	0xbd87b934	-0.066271216
157	0x407e4fd0	3.9736214
158	0xbc999407	-0.018747343
159	0xbdd72ae0	-0.10506225
160	0x3dad80b6	0.08471815
161	0xbc9b4294	-0.018952645
162	0x3e1f082e	0.15530464
163	0xbc040fbc	-0.008060392
164	0xbfaac4fa	-1.3341362
165	0x3d05a895	0.032631475
166	0x3debd675	0.11515514
167	0xc083feef	-4.12487
168	0x4055d75b	3.3412693
169	0xbd6cc491	-0.057804648
170	0x3fc941e8	1.5723238
171	0xbf6b3024	-0.9187033
172	0xbfedad6f	-1.8568553
173	0x3db0df71	0.08636368
174	0xc025d00c	-2.5908232
175	0xc01da475	-2.4631627
176	0x3bb5f860	0.0055532902
177	0x3cad2880	0.021137476
178	0x3c50c7e0	0.012742966
179	0x40e88c4b	7.2671256
180	0x3d72f03f	0.059311148
181	0x3d8321e2	0.06402947
182	0x3d96f18e	0.07370292
183	0xbf14c76e	-0.58116806
184	0xc01d2c09	-2.4558127
185	0x3f3a7efd	0.7285002
186	0xbf8868c5	-1.0656973
187	0xc02b22f9	-2.6740096
188	0xbd914bb7	-0.070945196
189	0xbbbbe8b3	-0.005734527
190	0xbcb02936	-0.021504026
191	0xbf262abd	-0.64908963

layers.2.bias f4 [3]
0	0xbf406869	-0.7515932
1	0xbf00f420	-0.50372505
2	0xbf905d85	-1.127854
