Results/CartPole-Experiment1-DQN-Training/DQN/trained/model.pt (torch_old, 2563 bytes, 6 tensors)

layers.0.weight f4 [16, 4]
000000 af e1 04 bf 6a 99 89 3e ad ad 26 40 87 29 9c 3f
       -0.51906866 0.26874858 2.6043503 1.2200173
000010 6b fb 2f 3e 23 7a ba bc 7e be 94 c0 6f 4e cb bf
       0.17185752 -0.022763317 -4.6482534 -1.5883311
000020 d3 a9 57 be 80 55 9c 3e be 59 6e be 56 eb 5d 3e
       -0.21060877 0.3053398 -0.23276421 0.21671805
000030 a3 d2 86 be ac 07 2c 3e f9 f8 95 be d6 12 2f 3f
       -0.26332578 0.16799802 -0.29291514 0.68388116
000040 7c 05 4d 3e 3f 68 95 be 5f b2 0b c1 3a 6c 15 c0
       0.20021623 -0.29181096 -8.731048 -2.3347306
000050 51 da d0 bc f7 a6 1b bf 5d 0d d9 c0 4e ee 04 c0
       -0.025494726 -0.60801643 -6.7828813 -2.077045
000060 57 59 52 3e 5e 28 56 3d 86 5a 28 c0 c0 bf 28 bf
       0.20541893 0.05228459 -2.630525 -0.6591759
000070 13 aa 61 3d 78 26 1b bf ca c1 0c c1 f4 26 25 c0
       0.055093836 -0.60605574 -8.797312 -2.5805025
000080 d0 62 88 bf dd 14 8c be 94 6d fa bf 59 41 66 be
       -1.0655155 -0.27359667 -1.956469 -0.22485866
000090 0d b1 0c 3e 80 da be be 86 92 c4 3f 45 6d 60 be
       0.13739415 -0.37276077 1.5357215 -0.21916683
0000a0 b1 ab cf 3e 8c 46 7d 3d db 9c 03 3f dd 57 37 3d
       0.40560678 0.061834857 0.5141122 0.044761527
0000b0 c7 a4 40 bd 07 46 53 bd 84 45 3a 41 23 6f 98 3f
       -0.047032144 -0.051580455 11.641972 1.1908916
0000c0 30 b3 33 be 4f e4 3d 3d 31 5d 63 40 8c cb 43 3e
       -0.17548823 0.04636031 3.552563 0.19120616
0000d0 12 08 9e be 63 58 54 3e 95 0e bf 3f 03 fe eb 3e
       -0.30865532 0.20736842 1.4926325 0.46092233
0000e0 de e3 78 be 5a 4e 92 3d 26 74 cc 40 5f 52 85 3e
       -0.24305674 0.071438506 6.3891783 0.26039407
0000f0 cc d8 80 3e f2 af 8e be c8 77 bb 3e 6e 51 81 be
       0.25165403 -0.2786861 0.36614823 -0.25257438

layers.0.bias f4 [16]
000000 13 54 45 40 e7 34 d8 3f 83 6d 06 bf 08 d3 6d 3f
       3.0832565 1.6891145 -0.5251085 0.92900133
000010 ca d3 46 40 0d f8 2d 40 6c 7a 86 3f 85 e2 69 40
       3.1066766 2.7182648 1.050611 3.6544507
000020 b2 d4 80 3b 78 3d 23 3e 78 4d ce be f7 23 33 c0
       0.0039316053 0.15941417 -0.4029348 -2.7990701
000030 f2 bc 2d bf db 73 9e 3e 28 8a a8 bf a8 a3 f6 be
       -0.6786643 0.30947766 -1.3167162 -0.48171735

layers.1.weight f4 [16, 16]
000000 aa 73 1a 40 19 1e b1 3e 88 69 f0 bd 68 2e 18 c0
       2.4133096 0.34593275 -0.117388785 -2.3778324
000010 ce fb 95 3e 30 3d c4 3e b0 cf 25 c0 d3 59 0a 3f
       0.29293674 0.38327932 -2.5908012 0.5404331
000020 a7 5d bc bf 21 dd 0c c0 f4 0f 01 bf 73 8e 08 c0
       -1.471608 -2.2009966 -0.5041497 -2.1336944
000030 bb 4e 1f c0 4c e2 0a c0 61 52 fb c0 14 e5 a4 bd
       -2.4891803 -2.170062 -7.853806 -0.08051506
000040 75 43 0f 40 89 0e 1a 3e 4c 47 c1 3d 12 0f 16 c0
       2.2384923 0.15044607 0.09437427 -2.3446698
000050 f9 08 fe 3e 84 f9 d8 3e 73 82 1b c0 82 49 3a 3e
       0.4961622 0.42377865 -2.429837 0.18192104
000060 a8 9d 2d bf 3d 59 d3 bf fa 2d c7 bf 40 9d 1f c0
       -0.6781869 -1.6511608 -1.5560906 -2.4939728
000070 61 40 15 c0 19 ca f0 bf fd 8a f3 c0 58 31 45 bd
       -2.3320544 -1.8811675 -7.6107163 -0.04814276
000080 c6 ef 03 40 d9 ad 06 3f 58 94 4d 3e 17 4a 5c be
       2.0615096 0.5260902 0.2007612 -0.21512638
000090 76 1f 26 3f 83 75 eb 3e 05 b1 c7 bf a0 1e f8 3e
       0.64891756 0.45988092 -1.5600897 0.48460865
0000a0 25 f9 e8 bf 97 45 7f bf d1 4d a4 c0 34 06 3d c1
       -1.8201033 -0.9971556 -5.134499 -11.814014
0000b0 19 65 5a 3f ff 11 77 3f e1 e9 64 c1 20 d1 89 bc
       0.8531051 0.96511835 -14.307099 -0.016823351
0000c0 e5 58 96 3c 00 86 ce ba f0 04 cc 3c 00 37 7f be
       0.018352935 -0.0015756488 0.024904698 -0.24923325
0000d0 e9 74 c5 bd 8b a3 cf bc 46 d3 18 3e 9f 04 a1 be
       -0.096414395 -0.025346538 0.14924344 -0.31448838
0000e0 30 7d 72 3d 98 34 97 bd 6c 60 4a be 46 cf 7f be
       0.05920142 -0.07383078 -0.19763345 -0.24981412
0000f0 dc 33 2d bd 90 5b 34 be b7 e6 09 3e 90 4d 7f 3e
       -0.042285785 -0.17613053 0.13466917 0.24931931
000100 1d fc d9 bf 9a 7b d2 be 5c ee cc bc 65 1d e7 3f
       -1.7030064 -0.41109926 -0.025016002 1.8055845
000110 21 5f 74 3e 7e 15 0f 3f a3 73 52 3f 47 e9 8c 3e
       0.23864414 0.5589217 0.822077 0.27521726
000120 e6 0f 19 3e e7 70 88 bf 36 24 85 3f f6 73 d5 c0
       0.14947471 -1.0659455 1.0401676 -6.6704054
000130 5d 02 ce bf 48 46 ed 3f 2d 70 20 c0 80 0d a6 3c
       -1.6094471 1.8537073 -2.5068467 0.02027011
000140 96 6b 6b bf 54 a0 ad be ed 72 49 3e 0f 79 30 3f
       -0.9196104 -0.33911383 0.19672747 0.6893472
000150 ae 8f e9 3d 7f 07 26 be 6d 94 7e 3f 26 63 19 3f
       0.11404358 -0.16213797 0.9944523 0.59916914
000160 49 85 56 3f 5d f9 88 bf ad cf 09 40 b0 36 c0 3f
       0.83797127 -1.07011 2.1533005 1.5016689
000170 40 d1 05 c0 b3 c1 c7 be d5 1c 63 40 2c 11 8a bd
       -2.0908966 -0.39014968 3.5486348 -0.067415565
000180 ab af 92 be 1b a1 78 be 50 af 46 3e db ca 0a bb
       -0.2864965 -0.24280207 0.19402814 -0.002117804
000190 43 2c 20 bd 3b 42 de 3d ab b2 a7 be f6 8b 0a be
       -0.03910471 0.10852476 -0.327535 -0.13529953
0001a0 1f ce 28 be 32 73 91 3d 80 6b 39 be 47 99 ba 3a
       -0.16484879 0.0710205 -0.18107414 0.0014236354
0001b0 55 9b 5e be 76 43 1f be c6 80 12 bd cc 05 c3 bd
       -0.21738942 -0.15553078 -0.03576734 -0.0952259
0001c0 24 9f 07 40 91 37 88 be 74 66 62 bd 75 d8 ff bf
       2.1190882 -0.26604894 -0.05527349 -1.9987932
0001d0 68 6f 60 3e f9 17 36 3e c8 47 1d c0 d8 f8 1a 3f
       0.21917498 0.17782582 -2.4575062 0.60535955
0001e0 43 80 9e bf 40 1d c7 bf bd 03 e0 c0 c8 64 25 c0
       -1.2382892 -1.5555801 -7.0004563 -2.5842762
0001f0 da 34 25 c0 93 68 d1 bf 35 7f 39 c1 d0 b6 f1 bc
       -2.5813508 -1.6360039 -11.593556 -0.029506117
000200 cc 48 32 be ba e5 20 be d6 2a 5f be af fc 82 bd
       -0.17410582 -0.15712634 -0.21793684 -0.06395852
000210 28 70 8f be b4 b1 df bd 8e 33 fe bd e2 a5 64 be
       -0.28015256 -0.10922566 -0.12412177 -0.22328904
000220 90 37 41 3d af ea 1c 3e f7 b6 0f bd a2 9e a9 3d
       0.04717213 0.153239 -0.0350866 0.0828221
000230 cc 77 b0 3d 4e 5e 20 be 9a fa 80 3d fe 4f 3f be
       0.086165994 -0.15660974 0.062977985 -0.18682858
000240 c4 f4 3e be 68 b5 ba 3d 96 7c 2f be 86 83 95 bb
       -0.18648058 0.09116632 -0.1713737 -0.004562798
000250 96 f6 ad bd 4f 9c a2 be a6 3b 8a be 56 0b be bd
       -0.08494298 -0.3175988 -0.26998633 -0.09279506
000260 1a cf 1f 3e e6 28 d1 3d 18 23 27 be 93 63 28 be
       0.15606347 0.10212879 -0.16321981 -0.16444235
000270 c5 89 43 3c 36 91 8f be 3a 86 0c be 72 3f 41 be
       0.011934702 -0.28040475 -0.13723078 -0.18871859
000280 27 de 1f 40 6d 95 a8 bd b3 38 ab 3d f1 7f 1e c0
       2.497934 -0.08231626 0.08360424 -2.476559
000290 33 07 53 3e 1b d1 3c 3e 73 69 2d c0 f8 54 d5 3e
       0.20608215 0.18439142 -2.709561 0.4166639
0002a0 61 f6 94 bf 0d 20 06 c0 c8 6d 6b c0 01 82 35 c0
       -1.1637689 -2.0957062 -3.6785755 -2.8360598
0002b0 1a fa 14 c0 77 5a ef bf 89 ca fe c0 b6 d0 7b 3e
       -2.327765 -1.8699483 -7.9622235 0.24591336
0002c0 2a 92 13 40 80 a4 46 3e 94 14 7a 3e 31 1c 1d c0
       2.3057961 0.1939869 0.24421912 -2.4548457
0002d0 df ec 1e 3f fd ed 46 3f e4 6b 0b c0 70 4b b8 3e
       0.62080187 0.7770689 -2.1784601 0.35995054
0002e0 a9 4d 38 bf 57 df fb bf 08 b4 97 be 69 57 76 c0
       -0.719935 -1.9677533 -0.2962954 -3.849085
0002f0 bb 75 29 c0 0f 6c 0a c0 ad 56 11 c1 5e 34 40 3e
       -2.6478107 -2.1628454 -9.083661 0.18769976
000300 19 c3 0f 40 c7 61 2f be e4 75 28 be dd 0a 0a c0
       2.2462828 -0.17127143 -0.16451222 -2.156913
000310 3a 41 f9 3d ef 04 1e 3f 0f 73 0b c0 54 a3 f5 3e
       0.12170644 0.6172628 -2.1788976 0.47976172
000320 c6 ce 98 bf 92 95 a0 bf e0 b6 a6 bf 08 15 52 c0
       -1.1938102 -1.2545645 -1.3024559 -3.2825336
000330 e6 6a 34 c0 de ed 05 c0 70 8e 12 c1 fe 05 5b be
       -2.8190246 -2.0926433 -9.159775 -0.21389005
000340 5f 94 0f 40 74 00 29 3e 87 62 43 be 6b ad 06 c0
       2.2434309 0.16504079 -0.19080554 -2.1043346
000350 78 e4 b9 3e df 9f 0b 3f bb 3b 1a c0 1d 7e 0b 3e
       0.3630712 0.5454082 -2.4098957 0.13622327
000360 7f f4 56 bf 14 05 8e bf a5 db 3f c0 5d 4d 45 c0
       -0.8396682 -1.10953 -2.997781 -3.0828469
000370 80 b3 11 c0 78 ef da bf cc 8b 35 c1 c8 12 e5 3d
       -2.2765808 -1.710433 -11.34663 0.11185223
000380 19 4e 1d c0 3d a6 ef 3e 4a b7 7c 3e c2 17 28 40
       -2.4578917 0.46806517 0.24679294 2.62645
000390 83 7f 39 3f 29 1c 7c be e3 5d ca 3f a0 30 eb be
       0.7246019 -0.24620117 1.5809902 -0.45935535
0003a0 fe e4 97 bf fa 72 db c0 af 90 d8 3f e5 14 af bd
       -1.1866758 -6.857785 1.6919154 -0.08548907
0003b0 4a 3c 69 3f aa 2e 1e 40 8b 7d 9d 3f 50 4c 1a bd
       0.9110762 2.4715981 1.2303938 -0.037670434
0003c0 29 d4 a7 bf 91 e3 f2 be 3c 6b 0c bd 4b 52 e1 be
       -1.3111621 -0.47439244 -0.034281954 -0.44008097
0003d0 62 60 b4 be bf e0 3e 3f df 7c 30 3f 1e de bb be
       -0.35229784 0.74561685 0.6894054 -0.366929
0003e0 86 e4 1c bf ac e3 98 3f 60 92 35 bf b4 71 40 40
       -0.612862 1.194448 -0.70926476 3.00694
0003f0 67 70 a7 3f 3e d4 5b 3e 1b 4d 5a 40 60 66 c1 3d
       1.3081177 0.21467683 3.4109561 0.094433546

layers.1.bias f4 [16]
000000 71 4f 4e c0 c7 91 3e c0 51 66 67 bf d1 a5 97 be
       -3.2235987 -2.9776475 -0.903905 -0.29618695
000010 64 7f 0e 40 8f 13 8c 3f 57 ea 00 3d 5c 59 1c c0
       2.2265253 1.0943469 0.031473484 -2.442954
000020 11 7d bc bd 95 bc 8e be d7 1d 65 c0 89 31 2c c0
       -0.09203542 -0.27878252 -3.5799463 -2.6905234
000030 fb 0d 33 c0 a4 0d 3b c0 66 76 e6 3f 01 41 ca 3f
       -2.7977283 -2.9227076 1.8004882 1.5801088

layers.2.weight f4 [2, 16]
000000 ca 08 c1 3f 8b 71 c6 3f 34 0f a1 40 f9 2d 0e 3e
       1.5080807 1.55034 5.033106 0.13884725
000010 72 1d d6 3f c8 b8 81 c0 8c 67 8a bc e3 6e f4 3f
       1.6727736 -4.0538063 -0.016895078 1.909634
000020 00 db 19 be 57 2d dd 3d 95 10 98 3f b3 3b af 3f
       -0.15024948 0.107996635 1.188006 1.3690094
000030 4e 68 e8 3f 81 5b ec 3f 27 27 b3 be a7 aa c4 be
       1.8156831 1.8465425 -0.34990808 -0.38411447
000040 85 cb c3 3f 27 cb 91 3f dc 48 c5 40 20 98 9a bc
       1.5296484 1.1390122 6.165144 -0.018871367
000050 a8 7a 0b c0 83 b0 42 bf 70 ca 8a 3c e9 60 e7 3f
       -2.1793613 -0.76050586 0.016942233 1.807645
000060 92 88 5d bd 73 99 16 3d 2d e8 e0 3f b9 33 e2 3f
       -0.05408532 0.036767434 1.7570854 1.7672035
000070 28 e4 b6 3f 46 44 bc 3f ed 39 55 bf 53 43 b0 c0
       1.4288378 1.4708335 -0.8329151 -5.5082183

layers.2.bias f4 [2]
000000 2e 8a 81 bf 7f 3b b3 c0
       -1.0120294 -5.6010127
