Results/MountainCar-A/Classifier/model.pt (torch_old, 19132 bytes, 6 tensors)

l1.weight f4 [64, 2]
000000 ca b6 60 40 d9 cc 87 40 cd 42 8a 3e dc c6 4b 41
       3.5111566 4.243756 0.2700409 12.73605
000010 2a ba 63 3f 76 7f e0 c0 78 a8 e7 bd 3d 31 32 3f
       0.8895594 -7.015559 -0.1131143 0.6960638
000020 35 83 b2 bb a9 4d 0a 41 e7 a6 94 3e 21 0f 48 41
       -0.00544777 8.64396 0.29033586 12.503694
000030 32 15 b6 bd 5d 0a b3 c0 6e 28 b6 3e d3 bc a5 be
       -0.088907614 -5.595015 0.3557772 -0.32370624
000040 29 36 98 bf 2d cb 17 41 ae f6 8b bc 87 ce 03 41
       -1.1891528 9.487103 -0.0170854 8.237922
000050 d6 4e f5 3c fd 2c e9 40 82 29 04 40 72 6a 22 41
       0.029944818 7.2867417 2.0650334 10.150988
000060 ac ea 5a 3e 2c 7a 29 bf 07 9e 1e 3d bc a4 38 c1
       0.21378583 -0.66202044 0.038724925 -11.540218
000070 52 e7 59 3f e9 0c cf c0 0f e4 86 3e 8c a3 47 41
       0.8511859 -6.470326 0.2634587 12.477428
000080 b1 d1 3a 3e 2b 5f 48 c1 a1 bf 18 3f be f2 9f 3e
       0.18244053 -12.523234 0.596674 0.31239885
000090 64 98 86 3d e3 ae 51 c1 b3 09 c7 3d f6 82 50 c1
       0.06572035 -13.105197 0.09718647 -13.031973
0000a0 a3 53 bf bf 86 5c 1e c1 68 c0 8e 3e 86 18 3e 41
       -1.4947399 -9.897589 0.2788117 11.880987
0000b0 ae f6 86 3e 51 40 45 41 4e 79 08 3e ed 2c 38 c1
       0.26360077 12.328202 0.13327524 -11.510968
0000c0 93 5e 8b bf 38 d6 1c 41 ed c5 a1 be 4a 30 0f 41
       -1.0888237 9.8022995 -0.31596318 8.949289
0000d0 a0 bb 38 3f 0e df fe c0 56 ee a3 3d 6d 09 3d c1
       0.72161293 -7.9647284 0.08004443 -11.814801
0000e0 88 f7 9e 3d 76 5f 48 c1 8f 39 1b 3f a3 c2 17 3f
       0.077620566 -12.523306 0.606347 0.5928137
0000f0 cb 4c 99 be d6 e2 c2 c0 79 24 b6 3c 7d a7 35 c1
       -0.299414 -6.09019 0.022234188 -11.353391
000100 23 c2 91 bf 6a 98 12 c1 61 15 09 40 6d 1f 2b 41
       -1.1387371 -9.16221 2.1419299 10.695172
000110 47 55 87 3e ab 59 49 41 0b 5a b6 3b 67 6e 11 41
       0.2643225 12.584392 0.005564933 9.089454
000120 b0 de 09 3e 84 be bc be c0 14 82 3e 1b 19 4b 41
       0.13463855 -0.36864102 0.25406456 12.693629
000130 05 c7 45 be 90 af df 40 13 55 19 3e a5 6a 15 41
       -0.19314201 6.990181 0.1497386 9.338536
000140 36 ec bd 3e 96 88 74 be ae 3f 36 40 03 24 2d c1
       0.37094277 -0.23880228 2.8476367 -10.821292
000150 86 2f 7a be 4a 26 aa 3e b9 04 32 3f f5 45 31 bf
       -0.24432191 0.33232337 0.69538456 -0.6924737
000160 ed 62 cf 3d 54 ae 4f c1 d0 48 99 3d 78 21 96 bd
       0.101262905 -12.980061 0.07484591 -0.073306024
000170 1f 1f 2b be f9 47 41 3f ee ee 46 be 94 a9 15 c1
       -0.1671109 0.75500447 -0.19427082 -9.353901
000180 00 ad d2 bc 28 c7 31 be a6 dd a6 3e c0 fe 74 3e
       -0.025717258 -0.17361128 0.3259098 0.23925304
000190 d1 d4 03 3e 14 c1 48 c1 0e b9 9d 3d 79 af 42 c1
       0.12874152 -12.547138 0.07701312 -12.16784
0001a0 08 a4 84 bc 22 c6 06 41 d4 b3 cf bc 53 81 e6 40
       -0.016191497 8.423372 -0.025354303 7.2032866
0001b0 e6 a7 bf 3e 17 75 31 bf f0 96 9e bf 7e 02 25 41
       0.37432784 -0.6931929 -1.2389812 10.313108
0001c0 a2 64 96 bd 7d 6a 26 c1 40 f1 8d 3d 00 51 44 3e
       -0.07343413 -10.400998 0.069307804 0.19171524
0001d0 22 a2 2b be 16 ea 7b 40 ae 54 47 3d 6f 79 02 41
       -0.16761068 3.9361625 0.04866474 8.154647
0001e0 0a 65 b3 bf d0 eb f5 40 1a 45 8a 3e 0d 15 4f 41
       -1.401521 7.6850357 0.27005845 12.942639
0001f0 e8 df 0c bf 45 6d 49 41 a0 07 10 3d 57 12 88 3e
       -0.55029154 12.589177 0.03516352 0.26576492

l1.bias f4 [64]
000000 7e f3 38 bf ee 62 36 3e ce d0 8b 3e 99 49 19 bf
       -0.7224654 0.17811176 0.27307743 -0.59877926
000010 4f aa 1b be 5f 46 27 3e b6 23 2a be e0 02 97 be
       -0.15201686 0.16335438 -0.16615185 -0.2949438
000020 1e 56 7a bf 71 b2 2d be bf cc 2c be f9 2c 1d bd
       -0.97787654 -0.16962601 -0.1687498 -0.038372967
000030 a5 eb 17 bf fe 99 56 3e 3d ae 82 3e 1b d1 2f 3e
       -0.5934394 0.20957181 0.25523558 0.17169611
000040 af 30 93 3e 82 19 af be 6f eb 75 3e dd 73 70 3e
       0.2874808 -0.34199148 0.24015592 0.23481698
000050 3a f8 4f bf db 15 21 3e 36 7b 33 3e ce e9 73 3e
       -0.8123814 0.15730993 0.1752747 0.23819658
000060 7a 1e 69 bf 4c f2 7c bd 58 01 dc 3e a1 21 59 3e
       -0.9106213 -0.06175451 0.42969775 0.21204235
000070 f2 0c 65 3e 30 13 ff be b6 b4 cb be ab c6 2c 3e
       0.2236822 -0.49819326 -0.3978631 0.16872661
000080 d2 09 50 be 0d ed 12 bd c0 6c 32 3e 43 1c 48 be
       -0.20316246 -0.0358706 0.17424297 -0.19542031
000090 b8 d6 1f be 09 fe 22 3e 19 1e 9d be ad e7 7d be
       -0.15609252 0.15917219 -0.30687025 -0.24795409
0000a0 44 bc 3d be a2 fe 1c 3e a5 37 b6 be 3a f5 10 bf
       -0.18528849 0.1533151 -0.35589328 -0.56624186
0000b0 a0 50 70 3e 08 f7 17 bf 42 23 62 be 77 4a 7f be
       0.23468256 -0.59361315 -0.22083762 -0.2493075
0000c0 38 c9 20 bf 66 f3 ad be 15 31 7e 3e 7d a9 5f 3e
       -0.62807035 -0.3397476 0.24823411 0.21841998
0000d0 87 ed 50 be 9c 28 39 be fa 71 23 bf 90 1e 83 bf
       -0.2040311 -0.18081897 -0.6384579 -1.0243702
0000e0 77 bc 3d be 70 de 32 be 0a d6 78 be 00 88 4f be
       -0.18528925 -0.17467666 -0.243004 -0.20266724
0000f0 6b 54 f3 bd 3f 9f 36 3e 4c 29 09 3d ed cf c3 bc
       -0.11881336 0.17834185 0.03348665 -0.023902858

l2.weight f4 [64, 64]
000000 96 a0 44 c0 38 28 e4 3d 78 66 a0 bf 4e a4 bc 3d
       -3.0723014 0.111404836 -1.2531271 0.09211026
000010 32 02 d1 be 5a 97 49 be 30 93 c5 3e e2 72 96 bd
       -0.40821987 -0.19686642 0.38588858 -0.07346131
000020 4c 89 57 be a8 00 09 3e 25 6e 72 3c 35 c2 07 3d
       -0.21048468 0.13379157 0.014796768 0.033144195
000030 2c cd bf 3d ef 5b e5 3d e3 6b 82 bf e8 50 87 3d
       0.09365305 0.111991756 -1.0189174 0.066072285
000040 86 ed 94 bd 5c 84 df 3d c1 7e 42 3d 01 f0 03 3e
       -0.072718665 0.109139174 0.047484163 0.12884523
000050 e4 32 f8 c0 95 14 a3 be ff 3b bf be 60 83 d0 3c
       -7.756212 -0.3185164 -0.3735046 0.02545327
000060 4e 61 87 bd 6c 7d 20 be 2c 19 c5 bf dc bd e3 3c
       -0.06610356 -0.15672845 -1.5398307 0.027800493
000070 b1 e4 0d 3d 40 51 16 bc e5 2a 08 bb c1 4f 51 bd
       0.034641925 -0.009174645 -0.002077752 -0.05110145
000080 11 93 e7 be 15 9c 9b 3e 05 85 82 3e 6b 47 26 be
       -0.4522939 0.3039252 0.2549211 -0.16238181
000090 b0 2a 91 bc df f3 00 3e 90 ea 11 3d a0 74 86 be
       -0.01772055 0.1259303 0.035624087 -0.26260853
0000a0 ec 62 54 bd 70 45 a9 be f8 18 83 bc 68 34 08 bd
       -0.05185215 -0.3306079 -0.016003117 -0.033253103
0000b0 bf 0c b3 3b 40 c1 30 3c ef 2a 0d be 48 b8 e3 3b
       0.005464166 0.010788262 -0.13785909 0.0069494583
0000c0 00 d3 c9 3b 4e 88 8c 3d ea 9d d8 3d b8 16 a0 bb
       0.0061591864 0.068619356 0.10576995 -0.004885521
0000d0 18 c6 99 be 26 3b cc bc 3e eb dd bd b1 48 55 3e
       -0.30033946 -0.024930548 -0.108358845 0.20828511
0000e0 dc 67 9e be e6 d7 af bd bc 63 44 3d 68 70 ac bd
       -0.30938613 -0.08586101 0.047946677 -0.08419877
0000f0 9b ed 9a 3b c0 4c 39 3e 15 4d 76 be 98 18 96 3c
       0.004728032 0.18095684 -0.24052842 0.018322274
000100 0e 59 e7 3c f1 d2 1c bd 6f 78 26 3d f0 ea 4f bc
       0.028240707 -0.038287107 0.0406422 -0.012690291
000110 25 90 62 bc 3c d9 0c bd cc 17 12 bd f6 56 84 3d
       -0.013828312 -0.03438686 -0.035667226 0.06461899
000120 ec fb 6a bd 8c 2d 8f 3d 15 15 21 be 72 97 f5 bd
       -0.057369158 0.06991109 -0.15730698 -0.119917765
000130 c0 87 80 3c 65 0b 0f 3d 43 c1 2f bc b8 39 e1 3b
       0.01568973 0.034922976 -0.0107272295 0.0068733357
000140 ac db 2b 3d 16 dd f1 3d a6 52 86 bd 66 b0 d2 3c
       0.041957542 0.11809747 -0.06558733 0.025718879
000150 ee b6 6c bb be fb b2 bc 74 55 4a bd 66 18 22 bc
       -0.0036119777 -0.021848556 -0.0493979 -0.009893512
000160 fa 70 b0 bd 68 5b 01 be 92 9c 9e bd bb f5 8a 3d
       -0.086152986 -0.12632525 -0.07744707 0.067851506
000170 2d a9 bb bd 2c f0 cc bd 61 07 30 bc 98 3d 8a bd
       -0.09163127 -0.10006747 -0.010743947 -0.06750029
000180 fe 88 84 bd 27 a6 97 bd eb 90 3f bc 35 f1 6b bd
       -0.06471442 -0.07404738 -0.011692266 -0.05760308
000190 d8 fb 93 bc 1c 1a 04 3d 23 64 9c bc 7a a0 58 bc
       -0.018064424 0.032251462 -0.019090718 -0.013221854
0001a0 fc f9 7b 3d 22 67 85 3d 08 a2 f8 bd bc 77 da 3d
       0.0615177 0.06513812 -0.1214028 0.10667369
0001b0 e9 e3 29 be f0 81 54 bd 48 25 99 3d fa 13 27 bd
       -0.16590847 -0.05188173 0.07477814 -0.040790536
0001c0 b0 c5 e8 bc d0 ed b9 bc c0 b6 26 3c bb 44 3c be
       -0.028414577 -0.022696406 0.010175407 -0.18385594
0001d0 30 cb de bd 5d 65 dd 3d 7a 40 da bd fd 4a 22 be
       -0.10878599 0.10810349 -0.10656829 -0.15848918
0001e0 03 1c 4c bc b6 e9 bc bd 57 1f 39 be 06 d1 8a bc
       -0.01245785 -0.09224264 -0.18078361 -0.016945373
0001f0 3e 11 2f 3d 81 4c 8d bd a6 a8 59 be a0 e9 03 be
       0.042741053 -0.068993576 -0.2125574 -0.1288209
000200 e9 c3 dd bd 10 f3 49 bb 7d 97 46 bd 38 99 c6 bc
       -0.108283825 -0.0030815043 -0.048484314 -0.024242982
000210 4e 94 eb bb 2f a2 8f 3b 96 15 80 bd 40 51 77 3b
       -0.00718931 0.0043833475 -0.06254117 0.0037737638
000220 6f 81 3b 3d ce 9d 9f 3c 62 4a 82 bc ba 21 39 bc
       0.045777734 0.019484427 -0.01590461 -0.011299545
000230 60 21 fc bb d5 47 f8 bd 55 de 72 3c f1 a7 06 be
       -0.0076944083 -0.12123076 0.014823516 -0.13150002
000240 70 61 34 be 30 1b 36 bd 99 9e 52 3d c3 a6 8a ba
       -0.17615294 -0.04445952 0.05142078 -0.0010578263
000250 58 01 ee 3d 2e 86 11 bd 7e 24 04 be d9 51 80 bc
       0.1162135 -0.035528354 -0.12904546 -0.015664028
000260 dd 98 03 bd ce 93 27 bd f7 7d 15 3d a2 06 97 bd
       -0.032128204 -0.040912442 0.036497083 -0.07374312
000270 58 2b fd bd 60 6b 9f 3d 4d df 37 3d b4 78 58 3b
       -0.12361783 0.07784152 0.04489069 0.003303093
000280 24 d7 65 3d 0d 3b de 3b 9c a7 0f be f9 ce 0b be
       0.056113377 0.0067819417 -0.14028782 -0.13653173
000290 64 09 02 3d b2 21 92 bd 0b ea ab 3c 2b a4 42 3d
       0.031747237 -0.07135333 0.020985624 0.047519844
0002a0 c6 7a d6 3d e9 91 75 bd d8 61 30 3d 32 d0 92 3d
       0.10472636 -0.059953604 0.04306206 0.07168616
0002b0 b6 77 2c bd cc d4 39 3d 11 86 8d ba 49 50 17 3d
       -0.042106353 0.045368955 -0.0010797401 0.0369418
0002c0 de 5f 8d 3d 00 5a 8f 39 67 88 81 bd 10 fe de 3d
       0.06903051 0.0002734214 -0.06324845 0.10888302
0002d0 21 6c df 3d c3 54 46 bd 8a 69 98 bd fc 11 87 bd
       0.10909296 -0.04842068 -0.07442005 -0.06595227
0002e0 3b 92 52 3d 5a 13 a6 3d 0e 59 30 3d 07 e3 66 3d
       0.051408987 0.0810916 0.04305368 0.056368854
0002f0 16 9e fc bd db 64 05 be ca 34 4b bd 4f 56 d5 bc
       -0.1233484 -0.13026755 -0.04961089 -0.026042132
000300 1b 73 b2 3f 8e 19 8c 3e 4f 38 a0 3f da 18 e2 bd
       1.3941377 0.27363247 1.2517184 -0.11039896
000310 d0 9e 23 3e 30 84 03 3f 32 61 e4 be 90 69 bd bc
       0.15978551 0.5137358 -0.44605404 -0.023121625
000320 73 bc 04 c0 2e c9 a9 3e 25 42 49 3e 53 21 96 c0
       -2.074002 0.331613 0.19654138 -4.691568
000330 c0 93 6f 3d 6d 19 97 be fb a9 7e 3f c5 0c a9 3e
       0.058490515 -0.29511586 0.9947812 0.33017555
000340 bf 27 16 3f 38 f4 9a 3c cb 55 ab 3c 70 7b 87 3d
       0.586544 0.01891528 0.020914933 0.06615341
000350 8b 65 e8 3e 05 63 3e 3f 18 1e 59 3f cc ba 00 3f
       0.4538997 0.7436984 0.84811544 0.5028503
000360 ab 35 f8 bf e1 dd 02 bd 37 48 b7 3f 63 cc 25 3e
       -1.9391378 -0.03194988 1.4318913 0.16191249
000370 20 97 0d be 18 88 bb 3d 98 08 17 be cb ca 85 be
       -0.13827181 0.09156817 -0.14749372 -0.2613128
000380 83 8f 10 bf da 49 a2 c0 87 77 f7 3d be e6 92 3e
       -0.5646898 -5.071515 0.12083345 0.28691667
000390 fe 6f d8 bd d6 bc 05 3e 7e dc 3a be ed 00 d4 3e
       -0.10568236 0.13060316 -0.18248174 0.41406956
0003a0 6c 3a a0 bd cb f2 3b bf 74 9b ad 3d 0a 03 98 bd
       -0.07823643 -0.7341735 0.08476916 -0.07422455
0003b0 f2 33 ba 3e 5a 74 95 bd f6 5b 71 3e ee 67 1f bf
       0.36367756 -0.07297583 0.23570237 -0.6226796
0003c0 50 4e dd bc 34 d1 1b 3d 41 7f 03 3f 9f de 5f bd
       -0.027014881 0.03804131 0.5136605 -0.054655667
0003d0 5a 28 24 3e 59 29 1c bc 94 dd 98 3d e4 85 11 c0
       0.16031018 -0.009531342 0.07464138 -2.273797
0003e0 7b 7a 31 bf 4e e6 f4 3d e4 1f 69 be f0 74 a6 3e
       -0.69327515 0.1195799 -0.22766072 0.3251109
0003f0 2c 37 81 bf 44 c5 67 3e 90 5a 20 3e 15 44 5e 3d
       -1.0094962 0.22633845 0.15659547 0.054264147

l2.bias f4 [64]
000000 25 e7 fd bd a7 de 21 be 45 ff 4d bd d3 5b 27 3e
       -0.12397603 -0.15807591 -0.050292272 0.16343622
000010 8c 28 f8 bd be d6 e4 bc 49 76 a5 3e 42 9a 5e bd
       -0.12117109 -0.027934428 0.32316807 -0.05434633
000020 55 88 35 3f 14 68 54 bf ba fb 47 be 46 c5 24 bd
       0.7091115 -0.8297131 -0.1952962 -0.040227197
000030 6b 21 c5 bd 2e 27 90 be 4c 56 77 3f cf be 85 ba
       -0.096255146 -0.28154892 0.96616054 -0.001020396
000040 c1 4b 87 bd 68 8b 22 3f 31 db e5 bd f3 bf 09 3f
       -0.06606246 0.6349397 -0.11223448 0.53808516
000050 fe 5d 32 be f4 96 ec bd d6 fe 80 bf 8c e5 7a 3e
       -0.17418668 -0.115522295 -1.007777 0.24501628
000060 15 7c c1 ba f0 2e e7 3e 7a 05 b7 bd e7 c7 b8 bd
       -0.0014761711 0.45152998 -0.089365914 -0.09022503
000070 ae 4a ab bd 9f 4a 77 bf e1 8e 86 bf a4 43 68 bf
       -0.083638534 -0.9659824 -1.0512353 -0.9072821
000080 99 48 a2 bc 6c c5 13 bd 07 d5 0f be 53 4f d3 bb
       -0.019810008 -0.036076948 -0.14046107 -0.006448665
000090 df 92 13 3f e6 45 1f 3f 0f 34 7a bc 16 0c a5 3e
       0.5764598 0.6221603 -0.015271201 0.32235783
0000a0 d7 47 fc bd 70 6f aa bd f8 81 e6 bd 3a 04 ae bd
       -0.1231839 -0.08322036 -0.11255258 -0.084969
0000b0 f4 d8 41 be 7d 48 e4 bd 22 08 82 bf ef d1 5f 3d
       -0.18930417 -0.111466385 -1.0158732 0.054643568
0000c0 0a 22 05 3f e2 86 cd 3e 15 5d 9c bd 5b 3e 4a bf
       0.52005064 0.4014197 -0.076349415 -0.79001397
0000d0 60 d8 3e bd 0a 7c 75 3e e4 05 4e 3f 52 96 ff bf
       -0.04659307 0.23973098 0.8047774 -1.9967749
0000e0 ad a2 b4 bd 1b 2b 82 3e 75 b6 23 ba 2b 15 1f bd
       -0.088200904 0.25423512 -0.0006245145 -0.038838547
0000f0 12 f1 63 bf 66 8e 99 be 66 a0 7c bf 60 18 65 bc
       -0.8903972 -0.29991454 -0.9868225 -0.013982862

l3.weight f4 [3, 64]
000000 65 a5 14 3d f7 ad cc 3d 39 51 23 bd bb f1 2f 3f
       0.036290545 0.09994119 -0.03987238 0.68728226
000010 44 7d a9 bd 0c 5a 9c bd 58 d6 41 c0 2c 7c ba 3d
       -0.08275846 -0.076343626 -3.0287075 0.09105715
000020 92 7c b5 3e 9a 7a c5 be 5e b3 4e 3d bf 7a dc bd
       0.35446602 -0.385701 0.050464027 -0.107655995
000030 d8 5f 01 3c fe 7a 9e 3f 25 0a 56 bf f7 a8 64 bd
       0.007896386 1.2381284 -0.8360923 -0.0558252
000040 94 c3 c5 3d 07 05 80 3f eb 15 5d 3d c3 ce b5 3e
       0.09656444 1.0001534 0.05397598 0.3550931
000050 99 a0 05 40 14 aa da 3d 81 b3 19 bf 39 8e 77 bf
       2.087927 0.10676971 -0.60039526 -0.9670139
000060 dc 33 b9 bd 64 53 e5 3e 2e 95 87 bd 5b ab a9 3d
       -0.090430945 0.44790184 -0.06620251 0.082846366
000070 2e bb ee bd 1c a7 04 be 81 ce 81 3e a4 78 9b 3e
       -0.116567954 -0.12954372 0.25352862 0.3036548
000080 52 a2 a7 bd 77 e7 03 bd 53 b3 88 bd 82 b3 48 bd
       -0.08185257 -0.032203164 -0.066748284 -0.048999317
000090 3d 3a 12 bf b1 5a b2 bf e1 17 ba bc f8 ef f2 bf
       -0.57120115 -1.3933927 -0.022716464 -1.8979483
0000a0 ad 13 d8 3c a7 e6 29 be 03 fe cb 3c 41 14 74 3d
       0.02637657 -0.16591893 0.024901396 0.059589628
0000b0 48 b5 86 3d 66 25 09 3d 7e c1 80 3f 19 df 5a 3e
       0.065775454 0.03348293 1.0059049 0.21374168
0000c0 d0 b6 00 3e 58 45 07 3f ec 8d 43 bd b6 85 16 bf
       0.12569737 0.52840185 -0.04774277 -0.58797777
0000d0 54 c2 f2 bd 04 e0 8d 3c 7c 9e 75 3f 43 77 d3 bf
       -0.118534714 0.017318733 0.9594495 -1.6520771
0000e0 32 15 fa bc 55 86 cf be 26 b0 13 bd 97 56 a5 bd
       -0.030527685 -0.40532175 -0.03605666 -0.08073156
0000f0 bf 87 f7 3f 12 51 b4 be cf 94 4e 3f 1c bf 00 3d
       1.9338301 -0.35218102 0.80695814 0.031432256
000100 8a bf 74 be ed 30 a8 3c 17 e4 1c bd dc 76 74 3e
       -0.23901191 0.020531142 -0.03830346 0.23873466
000110 56 ce e0 3d b4 59 21 3d 9c 17 97 40 9b 8e 03 3d
       0.109768555 0.03939219 4.721632 0.03211842
000120 a1 91 2e 3f 78 f7 59 c0 9d 28 1f bd 37 3d 1b 3e
       0.6819096 -3.4057293 -0.03885709 0.1516007
000130 8a 62 a6 3d 77 51 74 c0 65 a9 be 3f 43 5b b8 3d
       0.081242636 -3.8174722 1.4895445 0.09001782
000140 20 e0 4c 3c 78 9b 29 c0 3d 4c 0a be fa e2 3f 3f
       0.012504607 -2.650114 -0.13505645 0.74955714
000150 07 69 fb bf 9a 03 bb 3d 75 00 08 c0 4d 6e b2 bf
       -1.9641427 0.09131546 -2.125028 -1.3939911
000160 ef 73 a9 3d 59 99 16 3e f5 d7 a8 bd b5 bd 9c 3d
       0.08274066 0.14706935 -0.082443155 0.07653371
000170 f1 ea 33 bd fe 4d 29 c0 28 ab f0 bf da 25 28 c0
       -0.04392523 -2.6453853 -1.8802233 -2.6273103
000180 f1 99 4d 3d af a3 ad 3d 51 11 9e bd 30 04 27 3e
       0.050195638 0.08478486 -0.077181466 0.16310191
000190 67 13 ae 3f 58 c8 55 bf 5c fe 33 3d d1 35 ea c0
       1.3599671 -0.83508825 0.043943748 -7.3190694
0001a0 a5 f1 a5 3d c9 dc bc bd e6 fc 1b 3d 08 4e 05 bd
       0.08102731 -0.09221799 0.03808298 -0.03254512
0001b0 71 10 c7 3d 94 65 b1 ba 67 65 38 c0 5f 5e 37 3d
       0.09719933 -0.0013534301 -2.881189 0.044767734
0001c0 42 80 a1 3e fa 99 1a 3e f2 b4 23 be 77 93 3e c0
       0.31543165 0.150978 -0.15986994 -2.9777505
0001d0 f2 7b a0 bd 06 4d 8f bf 91 8b 25 3e 73 69 b0 bf
       -0.07836141 -1.1195381 0.16166522 -1.378218
0001e0 3f ff 43 bd 7d 76 d9 3d 66 a0 26 bc 1e e4 16 3c
       -0.047850844 0.10618303 -0.010170078 0.009209661
0001f0 54 0b 16 c1 61 99 a1 3d d4 33 1f c0 0c fb 6e 3d
       -9.377766 0.07890583 -2.4875383 0.058344886
000200 13 c8 7b 3e 7c cc 9e bd 60 a3 e4 bd 74 9e 9b bf
       0.24588041 -0.07753846 -0.11163974 -1.2157731
000210 b6 c5 97 bd f0 e9 22 bd c1 d9 f4 3e 2c 1e 8f 3d
       -0.07410757 -0.03977388 0.47822383 0.06988177
000220 87 23 a2 bf 4b 9d 90 3f 75 74 b4 bc 14 0c 8e bb
       -1.2667092 1.1298002 -0.022028187 -0.004334936
000230 8a a7 3c 3e 7b 6a e8 3e 14 0b 38 bf 0c d9 1b bd
       0.18423286 0.45393738 -0.71891904 -0.03804879
000240 22 02 1a 3d f3 d6 1f 3f 39 2c b3 bd b3 2a 76 bf
       0.03759969 0.6243736 -0.08748669 -0.96158904
000250 0f 62 85 c0 88 64 a1 bc 3c 52 71 3f f9 2b 74 3f
       -4.16822 -0.019701257 0.94266105 0.95379597
000260 68 95 64 bc 8a 06 26 bf 13 2a 88 bd 75 39 55 3d
       -0.013951637 -0.6485373 -0.0664865 0.05205675
000270 b6 eb a9 3d 19 dd 1b 3f 3b 5b 85 3e 63 01 c5 3e
       0.082969114 0.60884243 0.26046166 0.3847762
000280 3e 86 4b 3d 83 86 81 3d 20 fd bc 3b 38 9e 4c 3c
       0.04968857 0.06324484 0.0057674795 0.012488894
000290 8b 56 04 c0 7d d3 52 40 6c 08 89 bb 6b 0b ce 3f
       -2.0677822 3.2941582 -0.004181912 1.6097234
0002a0 80 b8 31 bd 0f f8 32 bd 87 1a a2 bc 2c 35 6e 3c
       -0.043388844 -0.0436936 -0.01978804 0.014539044
0002b0 9c 53 56 bd 79 98 a9 39 29 eb d6 3d 0a d5 d4 bd
       -0.05232583 0.00032347793 0.10494072 -0.103921965
0002c0 55 d2 c2 be 65 ac 3d bf b4 bf 83 bc 99 08 9a 3f
       -0.38051096 -0.7409118 -0.016082622 1.2033874
0002d0 38 ad 57 bd ba 43 00 3f 96 72 95 bf 47 f3 05 40
       -0.05265543 0.5010334 -1.1675594 2.0929735
0002e0 ef d7 aa bd 85 92 1f 3e 8d db 2f 3d 6b 40 d2 bd
       -0.08341967 0.15583237 0.04293399 -0.10266193
0002f0 b8 ca e7 3e c9 a6 8f 3d f2 0c 26 3d f8 07 97 bd
       0.4527185 0.070142336 0.04053969 -0.07374567

l3.bias f4 [3]
000000 2a e0 67 3e 1f e0 c7 3f 05 b0 b6 bf
       0.22644106 1.5615271 -1.4272467
