Results/CartPole-Experiment1-DQN-Training/DQN/initial/model.pt (torch_old, 2563 bytes, 6 tensors)

layers.0.weight f4 [16, 4]
000000 84 95 4c be 76 a9 88 3e b6 99 c7 3e 96 43 d2 3e
       -0.1997891 0.26691788 0.3898446 0.4106719
000010 08 c5 f4 be 14 f3 07 3e 70 d1 d8 3e a8 df 7b be
       -0.47806573 0.1327632 0.42347288 -0.24597037
000020 02 5c 8c be d4 db bc 3e 08 4f 2d be 18 7c 8f 3e
       -0.27413946 0.36886466 -0.1692468 0.28024364
000030 08 58 66 be fa ea d7 3e 32 97 8b 3e a4 0f 1c be
       -0.22494519 0.4217146 0.2726379 -0.15240341
000040 d0 16 3b bd 10 08 3e be 42 7e b4 be dc b4 07 3e
       -0.045676053 -0.18557763 -0.35252577 0.13252586
000050 f8 f6 8e 3d 02 87 9e be b8 1d 3a 3e 18 39 ee bd
       0.06980699 -0.30962378 0.181754 -0.116319835
000060 e0 7e 5b be d0 a1 7e bd 80 d0 72 3d 70 38 de be
       -0.21435118 -0.062166035 0.059280872 -0.43402433
000070 80 fc e6 bc e8 bb cc bd aa 8c 96 3e 52 8d a6 be
       -0.028196573 -0.09996778 0.29404193 -0.32529694
000080 08 5e 50 be 70 38 fb be 60 25 db bd a8 89 c4 3d
       -0.2034837 -0.49066496 -0.10700488 0.09596568
000090 80 ea 9a 3c 60 29 37 3d 96 26 8d 3e 9e 96 86 3e
       0.018910646 0.044717193 0.275685 0.26286787
0000a0 f2 53 a1 be 5e 76 c9 3e 24 11 7f be a0 6b c3 be
       -0.31509358 0.3934812 -0.24908882 -0.3816805
0000b0 08 88 a7 3d 8e ca d2 3e 36 f5 fb 3e 10 c6 dd 3e
       0.08180243 0.41170162 0.4921052 0.43315172
0000c0 ec 31 e2 be 36 f0 b1 3e e0 ca 9b 3e 00 c4 89 bb
       -0.44178712 0.3475358 0.3042822 -0.004204273
0000d0 f6 3d a2 be 1c db 00 be d0 43 c1 3e 42 11 e6 3e
       -0.31687897 -0.12583584 0.3774705 0.44935042
0000e0 00 db 75 3e d4 fc 08 3e bc e7 7b 3e 94 c1 0e be
       0.24009323 0.13377696 0.24600118 -0.13941032
0000f0 cc d8 80 3e f2 af 8e be c8 77 bb 3e 6e 51 81 be
       0.25165403 -0.2786861 0.36614823 -0.25257438

layers.0.bias f4 [16]
000000 40 1d b1 bc f0 0f 05 bd 0a 54 ec be 12 ce e2 3e
       -0.021620393 -0.032485902 -0.46157867 0.44297844
000010 38 02 b5 bd ba 1d e2 3e a0 62 09 3d 80 14 cf bc
       -0.08838314 0.44163305 0.03354132 -0.02527833
000020 d6 11 8d be 30 1d 0d 3d a0 14 b3 be c2 9f e0 be
       -0.2755267 0.034451663 -0.34976673 -0.43871886
000030 e0 75 5e be e0 55 81 3c b4 4b 9d be a8 a3 f6 be
       -0.21724653 0.015788019 -0.3072182 -0.48171735

layers.1.weight f4 [16, 16]
000000 94 e2 53 3e 72 91 4d 3e ce b0 18 be c8 63 f4 bd
       0.20691901 0.20075014 -0.14911196 -0.11933094
000010 a4 09 da 3d 60 ee 22 3e 42 b1 5a be 52 2c 46 3e
       0.1064637 0.15911245 -0.21356681 0.19352844
000020 70 9f 49 3d 3c d3 d4 bd 10 4d 5f 3d 00 a2 69 3d
       0.049224317 -0.10391852 0.054516852 0.05703926
000030 38 94 45 3d 22 59 06 3e f8 13 4a 3d 14 e5 a4 bd
       0.048237056 0.13119939 0.04933545 -0.08051506
000040 dc 59 2a be 20 8c 68 3e c4 53 80 3d 78 7d 52 bd
       -0.16635841 0.22709703 0.06265977 -0.051389188
000050 66 3c 44 3e 50 b9 26 3d 2e 36 2e 3e 2c 79 4e be
       0.19163665 0.04070407 0.17012855 -0.20163411
000060 a6 2d 73 3e c0 3f 91 bd 22 97 51 3e 80 2b 62 3c
       0.23747882 -0.070922375 0.20467809 0.0138043165
000070 a0 42 57 3e e0 dc 4b 3e 40 7d 78 3c 58 31 45 bd
       0.21021509 0.19908476 0.015166581 -0.04814276
000080 e0 bd 6a bd 98 5a 3e bd 3a 9a 4d 3e 6a be 0f be
       -0.057309985 -0.046473116 0.20078364 -0.14037481
000090 8a ac 21 3e c6 30 63 be 94 59 fa bd 0a 54 75 be
       0.15788475 -0.22186574 -0.12224117 -0.2395784
0000a0 00 71 b6 3c 60 5c b6 3d 7c d2 a2 3d fe 28 3e be
       0.02227068 0.08904338 0.07950303 -0.18570325
0000b0 e4 a8 2f 3e f8 44 a0 3d 00 89 0e 3e 20 d1 89 bc
       0.1715427 0.07825655 0.13919449 -0.016823351
0000c0 b8 18 4d 3d 00 86 ce ba f0 04 cc 3c be 7e 22 be
       0.0500724 -0.0015756488 0.024904698 -0.15868661
0000d0 00 fa b5 ba 78 3f 8b 3d bc 04 78 3e 9c e9 62 be
       -0.001388371 0.06799215 0.24220556 -0.22159427
0000e0 30 7d 72 3d 98 34 97 bd 50 67 da bd 46 cf 7f be
       0.05920142 -0.07383078 -0.106642365 -0.24981412
0000f0 00 b8 4e 3d 90 5b 34 be ce be 4a 3e 90 4d 7f 3e
       0.050468445 -0.17613053 0.19799349 0.24931931
000100 10 40 54 bd 80 d4 d6 bd 80 7b dc 3b b8 2b 20 3d
       -0.051818907 -0.1048975 0.0067285895 0.039104193
000110 a2 8a 03 3e 40 8f d8 3d 60 47 bd bd 52 fb 7c be
       0.12845853 0.10574198 -0.09242129 -0.24705246
000120 bc 53 43 be 7a 7a 38 be f4 5b 2e 3e 96 cf 6a be
       -0.19074911 -0.18015471 0.17027265 -0.2293075
000130 90 a2 ba 3d 00 a8 6c ba 60 58 a8 3c 80 0d a6 3c
       0.091130376 -0.00090277195 0.020549953 0.02027011
000140 ac 35 d8 bd 68 f2 02 be c4 f3 69 3e 00 c8 1d 39
       -0.10557112 -0.12787783 0.22846895 0.00015047193
000150 10 ef 53 3e f4 9e 82 3d 98 42 2d bd 96 ce 5f 3e
       0.20696664 0.06377974 -0.042299837 0.2185615
000160 d0 fa 7a 3e 98 9a d1 3d d6 b0 1a 3e 48 cd 2b 3d
       0.2450974 0.102345645 0.1510652 0.04194382
000170 08 1c c3 3d d2 01 7c 3e 3c 88 62 be 2c 11 8a bd
       0.09526831 0.2461007 -0.22122282 -0.067415565
000180 7a f1 0e be 20 73 3d be 50 af 46 3e d8 14 c5 3d
       -0.13959303 -0.18500948 0.19402814 0.09623116
000190 18 6d da 3d 6a 3a 62 3e 8a d2 66 be 20 93 8f bd
       0.10665339 0.22092596 -0.22541252 -0.07010484
0001a0 70 49 a0 bd 80 13 5f 3e 14 d5 eb bd 70 bb 2a 3d
       -0.07826507 0.21784782 -0.11515251 0.04168266
0001b0 5c ae 2d be 30 2c e9 bc c0 55 83 bb cc 05 c3 bd
       -0.16961044 -0.028463453 -0.004008025 -0.0952259
0001c0 d0 2c 2e 3e a8 91 27 be e4 1e b2 bd 10 44 0e bd
       0.17009282 -0.16364157 -0.08697298 -0.03473288
0001d0 5c ab f6 3d ea 68 7d be 88 3e 35 bd d0 19 bd 3d
       0.12044403 -0.24747053 -0.044249088 0.09233439
0001e0 4e de 39 be c4 df ea 3d 30 33 c0 bd ae 10 0d 3e
       -0.18151209 0.11468461 -0.09384763 0.13775894
0001f0 da 90 51 be 80 45 c9 3c 1a 1c 25 3e d0 b6 f1 bc
       -0.20465413 0.024569273 0.16124001 -0.029506117
000200 3e c5 11 be ba e5 20 be d6 2a 5f be d0 ea 03 bd
       -0.14235398 -0.15712634 -0.21793684 -0.032206357
000210 0a 63 7e be a0 b5 9e bd 6c 2a bd bd e2 a5 64 be
       -0.24842468 -0.07749486 -0.09236607 -0.22328904
000220 90 37 41 3d 94 70 3d 3e 80 94 5b bb 84 94 ea 3d
       0.04717213 0.18499976 -0.003350526 0.11454108
000230 cc 77 b0 3d 80 bc ff bd b4 dc c1 3d fe 4f 3f be
       0.086165994 -0.124871254 0.09465924 -0.18682858
000240 74 e8 ca bd 86 af 37 3e 96 7c 2f be 7c 44 a6 3d
       -0.09907618 0.1793805 -0.1713737 0.08118531
000250 e0 cb 41 bc ae d3 6f be c8 23 74 be 00 38 ed bb
       -0.011828393 -0.23420593 -0.23841774 -0.0072393417
000260 ce 1d 7a 3e 86 2e 41 3e 18 23 27 be f8 a6 24 be
       0.24425432 0.18865404 -0.16321981 -0.16079319
000270 00 c6 7e 3d fa 62 46 be 3a 86 0c be 72 3f 41 be
       0.062200546 -0.19373694 -0.13723078 -0.18871859
000280 06 55 1f 3e ee 64 55 be 68 7e 54 3d 4c 6a 7d be
       0.15559778 -0.20839283 0.051878363 -0.2474758
000290 4e 50 29 3e 30 a1 75 3d 98 96 60 3e 98 27 3a 3e
       0.1653454 0.059968174 0.21932447 0.18179166
0002a0 8c 14 34 3e c0 9c 8a 3b 40 f3 a8 bd 40 6d f0 bd
       0.17585963 0.004230112 -0.08249521 -0.11739588
0002b0 aa 80 14 3e 66 3a 25 3e 6c ad 65 3e b6 d0 7b 3e
       0.14502206 0.16135558 0.22429436 0.24591336
0002c0 78 7d 09 3d d8 c3 2c 3e 4c 9f 59 3e 46 32 71 be
       0.033566922 0.16871583 0.21252173 -0.23554334
0002d0 78 e4 17 be c0 4d cc 3b 00 11 d7 3c 48 cb 37 be
       -0.14833248 0.0062348545 0.026253223 -0.1794864
0002e0 60 1b 02 3c 40 78 a3 bb 78 b3 53 3e 66 33 7e 3e
       0.007941097 -0.0049887 0.2067393 0.24824294
0002f0 5c 64 dc 3d f4 b4 da bd 08 aa 3c 3d 5e 34 40 3e
       0.107613295 -0.10679045 0.046060592 0.18769976
000300 88 9f 07 3e a8 0e bb bd 5a ee 48 be 00 b6 d2 bd
       0.1324445 -0.09133655 -0.19622174 -0.1028862
000310 50 8e 7a bd 70 c0 46 3e f8 e4 d7 3d 8e 0a 3a 3e
       -0.061170876 0.19409347 0.10541719 0.18168089
000320 08 52 0d be c0 57 da bb 00 29 2d 3d 94 11 6a be
       -0.13800824 -0.0066632926 0.04227543 -0.22858268
000330 68 51 31 3d 54 c2 f0 3d 14 9b 49 3e fe 05 5b be
       0.043290526 0.11755815 0.19688064 -0.21389005
000340 d0 23 d7 3c dc 3f 8f bd 1e dd 63 be e6 da 51 be
       0.026262194 -0.06994602 -0.22252318 -0.2049366
000350 be ea 69 3e 1a e1 5d 3e 58 93 16 be b2 4d 6f be
       0.22843453 0.216679 -0.14704645 -0.23369482
000360 de 80 65 3e dc 84 81 3d 2c 29 04 be 28 89 26 be
       0.2241244 0.06324169 -0.12906331 -0.16263258
000370 3a 61 10 3e 42 0b 1a 3e a0 fd 15 bc c8 12 e5 3d
       0.14099589 0.15043357 -0.009154707 0.11185223
000380 00 b4 f4 3d 46 05 6c be 4a b7 7c 3e 5c 74 c3 3d
       0.11948395 -0.23048887 0.24679294 0.09543678
000390 90 b9 5f 3e 84 14 0f 3e bc 36 95 3d 56 ba 44 be
       0.2184813 0.1397267 0.072858304 -0.19211707
0003a0 c0 2c c6 3b 30 85 0b 3d 98 0c 2d bd 70 3d be bd
       0.006047815 0.034062564 -0.04224834 -0.09289062
0003b0 3c 97 04 3e 6c 8b be bd 9c ac 37 3e 50 4c 1a bd
       0.12948316 -0.09303936 0.17936939 -0.037670434
0003c0 00 98 cd bc 00 bd dc bd 20 13 ef 3c a4 ce 69 be
       -0.025096893 -0.107782364 0.029183924 -0.22832733
0003d0 7e fb 09 be 1c 71 16 be 34 27 66 3e 48 a5 92 bd
       -0.13474843 -0.14691585 0.22475892 -0.07160431
0003e0 12 82 5e 3e 4e 26 56 3e 20 a9 7a 3d d0 cf 44 be
       0.21729305 0.2091305 0.061196446 -0.19219899
0003f0 d8 7c 0b be 48 0e 2b 3e c8 bc 7f 3d 60 66 c1 3d
       -0.13621843 0.16704667 0.062435895 0.094433546

layers.1.bias f4 [16]
000000 f8 79 cd 3d a2 05 7b 3e f4 b2 fa 3d 1a cc 50 be
       0.10033029 0.24513867 0.12241164 -0.20390359
000010 a8 bd 1f bd 40 4a 90 3b 6c 9c 11 3e a0 ce c7 3d
       -0.03899923 0.0044033825 0.14219826 0.097562075
000020 a8 ea 76 bd e2 77 44 be 30 e7 2e bd e4 cf 14 3e
       -0.06028238 -0.19186357 -0.042700946 0.14532429
000030 10 59 c5 bd 3c cc 8b bd b8 fa cf bd 10 7a e6 3c
       -0.09636128 -0.06826064 -0.10155243 0.028134376

layers.2.weight f4 [2, 16]
000000 d8 76 53 be 40 66 11 bc e2 9d 6c 3e 50 04 49 3e
       -0.20650804 -0.008874476 0.23107103 0.19630551
000010 10 38 08 bd f8 ba a5 bd 74 8e 01 be b2 16 71 3e
       -0.03325659 -0.08092302 -0.12651998 0.23543814
000020 00 db 19 be 90 e6 2b 3e 80 b7 b3 3c 30 39 f3 3c
       -0.15024948 0.16787171 0.021938086 0.029690355
000030 00 dd 7b 3c 16 ea 02 3e 5e 1b 7b be 60 69 fe 3c
       0.015372515 0.12784609 -0.24522159 0.031056106
000040 5e 51 1e 3e 00 a6 37 ba 00 6b 33 bb 20 98 9a bc
       0.15460727 -0.0007005632 -0.002737701 -0.018871367
000050 b8 e1 f5 bd 52 c8 75 be 80 8b 67 bd 70 73 ea 3c
       -0.12005943 -0.24002197 -0.056529522 0.028619498
000060 5c 70 ae bd d0 9b 16 3d 4c b3 7b 3e 38 01 77 bd
       -0.085175246 0.036769688 0.24580115 -0.060303897
000070 50 f9 8b bc 90 fc 5d 3e 30 c7 8e bc fa a2 27 be
       -0.017086655 0.21678376 -0.017428964 -0.16370764

layers.2.bias f4 [2]
000000 a0 c0 fb 3c 70 24 60 bd
       0.0307315 -0.05472225
