Results/CartPole-A/DQN/trained/model.pt (torch_old, 2563 bytes, 6 tensors)

layers.0.weight f4 [16, 4]
000000 69 2f 94 bf 17 72 02 3f 98 97 7d c0 6e 41 c6 3d
       -1.1576968 0.5095534 -3.9623775 0.096804485
000010 db 27 99 bf 7d 3d 9d 3e 76 86 71 3f 4a 8d 92 3d
       -1.1965288 0.30710974 0.94345796 0.07155855
000020 bd ee 3c be b1 22 32 3e e3 52 87 c0 2d 19 d3 be
       -0.18450446 0.17396046 -4.228868 -0.41230145
000030 fb f3 18 bc 34 71 72 3c a7 f5 c0 be 49 93 42 bd
       -0.009335513 0.014797498 -0.37687418 -0.047503743
000040 de fa 48 3e 15 f8 0b 3e a5 2d b1 3f 45 82 f3 bc
       0.19626948 0.13668855 1.3842055 -0.029725203
000050 c8 cc 52 bd 6e 68 24 3e e4 cc d5 40 2a f3 8d 3f
       -0.051464826 0.16055462 6.681261 1.1089833
000060 c1 20 df 3e c9 37 ba 3e f6 06 a2 c0 13 34 47 3d
       0.43579677 0.36370686 -5.0633497 0.048633646
000070 fd 20 49 3f ef 31 ae be 0d 26 d4 c0 55 ed a9 bf
       0.7856596 -0.3402247 -6.629645 -1.3275553
000080 2c 64 37 3e 34 e1 9e bd 6e d2 2f 3f 0e 4b 27 3c
       0.17909306 -0.07757798 0.68680465 0.0102107655
000090 b8 bb 17 3f 11 39 52 bf 76 6a bd bf f6 93 00 bf
       0.5927081 -0.82118326 -1.4798114 -0.5022577
0000a0 ae 39 c1 3e 05 02 1b bd 3e 20 e3 3f 3e 7f a5 3e
       0.3773932 -0.037843723 1.7744215 0.3232364
0000b0 99 1d 00 3f cc 36 6e 3f 6b 9a 78 c0 87 3d de 3e
       0.5004516 0.93052363 -3.884425 0.43406317
0000c0 7b 39 7e bc 17 d8 42 3c 10 68 73 3e c2 ef a6 bc
       -0.015516634 0.01189234 0.23770165 -0.020377997
0000d0 4d 59 41 be 52 71 24 bf 5f 0f f9 c0 6e cb c0 bf
       -0.18881722 -0.64235413 -7.7831264 -1.5062082
0000e0 9e 02 ea 3d 31 6a 20 bf 47 49 bb bf 3c ad 96 be
       0.114262804 -0.62662035 -1.4631737 -0.29429042
0000f0 55 d6 84 ba 55 1e ca bf da f3 88 3f 34 da 8b 3e
       -0.0010134677 -1.5790507 1.0699418 0.27314913

layers.0.bias f4 [16]
000000 bb 56 95 3e b1 68 fa 3f c0 03 5c 3f a3 48 55 3d
       0.29167733 1.9563199 0.8594322 0.052071225
000010 49 78 a5 3f 80 bc fd bf 5b 8c dd 3f 9a 1c f5 bf
       1.2927333 -1.9823151 1.7308458 -1.9149354
000020 74 47 ea bd a0 55 9d 3f 2b f5 7e 3f df e2 fe 3f
       -0.1143941 1.2291756 0.99592847 1.9912986
000030 4a 0e c1 bd 8f 9d 33 c0 59 06 e8 3f fe 60 54 bf
       -0.094265535 -2.8064916 1.8126937 -0.829605

layers.1.weight f4 [16, 16]
000000 df 18 a7 be ad cc e2 be 76 40 b5 3e e9 df 10 3f
       -0.32636163 -0.4429678 0.35400742 0.5659166
000010 e5 a5 29 bf b5 35 73 bf 18 89 c5 3c 07 0b 49 40
       -0.6626876 -0.95003825 0.024113223 3.141298
000020 51 5a 61 3f 45 3b 49 3e b1 01 9f bf bb cd d4 3e
       0.88028437 0.19651516 -1.2422391 0.4156321
000030 a5 07 76 bf 12 51 53 40 47 64 5a 3e 77 a7 11 be
       -0.96105415 3.3018231 0.21327315 -0.14224039
000040 4b bd 8d bf f9 ac 22 40 84 01 21 c0 bb 9f 2c bf
       -1.1073393 2.5418074 -2.5157175 -0.6743123
000050 63 53 13 bf 35 c3 af c0 db e2 69 3e ea ff 31 c0
       -0.57549113 -5.492579 0.22840445 -2.7812448
000060 85 6c 85 c0 85 63 c3 3f dd 92 40 c0 df 4e 0c 40
       -4.169497 1.5264746 -3.0089638 2.192314
000070 f7 12 d4 be 98 d7 11 c0 3d 32 50 bd 23 7b 96 be
       -0.4142072 -2.2787838 -0.05082916 -0.2939082
000080 fc 98 07 c0 5e 86 16 40 d8 08 15 c0 7a 21 a3 c0
       -2.1187124 2.3519511 -2.3286648 -5.0978365
000090 09 f3 22 be e0 e6 ca bf 37 78 26 3f 14 a3 e7 c0
       -0.15913023 -1.5851707 0.65027183 -7.238657
0000a0 e8 81 1f c1 e2 03 00 40 f6 71 7a c0 74 3c c0 3f
       -9.969215 2.000237 -3.9132056 1.5018449
0000b0 08 7f 62 c0 e3 88 2f bf 2a dc 5c 3f 01 8e b0 be
       -3.5390034 -0.6856825 0.86273444 -0.3448334
0000c0 cb 82 ce 3f 2d 97 f3 3f 9c d4 81 be 24 0b fb c0
       1.6133665 1.903051 -0.2535752 -7.84511
0000d0 6d 07 10 be 5f d4 81 c1 99 f2 af 3f 42 70 ff bf
       -0.14065333 -16.228697 1.374591 -1.9956133
0000e0 aa e7 46 c0 57 27 95 3f 5a d2 57 c0 ab 99 01 40
       -3.1078897 1.165263 -3.3722138 2.0250041
0000f0 bd 70 e3 bf f8 bc cb bf 71 9c 14 bf 10 20 92 3f
       -1.776878 -1.5917044 -0.5805121 1.1416035
000100 ac 9c 85 3f d7 af 54 c0 ec b7 d3 3f e1 4c b6 40
       1.0438437 -3.3232324 1.6540504 5.6968846
000110 7c be 45 3f a8 bc 7d bf 1f aa 00 3e 49 03 4d 3e
       0.7724378 -0.9911599 0.12564896 0.20020784
000120 d6 10 25 40 77 88 58 be c2 83 78 be 84 89 a1 bf
       2.5791526 -0.21145807 -0.24269012 -1.2620091
000130 af ce 40 bf 39 67 ff 3f d4 a1 00 3f 26 f2 d7 be
       -0.75315374 1.9953376 0.5024693 -0.42176932
000140 17 62 31 bf e9 65 c9 3f 82 44 28 c0 b1 28 e4 c0
       -0.692903 1.5734226 -2.6291814 -7.129967
000150 aa 6f 89 3f f6 cf c3 3f 3a 4d 20 3f e3 36 0b c1
       1.0737202 1.529784 0.6261784 -8.7009
000160 60 d3 f9 c0 b6 c3 c9 3f 11 2f 4d c0 0e c3 94 3f
       -7.8070526 1.5762851 -3.2059977 1.1622026
000170 7a 8c 8f c0 c1 ea e1 bf 26 56 79 3f 47 60 c1 3f
       -4.485898 -1.7649766 0.9739708 1.5107507
000180 d0 04 79 bf ed b2 42 40 04 b6 23 c0 a6 82 4e bf
       -0.9727297 3.0421708 -2.5579844 -0.80668104
000190 c7 c5 1a be da d1 a6 c0 94 8c 61 3e 7f ef dd c0
       -0.15114509 -5.2131166 0.22026283 -6.9354854
0001a0 f7 b7 bb c0 a4 1a a1 3f 58 80 1f c0 ee be d0 3f
       -5.8662066 1.2586255 -2.4922085 1.6308267
0001b0 36 48 ec bf c2 4c 1c c0 3b 54 22 3e 3e a3 81 be
       -1.8459537 -2.442185 0.15852444 -0.25319856
0001c0 59 37 c9 bf 82 ef 18 3f 8d 8a 07 bd 9e d5 00 c0
       -1.5720016 0.5974046 -0.033091117 -2.0130382
0001d0 fb fe 3a be 7f 86 76 40 21 7a 80 be c8 9c ff 3e
       -0.1826133 3.851959 -0.25093177 0.49924302
0001e0 48 d3 a7 bd 39 74 9d be 72 2c e4 be 7a 2b 4e 3f
       -0.081945956 -0.30752733 -0.4456516 0.8053509
0001f0 c5 84 ea 3d 3a 26 de 3d 29 ea 43 3f e2 dd 99 bf
       0.11451105 0.10847135 0.76529175 -1.2020838
000200 2e 50 ae bf e6 6c f8 3f 08 82 43 c0 d6 7d 8a c0
       -1.3618219 1.9408233 -3.0548115 -4.327861
000210 2f c3 2d 3f 6d 33 56 c0 53 4b 25 bf ba c7 80 c0
       0.6787595 -3.3468888 -0.6456806 -4.0243807
000220 4e 67 cc c0 bc f1 24 40 57 b6 2a c0 23 b4 41 40
       -6.3876104 2.5772543 -2.6673791 3.0266197
000230 49 70 3b c0 07 76 df c0 4d fb 16 3f 9b 1b 96 be
       -2.9287283 -6.9831576 0.58977205 -0.29317936
000240 84 af 2b bf e0 81 e1 3f fc 4e cd bf f8 34 11 c1
       -0.6706469 1.761776 -1.6039729 -9.075432
000250 d0 a0 b6 3f b0 37 05 c1 da b7 47 3e 5b 53 c8 c0
       1.4267826 -8.326096 0.19503728 -6.260175
000260 9a f1 9b c0 a4 59 95 3f 12 df 59 c0 7b c4 8e 3f
       -4.8732424 1.1667981 -3.4042401 1.1153711
000270 90 4e 9a c0 db 35 74 c0 34 e9 54 3f c5 a5 c5 bf
       -4.82209 -3.815787 0.8316834 -1.5441214
000280 66 c5 9b bf 6f 3f 01 40 22 65 6d c0 ea 07 ae c0
       -1.2169616 2.0194967 -3.7092977 -5.438466
000290 2a 97 ba 3e b4 d2 37 3d 1e 7d 4b 3f d7 0e ce c0
       0.36443454 0.044878677 0.7948779 -6.4393115
0002a0 7a 06 0a c1 45 fb e2 3f bf f1 73 c0 9f 20 c9 3f
       -8.626581 1.7732931 -3.81163 1.571308
0002b0 4f de 66 c0 9e 6d 64 c0 39 d6 7c 3f f9 8a 3e bf
       -3.6073186 -3.5691905 0.9876438 -0.74430805
0002c0 c5 c6 08 40 3d a2 db 3e 03 14 75 be cc e3 d2 3f
       2.137132 0.42897215 -0.23933415 1.6475768
0002d0 6a cc 2d be 9a 83 52 c0 59 ea 3c be 87 29 38 c0
       -0.16972509 -3.2892823 -0.18448772 -2.8775346
0002e0 98 4c b5 bf 71 c5 aa 3f 2a a9 0c c0 fd 77 86 3f
       -1.4164 1.3341504 -2.197825 1.0505368
0002f0 fd 29 4b c0 50 66 88 c0 a4 25 78 be c9 09 7e bf
       -3.1744378 -4.2624893 -0.24233109 -0.9923368
000300 90 a8 99 bf 39 cd b7 bf e5 7b 3b c0 15 51 48 3f
       -1.2004566 -1.4359504 -2.929437 0.7824872
000310 1c 46 05 3f 7e e7 af bf f1 e1 a9 bf 3c fa 6f be
       0.52060103 -1.3742521 -1.3272077 -0.234353
000320 77 bd 0f 40 47 cf 28 3f cd 2f e1 3f a7 a7 39 c0
       2.245939 0.6594128 1.7592713 -2.9008577
000330 08 c0 0a 40 6f 18 17 3e 75 6f eb 3e 98 ff 21 c0
       2.1679707 0.14755414 0.45983472 -2.5312252
000340 58 67 5b bd b6 f7 02 be 3a f3 07 3e a8 80 49 bd
       -0.053565353 -0.12789807 0.13276377 -0.04919496
000350 3f 0c 59 be 46 dc 69 3e b3 25 a5 be af 2d 83 3d
       -0.21196078 0.22837934 -0.32255325 0.06405198
000360 a6 d4 81 be 09 67 69 bc 44 1c 29 be ac b8 5e bd
       -0.2535755 -0.014245757 -0.16514689 -0.054375336
000370 f6 f9 2e be 90 62 01 be 7f 1d a5 be 67 84 c8 bd
       -0.1708754 -0.12635255 -0.32249066 -0.09790879
000380 1c ff 1d c0 42 30 45 40 c7 72 4a c0 85 80 d2 c0
       -2.4686956 3.0810704 -3.1632555 -6.5781884
000390 48 20 c5 bd 8f 7f 3f c0 df c6 a3 3e f3 e9 83 c0
       -0.09625298 -2.9921606 0.31987664 -4.1223083
0003a0 cb c6 a3 c0 c8 38 ae 3e 6f bc 5c c0 8c 40 0d 40
       -5.1180167 0.34027696 -3.449001 2.2070646
0003b0 74 cc 73 c0 bc c6 f4 3e ff db 36 3f da 7d 4d bf
       -3.8093538 0.47807872 0.7142944 -0.8027016
0003c0 1f 4d 06 3f 4f 25 44 3f ec bb e3 bf be 7d 84 3f
       0.5246143 0.7661943 -1.7791724 1.0350873
0003d0 89 9d 1f 3e bf db 7a bf 73 7f 3e 3d c6 5e f0 c0
       0.15587439 -0.97991556 0.046508264 -7.511569
0003e0 f1 18 2d c0 a8 28 a9 3f 22 b3 1e c0 bf 6a da 3f
       -2.7046473 1.3215532 -2.4796834 1.7063826
0003f0 5f c1 67 c0 67 64 a2 c0 a9 38 ab be 6e 6b 9b be
       -3.6211774 -5.074756 -0.33441666 -0.303554

layers.1.bias f4 [16]
000000 f1 50 da be 67 8a 3e c0 a2 70 7a c0 b3 33 13 c0
       -0.42639878 -2.9771974 -3.9131246 -2.3000305
000010 61 ed 40 40 a9 b3 86 c0 06 aa 46 c0 8f f1 09 bf
       3.0144885 -4.209431 -3.1041274 -0.53884214
000020 e3 8c 67 c0 a1 50 5f c0 46 fe 87 c0 8b 77 4e bf
       -3.617974 -3.4892962 -4.249789 -0.8065116
000030 d0 06 17 40 5b 86 0f 3e 3e ff 7f c0 c3 65 0e c0
       2.3597908 0.14016096 -3.9999537 -2.224961

layers.2.weight f4 [2, 16]
000000 21 d7 12 c0 8c 6f 8a 3e 99 4b 14 40 9c 30 62 40
       -2.2943804 0.2703823 2.317114 3.534217
000010 f3 94 71 c0 48 d9 09 40 33 9c 27 3f 8f d5 80 3f
       -3.7747161 2.1538868 0.65472716 1.0065173
000020 60 9f d7 3f 16 8f 3c 40 a4 49 e9 3f ab 52 97 bf
       1.6845512 2.9462333 1.8225598 -1.1822103
000030 a0 94 fb c0 61 a9 7a 3d 49 ec 79 3f c6 2a 61 c0
       -7.8618927 0.06119669 0.9762617 -3.5182357
000040 2c 14 cd 3f e8 a4 02 40 00 64 a0 3e a9 cc 81 3f
       1.6021781 2.041315 0.31326294 1.0140582
000050 51 cd e9 c0 0f c1 20 40 3e 0b 29 40 81 bb ca bd
       -7.306313 2.5117834 2.6413112 -0.09899045
000060 18 65 68 40 be e5 bd 3f 16 e4 83 3f c8 b9 e5 3e
       3.6311703 1.4835737 1.0303981 0.44868302
000070 df c6 17 c0 78 ff 16 be e3 17 4c bf 24 00 b7 bf
       -2.3715131 -0.14745891 -0.7972395 -1.4296918

layers.2.bias f4 [2]
000000 96 ba fc c0 7d 0e d0 c0
       -7.8977766 -6.5017686
