Results/CartPole-PolicyGradient/trained/model.pt (torch_old, 2488 bytes, 6 tensors)

l1.weight f4 [16, 4]
000000 c8 3a 1b 3e 1d 06 3b be bf bb 7d bd df ba 0f 3e
       0.15159142 -0.18264051 -0.061946627 0.1403613
000010 92 f1 4f bc c5 94 51 3f 21 ce aa 3e b0 89 c3 3e
       -0.012691872 0.8186763 0.3336039 0.38190985
000020 64 a6 9d 3d fb 46 a0 bd 20 01 35 3e de de 63 3d
       0.07697752 -0.078260385 0.1767621 0.055632465
000030 90 7e 7f 3e 85 86 3f be 78 c6 4d 3f 00 dc 0a 3f
       0.24950624 -0.18703659 0.80380964 0.54241943
000040 30 6c 94 3d 00 e7 02 bb 64 c9 df 3e 50 54 1f 3e
       0.07247198 -0.0019974113 0.43708336 0.15559506
000050 cf b2 3e ba 69 e6 00 be f5 84 ae bd 57 96 b3 be
       -0.00072745694 -0.12587894 -0.08521453 -0.35075638
000060 c8 ef 8c bd d9 77 96 3e f0 7c d6 3f 5a 73 35 3f
       -0.06881672 0.29388312 1.6756878 0.7087914
000070 54 71 e2 bd d9 f4 27 3f 1d 27 98 3f 84 8b b0 3f
       -0.11056772 0.6560798 1.1886936 1.3792577
000080 61 71 3e 3d 64 74 1f bf 74 53 ab bf 6f 86 68 bf
       0.046494845 -0.62286973 -1.3384843 -0.9083013
000090 05 e3 14 be 32 6b 3a bf aa 22 7a bf 39 fc 78 bf
       -0.14539726 -0.7281982 -0.97709143 -0.9725986
0000a0 69 9f 01 3f a2 53 23 3d 1d fb 80 3f 93 98 45 3e
       0.50633866 0.03987468 1.0076634 0.19296484
0000b0 7e 51 8c be 1f b5 bb 3e a2 1a eb be 92 8c 15 be
       -0.27405924 0.36661622 -0.45918757 -0.14604405
0000c0 d5 dd 75 be d0 dd 0b be bc 58 f0 bf 76 51 87 bf
       -0.24010403 -0.13658834 -1.877708 -1.0571735
0000d0 67 1a 04 3e a2 07 f1 3d b0 5b 0a 40 cd 9e 93 3f
       0.12900697 0.11769034 2.1618462 1.1532837
0000e0 33 03 af bd 0b 92 bf bd ff db f0 3e eb 28 1a be
       -0.08545532 -0.09354027 0.47042844 -0.15054671
0000f0 af 3c a2 be 56 1e e6 3e ae a4 e7 3f 6f af 98 3f
       -0.31686923 0.4494502 1.8097131 1.1928538

l1.bias f4 [16]
000000 13 fb e0 be 27 62 b1 bc f0 c1 5b be 59 4f 86 3e
       -0.43941554 -0.021653248 -0.214607 0.26232412
000010 78 48 c2 be 0d e1 01 bf 04 76 a4 3e 12 ef c4 3e
       -0.37945914 -0.50734025 0.3212129 0.38463646
000020 25 f2 22 3e 4a 86 d8 3e 40 b2 d7 3d fe 70 84 bc
       0.15912683 0.42289954 0.10532045 -0.01616716
000030 39 64 04 3f 4b 0f fa 3e fc 68 04 bf 9f 9c c6 3e
       0.5171543 0.48839793 -0.51722693 0.38791367

l2.weight f4 [16, 16]
000000 67 a4 8a be a6 72 bd bd 82 90 a8 3d 38 7f 2e bd
       -0.27078554 -0.09250383 0.08230688 -0.042601794
000010 de 5a 16 3e 3c 42 14 be 13 47 a2 be 0e 4f 3a 3e
       0.146831 -0.14478391 -0.3169485 0.1819422
000020 d0 f7 29 be 7e 31 7c 3d ac 2f 20 3e 68 9b 89 be
       -0.16598439 0.061570637 0.15643185 -0.26876378
000030 b5 26 4c bd a8 24 0f bd 32 68 2b be 15 c7 5a be
       -0.0498416 -0.034947067 -0.16738966 -0.21365006
000040 fc 97 6f 3d 83 42 e3 3e a1 59 cf bd 6a e3 8f 3e
       0.058494553 0.44386682 -0.10124517 0.2810319
000050 4a 77 6a 3e f6 1a 11 be b2 05 00 3f 7b e2 61 3f
       0.22897068 -0.14170441 0.5000869 0.88236207
000060 1c 1d cd be 2c 9c d1 be a8 bb f8 3e 04 63 9e 3e
       -0.4006127 -0.40939462 0.4858067 0.30934918
000070 8c 6e 46 bd 8d 59 19 3f b5 51 57 3e 5e 06 39 3f
       -0.04844527 0.5990227 0.21027263 0.7227534
000080 29 b1 8e 3e 58 35 a1 be fd 9a a6 bd 9b 53 16 3c
       0.27869537 -0.3148601 -0.081350304 0.009175207
000090 94 74 39 3e 48 ff 92 3e ac 5b a4 be 8a 6d 68 bf
       0.18110877 0.2871039 -0.3210119 -0.90792143
0000a0 e4 f7 c4 3e 03 95 29 3f 4a 34 bb 3d 04 33 dd 3d
       0.38470376 0.66243 0.09140833 0.10800746
0000b0 58 c8 3b 3f 4e c1 1a bf be 00 41 be 98 4d d4 be
       0.73352575 -0.6045121 -0.1884794 -0.4146545
0000c0 49 87 d1 3d 70 47 37 3e 53 25 53 be 9d 6a 36 bd
       0.10230882 0.17898345 -0.20619707 -0.044535268
0000d0 68 e4 5c 3e aa a3 29 3e 2c a2 6b 3d 6a a0 00 3e
       0.21571505 0.16566339 0.057527706 0.12561193
0000e0 5a 12 91 3d 9c 3d 1d bc 8d f3 87 be d8 68 98 be
       0.070835784 -0.009597208 -0.26553002 -0.2976749
0000f0 f1 7a 49 be 2d 96 0c be 70 ea 1c be 0a 9f 12 bc
       -0.19675805 -0.13729163 -0.15323806 -0.008949051
000100 30 75 9e 3d a8 de 67 bd 50 c8 c4 3d 78 78 a5 3d
       0.077371955 -0.056608826 0.09608519 0.08079618
000110 48 4c 1c 3e ce 66 2c 3e e4 63 ad bd 5a 1e 7a 3e
       0.15263474 0.16836092 -0.08466318 0.2442564
000120 c0 c3 ec bc e0 b8 0c bc 20 a2 71 be 08 c4 24 be
       -0.028901935 -0.0085889995 -0.23597002 -0.16090405
000130 5c 8e 15 be 80 fe da bd 1a 02 36 3e d8 4f a7 bd
       -0.14605087 -0.10693073 0.17774239 -0.08169526
000140 84 76 8b be 5f ef 10 bd 44 ed a3 3d 2f 20 89 3d
       -0.27238858 -0.035384532 0.08004239 0.06695592
000150 0e 79 04 be c0 04 5e 3d 32 7e 50 be c5 3f bf bd
       -0.12936804 0.05420375 -0.2036064 -0.09338335
000160 d8 8b 96 be 36 2c 76 be 4e a2 2f be c5 5e 95 3d
       -0.29403567 -0.24040303 -0.17151758 0.072934665
000170 67 39 b0 bd f8 39 08 bd d2 83 7f 3e 94 49 ac 3d
       -0.08604699 -0.03325841 0.24952629 0.084124714
000180 a4 9a 2e 3e 17 99 ab bd 7f 5f 7d be 04 11 48 3e
       0.17051178 -0.08378809 -0.2474346 0.19537741
000190 50 08 80 bd 40 92 a5 bc 32 8b 5c be f0 44 4a bd
       -0.062515855 -0.020211339 -0.21537474 -0.04938215
0001a0 ec 1d 25 be df 6d 08 3e 40 51 5d be 8b 26 95 be
       -0.16124696 0.13323162 -0.21613026 -0.29130968
0001b0 d7 03 d7 bd 54 6c 0a be 18 33 b7 3d f8 14 c5 bd
       -0.10498779 -0.13517886 0.08945292 -0.0962314
0001c0 88 b9 f5 bd 57 94 ce 3d 1a 5a 97 3e 9e 7a 20 3e
       -0.11998278 0.10086887 0.2956093 0.15671775
0001d0 3c 70 f0 3d 99 f6 88 bb d3 55 11 3f 16 03 06 3f
       0.11740157 -0.0041797874 0.5677158 0.5234846
0001e0 29 f3 60 be 2f 79 ee be a5 0b d9 3e 74 76 ff bd
       -0.21967758 -0.4657683 0.42391697 -0.12473765
0001f0 b0 11 ee bd 05 62 00 3f 95 f8 b3 3d f9 21 00 3f
       -0.116244674 0.50149566 0.08787648 0.5005184
000200 d6 79 ac 3c ec e7 0d 3f 39 7a 0d 3e 47 d0 df 3e
       0.02105419 0.5543201 0.13816155 0.4371359
000210 40 47 66 be ec 42 c6 3d bf 4a 24 3f 77 75 7f 3f
       -0.22488117 0.09680733 0.64176553 0.9978861
000220 7b c9 6d bd 29 80 b7 be 71 bf 6a 3e 83 6b 02 3f
       -0.058053475 -0.35839966 0.22924592 0.509453
000230 0a 4c b1 be f6 98 5a 3f 1f bc 33 bd c9 3a e6 3e
       -0.34628326 0.8538965 -0.043880578 0.44966725
000240 38 4e fa 3d e6 ee 37 be 60 99 6a bd 5c 18 5b 3d
       0.1222195 -0.17962226 -0.057275176 0.053490028
000250 56 c6 4a 3e 86 35 f9 3d 97 c1 1a be 7a 12 10 be
       0.19802222 0.12168412 -0.15112911 -0.14069548
000260 57 75 e5 3d 88 23 5a bd fa 41 34 be 65 0e f6 3b
       0.112040214 -0.05325654 -0.17603293 0.00750904
000270 e0 58 b0 be 25 b3 d2 3d 9b a7 2b 3d 35 4e 94 be
       -0.34442806 0.10288075 0.041907888 -0.28965917
000280 a3 ba 99 be 5f 28 85 3a c4 a4 3a 3e 9b 42 20 3e
       -0.30025205 0.0010159126 0.18226916 0.15650408
000290 d6 cf 01 be 00 4a bb 3b 98 ec 94 be d5 44 3f be
       -0.1267694 0.0057156086 -0.29086757 -0.18678601
0002a0 58 a3 f7 be ff 7a c1 3d 70 07 92 3e 23 2d 43 be
       -0.4836681 0.09447288 0.285213 -0.19060187
0002b0 44 9b 04 be f3 b6 47 bd d0 62 f5 3c 0c 33 13 be
       -0.12949854 -0.04875846 0.029954344 -0.14374942
0002c0 20 a5 13 3e 65 e8 a5 3d c0 62 6d bc 8d 02 b3 bd
       0.14418459 0.08100966 -0.014488876 -0.08740721
0002d0 86 a3 68 3e 53 c8 3b 3e a5 88 59 be 9c 77 7a 3e
       0.22718629 0.18338136 -0.21243532 0.2445969
0002e0 e2 0c 79 bd e4 61 74 be a4 5d 97 3d de 91 87 be
       -0.0608033 -0.23865467 0.073909074 -0.26478475
0002f0 3e b9 16 3e 50 5c 8a be 5f 3a 88 bd 6c e3 22 bd
       0.14719102 -0.27023554 -0.066517584 -0.039767668
000300 08 91 73 3d 07 a3 95 3d b0 a8 d4 bd b4 26 d8 bd
       0.059464484 0.073064856 -0.10383737 -0.10554257
000310 a0 d7 5d be 40 19 28 bc c0 62 81 be 49 7f fe bd
       -0.21664286 -0.010259926 -0.25270653 -0.124266215
000320 20 eb 51 bd dc e0 a9 3d a4 75 5d 3e 45 e7 77 bd
       -0.051249623 0.08294842 0.21626908 -0.06052329
000330 bb ff 5b be e5 4f af 3b 6c 45 5f be 18 c4 9b 3d
       -0.21484272 0.0053501003 -0.21803826 0.07605761
000340 98 fc 41 bd 18 b3 4e 3d 00 84 17 3c f0 23 23 be
       -0.047360033 0.050463766 0.00924778 -0.15931678
000350 a8 2c 10 3e 9a 77 0f 3e 40 46 4e 3c 62 7b 11 be
       0.14079535 0.14010468 0.012589991 -0.14207223
000360 5c 8d d9 bd 00 a0 61 3b 28 43 12 be 5a d6 0e be
       -0.10622665 0.0034427643 -0.1428343 -0.13948956
000370 40 bf 18 bd 3c 6e 93 bd 50 5f 7b 3d b0 93 86 bd
       -0.037291765 -0.0719876 0.061370194 -0.06571138
000380 34 88 40 bd d2 c0 97 3e 71 f8 ce bd a8 fc 11 3f
       -0.047004893 0.29639298 -0.1010598 0.5702615
000390 70 5c 43 3d c8 2e 06 3e 31 3f b5 3e a2 3d 2b 3f
       0.047695577 0.13103783 0.35399774 0.6689092
0003a0 49 70 d2 be b6 42 b6 be 5c a5 fb 3e d4 fb 18 bd
       -0.41101292 -0.3559777 0.49149597 -0.037349537
0003b0 7c 44 8e be b7 09 3f 3f 56 59 82 3e e8 d8 2a 3f
       -0.27786624 0.746242 0.25458783 0.6673722
0003c0 dd a6 2d 3b a3 4e be be 89 87 46 be 36 bc a2 be
       0.0026497163 -0.3716937 -0.1938764 -0.3178422
0003d0 90 ab d5 3d 6e 7f 76 3d b9 8a b2 be 0d 54 1b bf
       0.104331136 0.06018012 -0.34871462 -0.60675126
0003e0 92 03 e7 3e 47 af 21 3f 43 f5 e0 bc fa 4a 96 3e
       0.4511991 0.63158077 -0.0274607 0.29354078
0003f0 95 9c 5b 3f 4d b8 2d bf 62 89 5f bc d5 69 01 bf
       0.857858 -0.67859346 -0.013643594 -0.5055211

l2.bias f4 [16]
000000 7c f1 7f be e5 96 44 bd 0d 76 f0 3e c9 99 81 bd
       -0.24994463 -0.047995467 0.46965066 -0.0632816
000010 c0 ac 02 be 92 1b c0 be 55 74 9b be bc 3c 06 3e
       -0.12761211 -0.37521034 -0.30362192 0.13109106
000020 fd 8c 54 3d 41 94 0d be ec e9 92 be 6b f1 62 be
       0.05189227 -0.13826086 -0.28694093 -0.22162406
000030 84 d2 b9 be 80 49 16 be 3b 29 51 3e fa a6 e3 3e
       -0.36293423 -0.14676476 0.20425884 0.4446333

l3.weight f4 [2, 16]
000000 a5 ac 25 bd 0c 48 12 bf d4 7f 66 3f 51 7d a9 3d
       -0.04044785 -0.57141185 0.900388 0.08275855
000010 a2 a3 76 3e 3e 66 ba 3c bd 58 c7 3c d7 69 3d be
       0.24085858 0.022753831 0.024334306 -0.18497406
000020 bd 1e 2c bf 1c 83 20 be 38 bf 5c 3e 4d a1 96 3d
       -0.672344 -0.15675014 0.21557319 0.073549844
000030 4d 84 72 3e c0 9c 49 3c a2 ca 39 bf 96 49 11 3f
       0.23683281 0.0123054385 -0.7257482 0.5675291
000040 49 11 b9 3c 6a 48 da 3e eb 6a 7b bf 6e 8f 3d 3e
       0.02259125 0.42633373 -0.9821002 0.18511745
000050 c0 16 1d 3c 8f 2c f7 bc c2 2c 4a 3e 09 e4 5e 3e
       0.009587944 -0.030172614 0.19743636 0.21766676
000060 45 33 de 3e d6 b0 0b 3e d8 71 7e 3d 73 c2 a0 bd
       0.4339849 0.13641676 0.06212029 -0.07849588
000070 63 81 3a be 9a d7 58 be d1 78 2f 3f 36 33 41 bf
       -0.1821342 -0.21175995 0.68543726 -0.75468767

l3.bias f4 [2]
000000 6f 6c ef ba 5a 5b 12 3a
       -0.0018266569 0.00055830705
