Results/MountainCar-DQN-Training/DQN/initial/model.pt (torch_old, 19207 bytes, 6 tensors)

layers.0.weight f4 [64, 2]
000000 00 92 75 3c 18 ed 20 3e d9 68 0c 3f de e9 11 bf
       0.014988422 0.15715444 0.54847485 -0.5699748
000010 70 4f 0e be 50 d3 89 be c6 d9 87 3e 9e 8e ea 3e
       -0.1389749 -0.2691903 0.26533335 0.45811933
000020 bd b1 1a 3f 5a 95 d2 3e 11 7a 2d 3f 86 18 f3 be
       0.6042746 0.4112957 0.67764384 -0.47479647
000030 71 c5 0c 3f 56 20 f9 3e 8e c6 8c 3e 3c 83 34 be
       0.5498877 0.48657483 0.27495235 -0.17628187
000040 21 b9 87 be a6 81 fe 3e 58 c8 a0 3d 38 9f 44 be
       -0.2650843 0.4970829 0.078507125 -0.19201362
000050 80 ed c7 3c 50 c9 5e bd b8 a1 86 3e e5 b4 15 3f
       0.024405241 -0.054391205 0.26295257 0.5847915
000060 10 6d 2b 3e 99 8c da be 42 7f a9 3e 08 aa 0c bf
       0.16740823 -0.42685392 0.33104903 -0.5494695
000070 0a 21 88 be 73 1d 1b bf ec cd 2e be fa 08 8c be
       -0.26587707 -0.6059181 -0.1707074 -0.273506
000080 7e 67 0a bf 77 8e dc be 80 40 25 be 06 d1 a5 be
       -0.54064167 -0.43077442 -0.16137886 -0.32386035
000090 bf 60 cf be f3 43 2b 3f 67 9a 32 3f ea 61 f4 3e
       -0.405035 0.6690056 0.6976685 0.47730953
0000a0 a3 97 1a 3f 80 e1 bf bc 4e 02 b2 3e 54 2e 1c 3e
       0.6038763 -0.023422956 0.34767383 0.15252048
0000b0 00 c5 f7 be 8c 12 38 be 1c 85 1b bf fd e2 cb be
       -0.48392487 -0.17975825 -0.60749984 -0.39821616
0000c0 e8 75 83 3d e8 18 0a 3e 08 bc 80 3d b0 0f 33 bd
       0.06418973 0.13486063 0.06285864 -0.043716133
0000d0 db 74 de be cb d3 1d 3f 3f eb 12 3f ca 12 a7 be
       -0.4344853 0.61651295 0.5739021 -0.32631522
0000e0 d4 de 16 3e 50 a8 ce 3d 1c 64 44 be 6a 19 8d 3e
       0.1473344 0.10090697 -0.19178814 0.27558452
0000f0 09 5d 09 3f 28 93 13 bf 19 2b 1e 3f 00 d6 ae 3d
       0.53657585 -0.5764642 0.6178451 0.08536911
000100 30 2e 1d 3d f4 4f 24 be fa 5e 2f bf 1e 89 a9 3e
       0.038374126 -0.16046125 -0.685043 0.33112425
000110 ac 6c 46 be e6 eb 95 3e 52 b5 9a 3e 1b 2d f1 be
       -0.19377393 0.2928154 0.3021646 -0.47104725
000120 bc a5 c7 be 08 00 0e 3e 23 e6 2f 3f e6 fb cc 3e
       -0.38993633 0.138672 0.68710536 0.40035933
000130 3c 4b 1e be 88 0f c9 3d 41 a1 89 be e0 16 c8 3c
       -0.15458387 0.098174155 -0.2688084 0.02442497
000140 00 be eb ba e0 d5 0b bf 74 4a 1f be 8b 0c 11 3f
       -0.0017985702 -0.5462322 -0.15555745 0.56659764
000150 bc 6f 0c bf 3a af d5 3e f1 23 1b 3f 65 3f 04 bf
       -0.54857993 0.4173525 0.6060172 -0.5165923
000160 8c f0 be be 70 cc 83 bd 44 bc 4d 3e f6 38 c7 3e
       -0.37292898 -0.06435478 0.20091349 0.38910645
000170 00 2b 80 3b 43 e5 cb be 05 9f 1a bf 26 e2 ed 3e
       0.003911376 -0.3982335 -0.60398895 0.464616
000180 00 76 d0 3a cb 88 24 3f b7 d0 d5 be 27 49 04 3f
       0.0015904307 0.6427123 -0.417608 0.5167412
000190 ec 86 89 be 60 3c de bc b3 b7 16 bf 5d 50 1c 3f
       -0.2686075 -0.027128398 -0.5887405 0.61060125
0001a0 b9 4b e0 be 60 1d 35 3d 27 bc 30 3f aa 51 c8 3e
       -0.43807772 0.044217467 0.690371 0.39124805
0001b0 20 e2 77 be f0 d9 7d 3e 12 93 ec 3e 27 4b 05 3f
       -0.24207354 0.24790168 0.46205956 0.520678
0001c0 b6 63 aa 3e 84 2e 03 be d0 e1 04 bf dd c6 07 3f
       0.33279198 -0.12810713 -0.5190706 0.53037816
0001d0 40 57 5b 3d aa 1f b1 3e 65 5d 1a 3f cf f4 14 3f
       0.053550005 0.3459447 0.6029876 0.5818605
0001e0 17 57 0b bf 46 ee a3 3e c0 12 56 3d 16 e3 e5 3e
       -0.54429764 0.32017726 0.052263975 0.44899815
0001f0 e0 f8 8f bd 9a 0f ea 3e d0 6c 45 be 66 11 ea 3e
       -0.07029891 0.45715028 -0.1927979 0.457164

layers.0.bias f4 [64]
000000 e6 6f 9d 3e c8 23 a5 be 1c 7f 2b 3e e3 74 2a 3f
       0.30749434 -0.3225386 0.16747707 0.66584605
000010 8b 51 0a 3f 04 67 74 3e 6a bd bb 3e e6 d0 9b 3e
       0.54030675 0.23867422 0.3666795 0.30432814
000020 34 7e 65 3e 0c ad 6a be 82 c1 ad 3e 19 94 2c bf
       0.22411424 -0.22917575 0.33936697 -0.6741348
000030 32 ac b6 3e 80 f0 50 3c b5 8d 31 bf 29 3e bb be
       0.3567825 0.012752652 -0.6935685 -0.36570862
000040 f8 ee 7e be c4 81 87 3e 47 fd 1d 3f 33 01 ab be
       -0.24895847 0.2646619 0.61714596 -0.33399352
000050 40 69 53 3e 4e dc 9c be 96 4f 2c bf 79 29 0e 3f
       0.20645618 -0.3063683 -0.6730894 0.5553203
000060 20 73 53 bd 5f 21 1a bf 23 bc 08 3f e2 61 d4 be
       -0.051623464 -0.6020717 0.53412074 -0.4148093
000070 4b bb e8 be 7e f7 fa 3e aa 3c 81 be 0c 1a 0d 3e
       -0.45455393 0.49016947 -0.25241596 0.13779467
000080 fb 16 89 be 74 cf 5a 3e fb 39 d1 be 9e f5 d7 be
       -0.26775345 0.213682 -0.40864548 -0.4217958
000090 0e 5b e7 be 30 f0 8c be 68 ea 98 bd cc ad 23 3e
       -0.45186657 -0.27527 -0.074665844 0.15984267
0000a0 99 ed 26 3f 57 fc 0e 3f 36 6a a3 3e 7f 64 0f 3f
       0.65206295 0.5585379 0.3191697 0.5601272
0000b0 da 09 92 be 70 78 6a bd 69 ff 8f be 1a 9f 17 bf
       -0.2852314 -0.057243764 -0.2812455 -0.59227145
0000c0 f9 77 10 3f 92 a7 26 bf 84 73 27 bf 51 c7 f8 be
       0.56433064 -0.6509944 -0.6541064 -0.48589566
0000d0 44 5b 35 be 67 cf 16 3f e4 72 34 be a6 51 cc 3e
       -0.17710596 0.5891022 -0.17621952 0.39906043
0000e0 40 cd fa 3c 6a 9b a6 3e 0e 9d ca 3e 24 22 35 be
       0.030615449 0.32540447 0.39572948 -0.17688805
0000f0 f3 67 9f be 00 00 83 3b f9 bf 2c 3f a8 b7 a5 be
       -0.31133994 0.0039978027 0.6748043 -0.3236668

layers.1.weight f4 [64, 64]
000000 34 b2 c3 3d 84 c0 39 bd b8 4d ad bd 06 7c ad 3d
       0.09555474 -0.045349613 -0.08462089 0.08470921
000010 20 f2 b3 3c c2 8f f1 bd 10 95 18 3c 10 9f fc bc
       0.02196604 -0.11794998 0.009312883 -0.030837566
000020 ec 30 ee bd d8 58 e8 bd 66 f1 bb 3d 7c 3e f0 3d
       -0.11630425 -0.113450706 0.091769025 0.11730668
000030 14 d6 57 3d e4 32 63 3d c0 c2 3b 3b 58 7f d6 bd
       0.052694395 0.055468455 0.0028650016 -0.10473508
000040 a0 e7 fd 3b 42 20 e2 bd f4 7b f1 3d e8 f8 c5 bc
       0.007748559 -0.11041309 0.1179122 -0.02416654
000050 00 b5 aa 3b 52 b8 c0 bd a2 99 c5 bd c2 f6 d9 bd
       0.005209565 -0.09410156 -0.09648444 -0.106427684
000060 dc a2 10 bd 8c 17 4c bd f0 31 43 3c 48 2c b3 bc
       -0.035311565 -0.049827144 0.0119137615 -0.0218717
000070 2a 72 8a 3d 88 94 57 bd 98 6b da 3c cc e5 fa 3d
       0.06760056 -0.052631885 0.026662633 0.122508615
000080 88 33 f7 bd ce 59 c3 3d 28 8e f2 bc 52 a6 87 3d
       -0.12070376 0.09538613 -0.029608801 0.0662352
000090 90 e1 d8 bc 44 63 84 bd 48 8d cf 3d f0 7c ab bc
       -0.026474744 -0.06464246 0.10134369 -0.020933598
0000a0 60 73 06 bc 8e 6c a0 bd 18 a9 c2 3d be a8 f8 3d
       -0.0082062185 -0.07833205 0.09504908 0.1214156
0000b0 2a 44 99 3d b0 78 d2 3d 28 03 d7 3d fc 40 68 bd
       0.074837044 0.102769256 0.10498649 -0.0567026
0000c0 80 d2 04 bd e4 a6 1c 3d 5c 25 02 3d ee 0f e6 3d
       -0.03242731 0.038245097 0.03177391 0.11233507
0000d0 80 5c 13 bd 1e a4 a0 3d 84 7a 16 3d 08 6f 49 bd
       -0.035976887 0.07843803 0.036737934 -0.049178153
0000e0 80 a8 db 3d 00 59 84 ba 98 36 ee bd b8 12 d0 bc
       0.10725498 -0.0010097325 -0.11631507 -0.02539955
0000f0 1c 7d b8 bd 2c 88 ff bd 14 4e b6 3d d0 43 00 bc
       -0.09008238 -0.124771446 0.08901611 -0.007828668
000100 c0 e7 64 bb 8c c6 1a bd fc 4b c5 bd aa 83 dc bd
       -0.0034928173 -0.037787005 -0.096336335 -0.107673004
000110 84 20 19 bd c6 10 d3 3d 4c aa 00 bd 2c f3 c7 3d
       -0.037384525 0.10305934 -0.031412408 0.09763178
000120 30 95 d9 3c 5c 5e 8b bd 58 0a 83 bd d8 55 3c 3d
       0.026560396 -0.06805107 -0.06398457 0.045980304
000130 5e a6 86 bd a0 45 e0 3c 28 93 3c 3d f6 76 9d 3d
       -0.06574701 0.02737695 0.046038777 0.076887056
000140 e0 3e e1 bd 12 0b 91 3d 18 dc 9c bc 12 63 94 3d
       -0.109983206 0.070821896 -0.019147918 0.07245459
000150 64 8f aa bd b0 cd b5 bd 30 05 35 3d d4 e3 3b bd
       -0.08328131 -0.088771224 0.0441944 -0.04587157
000160 0c b4 05 3d c8 07 1f bd 00 96 d0 3b 86 b3 e9 bd
       0.03264241 -0.03882578 0.0063655376 -0.114111945
000170 40 76 65 3d a6 c0 98 3d e8 86 33 bd 86 3a d6 bd
       0.056020975 0.0745862 -0.04382983 -0.10460381
000180 62 a1 b2 3d 8e e9 84 bd be 35 a4 bd e8 46 eb bc
       0.087221876 -0.064898595 -0.08018063 -0.028720334
000190 78 ca bb bc 76 cf 87 3d 80 35 8c 3a 68 66 a3 3c
       -0.022923693 0.06631367 0.0010697097 0.019946292
0001a0 a0 cb c6 bc 60 25 d3 bc 20 a7 00 bc a0 50 e7 3b
       -0.024267018 -0.025774658 -0.007852346 0.007059172
0001b0 b8 ff dd 3c 1a 83 b4 3d 70 50 d1 bd 20 36 57 3d
       0.027099475 0.08814068 -0.1022042 0.052541852
0001c0 00 9e f1 b9 d8 a5 e5 3c aa 1e 9f 3d 66 0f 9a 3d
       -0.0004608482 0.028033182 0.077695206 0.07522468
0001d0 b4 4f 05 3d 02 c4 b4 3d 40 ec a5 3b e8 15 81 3c
       0.032546714 0.08826448 0.0050635636 0.015757516
0001e0 b2 e7 d8 3d c0 c4 47 bd f0 82 54 3d c8 e7 eb 3d
       0.105910674 -0.04877162 0.051882684 0.11518818
0001f0 86 40 b9 3d 16 d0 b8 bd 5e 82 a8 3d ec 17 55 3d
       0.0904551 -0.09024064 0.082279906 0.052024767
000200 9c d4 16 3d 90 8f 07 3d 6c 2f 3f 3d 90 c3 0e 3c
       0.036823854 0.033095896 0.046676084 0.008713618
000210 c0 6e 06 bb 14 d6 41 bd 46 15 c8 bd 98 9c ea bc
       -0.002051279 -0.0473233 -0.097696826 -0.028639123
000220 7c 2e f6 3d 70 72 9e 3c 90 a4 f3 3d d0 eb 13 bd
       0.12020585 0.019341677 0.11896622 -0.03611356
000230 7e de a6 3d 42 d0 da bd 40 a9 a3 3d 48 5c c3 3c
       0.08147906 -0.10684253 0.07991266 0.023847714
000240 f8 91 d9 bc ac 6c e2 3d 60 97 16 bc d8 ad eb bd
       -0.026558861 0.11055884 -0.009191364 -0.115077674
000250 e8 6d 91 bc d6 3f c9 3d ee cf 80 3d ca 11 c7 3d
       -0.017752603 0.09826629 0.062896594 0.0972019
000260 32 2e a9 bd 00 87 91 3c 3e 99 bf bd c8 4a c4 bd
       -0.08260764 0.017764568 -0.093554005 -0.09584576
000270 00 f9 f2 3b f2 f9 c0 bd c2 a0 f9 3d 60 96 ec bb
       0.007414937 -0.09422673 0.12188865 -0.0072200745
000280 d8 cc 8d bc 00 78 7d 39 40 58 d7 3c 6c db 29 bd
       -0.017309591 0.00024172664 0.026287198 -0.041469023
000290 f0 74 7e 3c 90 2a 56 bc 86 e4 c5 bd 9e a7 cc bd
       0.01553081 -0.013071671 -0.09662728 -0.09992908
0002a0 86 bd bc 3d 6e 21 8c bd c4 f3 fd 3d b4 4a 30 3d
       0.09215836 -0.06842314 0.1240001 0.043039992
0002b0 14 7d fe bd 9e 23 86 3d 7a 9f df 3d 9e c9 c4 bd
       -0.124262005 0.06549762 0.109190896 -0.09608768
0002c0 84 b6 40 3d 46 fe e6 bd c0 a9 ba 3b 06 4c a6 bd
       0.04704906 -0.112789676 0.0056965053 -0.08119969
0002d0 d8 a4 5e 3d f8 e6 91 bc e8 18 b4 bd 90 e0 fc bd
       0.054356426 -0.01781033 -0.08793813 -0.123475194
0002e0 ac 1f 0a bd b2 41 c8 bd 54 1b 1f bd b0 34 58 bc
       -0.03372161 -0.097781554 -0.03884442 -0.013196155
0002f0 18 b5 bd bc fc e9 c2 bd d8 7d 54 3d 54 c1 2e 3d
       -0.023157641 -0.09517285 0.051877826 0.04266484
000300 66 73 d0 3d 5c 28 e2 bd 20 02 ec bb f0 1b e8 bc
       0.101782605 -0.11042854 -0.0072024018 -0.028333634
000310 80 c3 49 bb 62 88 fb 3d fe 29 aa bd 78 64 8e 3d
       -0.0030786693 0.12281872 -0.083087906 0.06952757
000320 98 d7 f8 bc 88 0b 26 3d f8 ee fb 3c 90 ee 79 bd
       -0.03037624 0.04053834 0.030753598 -0.061018527
000330 84 6b 1d bd c2 f2 d1 bd c8 91 63 3d 70 a2 d2 3c
       -0.038432613 -0.102513805 0.05555895 0.025712222
000340 38 47 a5 bc 48 1d 40 3d e6 cf a5 3d a8 ee e7 bd
       -0.020175561 0.046902925 0.08096294 -0.11324817
000350 98 d7 22 bd 44 4f 88 3d 1c a9 fb bd 66 6e b2 3d
       -0.039756387 0.06655744 -0.122881144 0.08712463
000360 d0 cc 7a bd 6c 10 52 3d c2 f9 a9 bd 00 00 2b b7
       -0.06123048 0.051285192 -0.08299591 -1.0192394e-05
000370 0c 12 a9 3d a8 3d 56 bd 54 85 a2 3d 1c 54 fa 3d
       0.08255395 -0.052304894 0.079355866 0.12223074
000380 3c b9 54 3d 92 c8 eb 3d 94 1e 31 bd 88 21 b5 bd
       0.051934466 0.11512865 -0.043242052 -0.08844286
000390 e0 73 72 bd c6 bc 88 bd e8 df f0 3c 1e e5 a3 3d
       -0.05919254 -0.06676631 0.029403642 0.08002685
0003a0 1c 81 fc bd 40 77 4c 3b c8 58 b9 3d b0 bc a4 3c
       -0.12329313 0.0031199008 0.09050137 0.020109504
0003b0 da 99 ab 3d fa 13 c3 bd 40 50 ec bc f0 9b b8 bc
       0.08378954 -0.095252946 -0.02884686 -0.022535294
0003c0 7c 6e c7 3d f4 9a 0f bd 66 e4 c5 3d 60 34 80 bc
       0.0973787 -0.035059884 0.09662704 -0.015649974
0003d0 98 f6 9a 3c f0 10 39 bd a0 76 95 3b 00 6b c5 3b
       0.018916413 -0.04518217 0.0045612603 0.0060247183
0003e0 40 1e b8 3b a8 99 26 3d 00 fc e3 bc 78 88 d4 3c
       0.0056188405 0.04067388 -0.027830124 0.02594398
0003f0 fe f9 94 bd c6 73 ef 3d 16 1d bb 3d 10 04 f4 3d
       -0.07274245 0.11692004 0.09136407 0.11914837

layers.1.bias f4 [64]
000000 80 67 2c bb b6 b7 a9 3d 00 26 de bb ca 82 dc bd
       -0.0026306808 0.08286993 -0.0067794323 -0.107671335
000010 cc 6c 4f bd 20 8b b6 3d 20 8f 1f 3c 70 16 ae bc
       -0.050640866 0.08913255 0.0097387135 -0.021250933
000020 b2 ef e1 3d 98 84 ee bc 90 35 e9 3c 14 0f a2 bd
       0.110320464 -0.02911596 0.028467923 -0.07913032
000030 60 e1 7f 3d 80 73 da 3d 9c 72 16 bd b4 37 a3 3d
       0.062470794 0.10666561 -0.036730394 0.07969609
000040 80 48 c5 ba f4 40 b9 3d 4c aa 32 bd 7c d4 52 bd
       -0.0015051514 0.09045592 -0.04361944 -0.051472172
000050 c0 61 52 bd 78 00 9a 3c 18 97 e2 3c 00 cf 84 3c
       -0.051362753 0.018799052 0.027659938 0.016211987
000060 90 30 95 3c b8 54 56 bd 18 1f ea bc c2 bc b4 bd
       0.018211633 -0.052326888 -0.02857928 -0.08825065
000070 94 9d cf bd e4 36 f5 bd 1c db 45 bd 08 af b8 bd
       -0.101374775 -0.1197336 -0.048304662 -0.090177596
000080 d0 e9 16 bc 10 ee 70 bc 80 9a 6e 3c c0 f8 4e 3d
       -0.009211019 -0.014705196 0.014563203 0.050530195
000090 78 52 fb 3d 20 0b 4a 3d 00 7e 70 3b d4 93 ba 3d
       0.12271589 0.049327016 0.0036696196 0.09110227
0000a0 58 ec bd bc 50 4e 69 bd cc 7f fd 3d d0 c8 1d bd
       -0.023183987 -0.05695945 0.12377891 -0.038521588
0000b0 ee 02 cc bd 48 e1 fa bd ac 71 18 bd 00 75 30 3d
       -0.09961496 -0.1225 -0.03721778 0.04308033
0000c0 50 c9 77 3d 86 5f a0 bd d8 bc 35 bd 84 a2 19 bd
       0.06049472 -0.0783072 -0.04436955 -0.037508503
0000d0 b0 9d 0d bd a8 0c c3 3c 84 f1 e6 bd 9c 48 45 3d
       -0.03457421 0.023809746 -0.11276534 0.04816495
0000e0 ce b0 c1 bd 88 da 53 bd ba 21 89 3d e8 0f c0 3c
       -0.09457551 -0.05172208 0.06695886 0.023445085
0000f0 3c 12 2d bd aa 9e c5 bd a4 ea a4 3d 00 e0 d8 3c
       -0.042253718 -0.096494034 0.08052567 0.026473999

layers.2.weight f4 [3, 64]
000000 a8 35 a4 bd b8 f7 b8 bd 78 23 8d bc a0 27 2d bc
       -0.080180466 -0.090316236 -0.017228827 -0.010568529
000010 68 e3 bc 3d 80 59 ba 3d bc dd 66 bd 70 24 7c 3d
       0.09223062 0.09099102 -0.056363806 0.061558187
000020 e0 f1 f0 bb 4e 66 94 3d 60 cc 25 3d 60 d6 cd bd
       -0.0073530525 0.072460756 0.04047811 -0.100506544
000030 d0 83 eb 3d da f1 cf 3d d8 e0 55 3d 00 dc 54 bc
       0.114997506 0.101535514 0.05221638 -0.012991905
000040 38 be 74 bd 82 36 d9 3d 24 bc 7a bd c8 0c a1 bd
       -0.05975172 0.106061 -0.06121458 -0.07863766
000050 9c ae e6 bd 90 1b 17 3d 58 c1 83 bd 6c 87 9a 3d
       -0.11263773 0.03689152 -0.06433362 0.07545361
000060 b8 8f d7 3c 60 9d 64 3c c4 98 6b bd 32 3d b1 bd
       0.026313648 0.013953537 -0.057518736 -0.0865425
000070 14 97 89 bd 38 21 c4 bd 1c af c7 bd e0 4b 4c bd
       -0.06718269 -0.095766485 -0.09750196 -0.049877048
000080 a8 08 aa bd 28 07 b8 3d 9e c2 e3 bd 5e 0e 94 bd
       -0.08302432 0.0898574 -0.11121105 -0.07229303
000090 ee 15 dd bd c2 45 b5 3d ac 8b 77 bd d0 49 04 3c
       -0.107951984 0.08851196 -0.060435936 0.008074239
0000a0 d2 c2 c5 3d e8 13 94 3c 92 19 90 3d 5a 75 85 bd
       0.096563 0.018075898 0.07036127 -0.06516524
0000b0 3c 36 69 3d 06 55 cf bd b0 5e fa 3d c6 9f 83 bd
       0.056936488 -0.10123639 0.122250915 -0.06426959
0000c0 3c b6 2b bd f0 87 03 3d 00 13 3f 3a 90 94 ee 3c
       -0.04192184 0.032112062 0.0007288903 0.029123574
0000d0 ba 25 d9 bd 5a 77 8a 3d e0 58 d0 3c c2 65 8a 3d
       -0.10602899 0.06761046 0.025433004 0.0675769
0000e0 c0 d5 d8 bc ea 83 c9 3d e0 27 bc 3b ea 7a f4 bd
       -0.026469111 0.09839614 0.005742058 -0.119375065
0000f0 1c 86 5a 3d 28 f2 bd bd a0 e3 72 3c 58 1d 4a bd
       0.053350553 -0.09274703 0.014824778 -0.04934439
000100 2a d2 e0 bd d6 6f a5 3d a0 9a e2 3b c0 fb 93 3d
       -0.109775856 0.08077972 0.0069154054 0.07225752
000110 9c 8d 25 3d 78 fb c9 3d da 9a e3 3d d4 cd a4 3d
       0.040418252 0.09862417 0.1111352 0.08047071
000120 e6 e9 c0 bd b6 7d 8d 3d 50 dd 32 bc e0 0b 67 bc
       -0.094196126 0.06908743 -0.010917023 -0.014101952
000130 6a 27 ce bd a0 53 73 bc 30 55 d4 bc aa a0 9d bd
       -0.100661114 -0.014851481 -0.025919527 -0.0769666
000140 58 2d 39 bd f4 cd 19 3d f6 ea b3 bd 94 35 39 bd
       -0.04520926 0.037549928 -0.087850496 -0.04521711
000150 08 06 5d 3d cc 31 7d bd 2e 5a 93 bd 00 cc ec 3c
       0.05396083 -0.061815068 -0.07194935 0.028905869
000160 08 0a 8d 3c 80 35 51 bc 60 45 34 bc 4c 66 2b 3d
       0.017216697 -0.012769103 -0.011002868 0.041845605
000170 38 c2 f9 bc 98 2d ab bd 70 c4 fe bc e4 9b 2f 3d
       -0.030488119 -0.08358306 -0.031099528 0.04287328
000180 f4 14 62 3d 4c a1 24 3d 14 89 12 bd 90 94 1f bd
       0.055195764 0.040192887 -0.03577526 -0.03896004
000190 ae 43 9e 3d 80 c4 9e ba 80 a3 54 3b 40 05 75 3c
       0.077277526 -0.0012113005 0.0032446086 0.014954865
0001a0 02 21 eb bd 60 09 4a 3c c6 ed f2 bd 32 57 e6 bd
       -0.11480905 0.012331337 -0.11861758 -0.112471
0001b0 ea 86 be bd 1a 7c e0 bd d0 06 e0 3d fe 15 c0 3d
       -0.093030766 -0.109611705 0.109387994 0.09379195
0001c0 c0 10 4e 3b 4c 77 1b bd 1c 9d c2 3d ae 2e f8 3d
       0.003144309 -0.037955567 0.095026225 0.121182784
0001d0 24 6f d6 bd 18 6c 2c bd b0 25 d4 bc f8 fc ec 3c
       -0.10470417 -0.042095274 -0.025896877 0.028929219
0001e0 b0 1e 08 bc e8 27 32 3d 48 18 4c 3d 28 3e de bd
       -0.008308098 0.04349509 0.049827844 -0.10851699
0001f0 88 cb 96 3c 42 e0 f2 3d ae 5e 8f 3d 40 c5 87 3b
       0.018407598 0.1185918 0.070004806 0.004143387
000200 00 00 70 b5 be bf ba 3d 88 53 d8 3d d2 1a f3 bd
       -8.940697e-07 0.09118603 0.10562807 -0.1187035
000210 ae 74 f6 bd d0 83 49 bc b0 bd d6 3d b8 fa 52 3d
       -0.12033974 -0.012299493 0.10485399 0.051508635
000220 dc 7d 17 3d 9c 8f 67 3d e0 53 ab bd a8 41 e2 bc
       0.036985263 0.05653344 -0.08365607 -0.027619198
000230 c0 c2 21 bb ca 41 93 bd c4 91 7a 3d 30 8c d5 3c
       -0.002468273 -0.07190283 0.06117417 0.026067823
000240 20 90 3c bd 74 36 16 bd da 79 ae bd 18 b5 df 3c
       -0.046035886 -0.036673024 -0.08519335 0.027308032
000250 22 fc e4 bd 94 bf f9 bd 1c d8 c9 3d c8 1b ab 3c
       -0.11180903 -0.12194744 0.09855673 0.02088727
000260 98 09 e6 bc a8 25 ff bd 36 ec ff 3d 4c 30 cb bd
       -0.028080747 -0.12458354 0.124962255 -0.09921321
000270 72 df a3 bd c0 35 c4 bb 40 0f 2c 3d bc 27 c6 3d
       -0.08001603 -0.005987853 0.04200673 0.096755475
000280 80 e1 15 3c d6 d4 d0 bd 94 c4 74 3d 08 39 91 bd
       0.009148002 -0.10196845 0.059757784 -0.07090956
000290 2c 93 03 bd c4 e8 cd 3d 84 52 18 bd 2c ae 51 3d
       -0.032122776 0.10054162 -0.037188068 0.051191494
0002a0 00 a0 9e 37 98 eb 94 3d a6 4c ba bd 68 1a 1c bd
       1.8909574e-05 0.072714984 -0.09096651 -0.03811112
0002b0 00 b9 01 bd b0 1c 37 bc a4 6b 08 3d d4 ba 34 3d
       -0.03167057 -0.011176273 0.03330578 0.044123486
0002c0 a8 d4 e2 bd 46 06 cc 3d 36 a9 c3 3d f4 bb f2 bd
       -0.11075717 0.09962134 0.09553759 -0.118522555
0002d0 36 dd e9 bd b2 fe e0 bd e0 7d 8e 3b 32 0e 9f bd
       -0.11419146 -0.10986079 0.0043485016 -0.077663794
0002e0 7e 91 aa 3d a0 3c b9 bd 00 34 12 3c d4 c0 4e bd
       0.08328532 -0.090447664 0.008923531 -0.050476864
0002f0 70 92 8c 3d 50 7e 2f 3c 48 87 fb bd 68 e3 9b bc
       0.06863868 0.010711268 -0.12281662 -0.019029334

layers.2.bias f4 [3]
000000 f8 da a2 3d a6 9f 9f 3d 18 71 0e bd
       0.07951921 0.077941224 -0.034775823
