Results/MountainCar-A/initial/model.pt (torch_old, 19132 bytes, 6 tensors)

l1.weight f4 [64, 2]
000000 7a 36 01 bf 76 e5 31 bf 3e b8 25 bf f2 9d e4 3e
       -0.5047375 -0.69490755 -0.64734256 0.44651753
000010 32 bf 03 bf f6 a6 d2 3e c1 bc db be d2 0b c9 3e
       -0.51463616 0.41143006 -0.42917445 0.3926683
000020 00 f9 fd 3d 48 94 80 3e 30 30 0a bf 5d 47 14 3f
       0.124010086 0.2511313 -0.5397978 0.5792139
000030 40 8d 2d bc 14 f5 35 3e 4d eb 1f 3f 86 13 29 bf
       -0.010592759 0.17769271 0.62468415 -0.66045415
000040 83 94 1c 3f 05 0f 33 3f b7 72 ea be d0 ea 99 3d
       0.6116411 0.69944793 -0.45790645 0.0751549
000050 2e 7b 9c 3e 70 c7 12 bf 9e 80 98 3e a2 6a f0 3e
       0.3056273 -0.5733557 0.29785627 0.46956354
000060 ef 66 20 bf d8 f4 df 3d dc 01 d0 be a9 59 1c 3f
       -0.62657064 0.10935372 -0.4062642 0.6107431
000070 2d 08 23 3f 86 a3 12 bf c0 e5 42 bd 5e 38 fa 3e
       0.6368435 -0.57280767 -0.047582388 0.4887113
000080 98 e1 9a bd 0a 8a 16 bf 90 17 27 bf b6 07 c6 3e
       -0.0756256 -0.5880438 -0.6527033 0.38677758
000090 a4 6f 6a 3e c5 2a 00 3f 58 cb 88 bd f6 c7 d0 3e
       0.2289415 0.5006526 -0.0667941 0.40777558
0000a0 9c 0c 58 3e 3c d9 a0 be 81 8e 1e bf ea 66 1c bf
       0.2109856 -0.31415737 -0.61936194 -0.61094534
0000b0 a0 40 d4 be a0 3d 9c 3d 50 9d 02 bf fa b3 14 bf
       -0.41455555 0.076289415 -0.5102129 -0.5808712
0000c0 65 af 9c be 5d 06 29 3f 40 55 1f bd 7e 83 aa 3e
       -0.30602565 0.66025335 -0.03889966 0.33303446
0000d0 1f 02 e3 be 39 13 32 3f b7 8c 1b 3f 2e 39 96 3e
       -0.44337556 0.6956058 0.6076159 0.293405
0000e0 8e aa c2 be 80 6a 5d 3c 8b d3 c2 be aa 08 56 be
       -0.38020748 0.013514161 -0.3805202 -0.20901743
0000f0 b1 6c ab be d9 7d 2a 3f 5a ce aa 3e 30 ba 95 3d
       -0.33481362 0.6659828 0.3336056 0.07310903
000100 4b 49 02 3f 40 1b 3f bc 78 56 f0 3d 96 c9 ed be
       0.50893086 -0.011664212 0.117352426 -0.4644286
000110 46 b9 c7 3e 58 d8 91 3e 20 bd 37 3d c0 69 18 bc
       0.3900854 0.2848537 0.044858098 -0.0093025565
000120 8a 4c a6 3e 20 46 f0 bc dc f3 3e 3e f6 c0 ab 3e
       0.3248027 -0.029330313 0.18647712 0.33545655
000130 c8 34 99 be 46 a0 cb 3e 3a ae 82 be 7c 0a ff be
       -0.2992308 0.39770716 -0.2552355 -0.49812686
000140 08 e6 a2 bd ac 31 75 be 7b 50 13 3f bd df 2d 3f
       -0.07954031 -0.2394473 0.5754468 0.6791952
000150 20 87 e5 be 30 31 47 3e 97 ff 10 3f 56 be fc 3e
       -0.44829655 0.19452357 0.5664 0.49363965
000160 44 fc 20 bf 0a e4 cf be f2 e2 a3 3e 80 57 af bd
       -0.62884927 -0.40603667 0.32009083 -0.08561611
000170 94 8b 1a bf 82 15 11 bf b8 e0 01 3e d2 3b b3 3e
       -0.6036923 -0.56673443 0.1268338 0.35006577
000180 10 30 5d bd f7 4b 0d bf f1 4f 9d be 24 43 40 be
       -0.054000914 -0.5519404 -0.30725053 -0.18775612
000190 44 3d 55 3e 93 8f 28 3f fb cd 1f 3f 33 bb 86 be
       0.20824152 0.65844077 0.62423676 -0.26314697
0001a0 2e 7e fd 3e 6a dd a0 3e 8e ae a1 3e c4 0d 3a be
       0.4951033 0.31418926 0.31578487 -0.18169314
0001b0 76 39 b4 3e 00 3a 82 3d f6 75 f7 3e e8 85 cd 3d
       0.3520009 0.06358719 0.48332185 0.10035306
0001c0 f0 8f 8b bd 56 82 fb 3e bb 2a 0d 3f 0e 17 c6 3e
       -0.06814563 0.49122876 0.55143327 0.38689464
0001d0 74 a7 62 3e 46 ab b2 3e 10 ba 2c 3e db 90 04 3f
       0.22134191 0.34896296 0.16867852 0.5178353
0001e0 13 ac 24 3f d1 37 2a 3f 41 1a 10 3f 71 1b 27 bf
       0.64325064 0.6649142 0.5629006 -0.6527625
0001f0 e8 cb 44 be 74 ee 1e 3e b4 df 92 3e 22 66 be 3e
       -0.19218409 0.1552065 0.28686297 0.37187296

l1.bias f4 [64]
000000 f9 cd 2e 3f 7c 9c 3e 3e f1 ee a3 be bd 5f 17 3f
       0.6828304 0.18614382 -0.32018235 0.5913046
000010 74 6a 55 be e6 a5 86 3e f7 54 bb be b7 e6 27 3f
       -0.2084139 0.26298445 -0.3658826 0.6558642
000020 28 c5 4e 3e 20 76 09 3e 1a 92 20 bf 2e ba d2 be
       0.20192397 0.13423967 -0.62722933 -0.4115767
000030 36 ff 0d bf f0 9f 39 3d d4 2c c5 be c2 dd e2 3e
       -0.55467546 0.045318544 -0.38510764 0.44309813
000040 10 d3 66 3e bd 03 13 3f 0e bc 81 3e 65 55 06 3f
       0.22541451 0.5742758 0.25338787 0.5247405
000050 3e 85 16 bf 10 85 f9 3d 22 85 fc 3e 7c 09 78 3e
       -0.5879706 0.12183583 0.49320322 0.24222368
000060 3f de 84 be 0c b6 0f bf 4d 25 1f 3f 23 c1 b3 be
       -0.2595081 -0.56137156 0.6216629 -0.3510829
000070 29 54 99 be 01 1d 00 bf 6e 34 f0 3e ed 0f 1f 3f
       -0.29947022 -0.50044256 0.46915 0.62133676
000080 17 b0 01 3f 70 9b 04 bf cd 6d bb be 01 a5 30 bf
       0.50659317 -0.5179968 -0.3660721 -0.69001776
000090 18 3d 83 3e 5c 91 01 3e 95 51 05 3f c0 7e 86 3d
       0.25632548 0.12653106 0.5207761 0.065671444
0000a0 f8 9d ab be f0 02 a7 bd b5 d5 27 bf a0 0a db 3d
       -0.33518958 -0.08154857 -0.65560466 0.10695386
0000b0 06 c0 b6 3e e9 3b 26 3f 84 e2 3a be 90 c4 37 3e
       0.35693377 0.64935166 -0.18250471 0.17946076
0000c0 93 38 96 be 15 4c e3 be 86 71 b3 be 88 90 2e 3e
       -0.29340038 -0.44393983 -0.3504755 0.17047322
0000d0 60 a4 4f be cc d0 b7 be bb 77 19 bf 4c c5 4f 3e
       -0.20277548 -0.35901487 -0.5994832 0.20290107
0000e0 7c 9d 0c 3e f4 27 2b be ac a9 5e 3e c8 8e b5 be
       0.1373195 -0.1671446 0.21744412 -0.35460496
0000f0 60 fd 10 3d 69 79 b3 be f4 b0 0b 3e 56 47 f7 3e
       0.035397887 -0.35053566 0.13641721 0.48296613

l2.weight f4 [64, 64]
000000 f0 94 f2 bd da da ed 3d 10 c4 f2 bd 28 54 95 bd
       -0.11844814 0.11614008 -0.11853802 -0.07291442
000010 8e ce a5 3d 40 8b 44 3b a0 af 13 bc b4 f0 26 bd
       0.08096038 0.0029990226 -0.00901404 -0.040756896
000020 00 84 66 ba f4 16 9d bd c0 e3 d4 bb 40 ea 5c 3c
       -0.0008793473 -0.076703936 -0.0064968765 0.013483584
000030 20 26 af 3d b2 20 98 3d fa 52 92 3d 10 00 96 3d
       0.08552194 0.07428111 0.07144733 0.07324231
000040 30 b8 5e bd 5a 07 b5 bd 42 bb d8 3d ac 08 05 3d
       -0.054374874 -0.08839293 0.105825916 0.032478973
000050 d4 5f 12 3d 80 09 a6 3b 24 75 db bd 44 e2 79 bd
       0.03573592 0.0050670505 -0.10715702 -0.0610068
000060 e8 8d c2 bd 58 cf 93 3c 28 b1 d3 bc 60 d6 bf 3c
       -0.09499723 0.018043205 -0.02584131 0.023417652
000070 5a 43 b5 3d 00 28 68 3c 90 5c 0d 3c 98 b5 bc 3d
       0.08850737 0.014169693 0.008628026 0.09214324
000080 f4 9c c7 3d 5c 5e 23 3d 00 6b 58 3c 14 e7 e2 bd
       0.09746733 0.03988491 0.013209105 -0.11079231
000090 34 56 e6 3d fe 49 c1 3d a6 a8 f8 3d 92 ff 9b bd
       0.11246911 0.09437941 0.12141542 -0.076171055
0000a0 3c f1 29 bd c2 9e 96 bd 80 b3 30 3c ca e3 93 bd
       -0.041489825 -0.073544994 0.010784984 -0.07221182
0000b0 d0 5b 05 3d 40 51 ef bb 44 16 ea bd b4 d2 ad bd
       0.032558262 -0.007303387 -0.11430028 -0.08487454
0000c0 94 28 7e bd 30 f2 00 bd 88 ff 90 3c 84 75 f5 3d
       -0.062050417 -0.031480968 0.017699972 0.11985305
0000d0 68 12 32 bd a2 33 81 bd d4 5f bf bd e4 d5 16 bd
       -0.043474585 -0.06308676 -0.0934445 -0.036825076
0000e0 e0 87 28 bc 80 8a 62 bb 5e f6 b3 bd 3a 1d e1 bd
       -0.010286301 -0.0034567416 -0.08787225 -0.10991903
0000f0 62 bc ba 3d ea ba f6 bd 70 ee ba 3d 26 6b ec bd
       0.091179624 -0.1204737 0.091275096 -0.115438744
000100 18 04 ee 3d 2c c7 b3 bd 5a b5 b6 3d 98 6b eb 3d
       0.116218746 -0.087782234 0.08921309 0.11495131
000110 c2 28 c8 3d 2e ec be bd 4e f5 d3 bd c0 28 d2 3d
       0.09773399 -0.093223915 -0.103495225 0.10261679
000120 04 3e 8e 3d 00 7f dc 3d 00 6f ed ba 18 46 c9 bd
       0.06945422 0.10766411 -0.0018114746 -0.098278224
000130 48 b4 5b 3d e0 14 19 bc b8 14 4b bd 58 43 8d 3d
       0.053638726 -0.009343356 -0.049580306 0.068976104
000140 80 1a d4 3b 90 dc 9f 3c 1a bb 8e bd b4 be f4 3d
       0.0064728856 0.019514352 -0.069692805 0.11950436
000150 22 02 c0 3d 14 78 d8 bd a8 70 a4 bd 04 28 a6 bd
       0.09375407 -0.10569778 -0.080293 -0.08113101
000160 60 01 91 bd 40 ee 48 3d 8a 13 ca 3d e0 64 77 3c
       -0.070803404 0.049055338 0.09867008 0.015099734
000170 0a b6 b6 3d e4 ba 3f bd 20 0a ed 3c b0 37 af bc
       0.0892144 -0.046809092 0.028935492 -0.021388859
000180 4c 80 84 3d f0 d8 fd bc 60 bc 9c bc 6c 3c 79 3d
       0.06469783 -0.030987233 -0.019132793 0.06084864
000190 56 df 9f bd 86 27 95 3d 7e 53 93 bd 5c 59 25 3d
       -0.0780627 0.07282929 -0.07193659 0.040368423
0001a0 58 76 15 3d ea 3c 81 bd 48 16 93 bd fe 82 97 bd
       0.036489815 -0.063104466 -0.07181984 -0.07398032
0001b0 e4 e7 ee bd 2a 72 c1 3d 84 9d 15 bd ca 1d db bd
       -0.116653234 0.09445603 -0.03652717 -0.10699041
0001c0 70 89 80 3c f0 89 05 bd e0 a0 ed 3b c0 b1 89 3c
       0.015690535 -0.03260225 0.007251844 0.01680839
0001d0 10 ef 8f bd d8 d8 e0 3c fc 8c f0 3d de 42 fd 3d
       -0.070280194 0.02744715 0.11745641 0.123662695
0001e0 be 1c a7 bd 46 72 c5 3d 10 1d ac bc 90 ac d7 3d
       -0.08159779 0.096409366 -0.021009952 0.105309606
0001f0 ec 96 c4 bd 40 4c 9f 3b 0e 4e 91 3d f6 e3 eb bd
       -0.095990986 0.0048613846 0.07094966 -0.115180895
000200 f8 16 63 3d 58 03 fe bd 8e af e8 3d 98 b0 1a bd
       0.055441827 -0.124029815 0.113616094 -0.03776607
000210 c0 2d 61 bd 04 f7 f5 3d be 93 84 bd 9c 00 eb 3d
       -0.05497527 0.12010005 -0.06473492 0.114747256
000220 98 78 22 3d 9c 93 92 3d c0 20 c7 bd c0 0d 31 bd
       0.03966579 0.071570605 -0.097230434 -0.043226004
000230 2c 02 77 3d e8 68 c0 bd 80 40 b5 bb b8 fc 99 bd
       0.060304806 -0.09395009 -0.0055313706 -0.075189054
000240 0c 20 04 3d 32 51 f3 bd c6 00 f7 3d b4 03 36 3d
       0.032257125 -0.11880721 0.120606944 0.044437125
000250 86 9e d5 bd 68 f7 08 3d e0 64 5a bd 38 87 90 3d
       -0.104306266 0.03343907 -0.05331886 0.07057041
000260 88 22 fb 3c 5c 8a 53 bd c0 f8 2a bc a0 d5 1d 3d
       0.030656114 -0.05164562 -0.010435283 0.038533807
000270 e0 b4 3a bd 78 c7 ff bd cc 2e 73 bd b0 4a 84 bc
       -0.045582652 -0.124892175 -0.0593708 -0.016148895
000280 e0 85 e3 3b e8 2e 9d bd 90 e1 6f 3d 84 23 dd 3d
       0.0069434494 -0.07674962 0.058564723 0.1079779
000290 80 28 4d 3c ec aa 89 bd 34 d1 e6 bd 34 e1 7f bd
       0.012521863 -0.06722054 -0.11270371 -0.06247063
0002a0 0a d4 e3 3d 2e 08 ca 3d e0 6a 93 3c 30 b5 4c bc
       0.111244276 0.098648414 0.017995298 -0.01249437
0002b0 4c 6a 5c bd e4 eb 66 3d a0 4d a7 3b c8 f6 34 bd
       -0.05381231 0.056377307 0.005105689 -0.04418066
0002c0 08 14 50 3d 50 bb 13 bc 9c 6a 15 3d 98 90 4e bd
       0.050800353 -0.009016827 0.036478624 -0.050430864
0002d0 80 0e 7a 3d 20 c4 17 bc 9c 88 30 3d 0c ee 8b 3d
       0.061048985 -0.009263068 0.04309903 0.06832513
0002e0 f0 1d 7b 3d 30 d5 98 bc 3a 67 da 3d 82 64 90 3d
       0.061307847 -0.018656343 0.1066422 0.0705042
0002f0 ea c3 d3 bd c8 f2 f9 3d 94 ad b5 3d 24 28 11 bd
       -0.10340102 0.1220451 0.08870998 -0.03543867
000300 e8 c6 87 bc 20 21 db 3b da 00 f6 3d de b6 a7 3d
       -0.016574338 0.0066872984 0.12011881 0.08189176
000310 18 d1 ad 3c 6a 51 b1 3d 3e 5c ca 3d c0 97 58 3b
       0.021217868 0.086581066 0.09880875 0.0033049434
000320 d0 17 b2 3c 72 b4 f4 3d 1c 47 ec bd 70 c3 d2 bc
       0.02173987 0.1194848 -0.115370005 -0.025727957
000330 b8 4c a5 3c bc f6 02 3d 74 c4 fc 3d 48 57 a5 bd
       0.020178184 0.031973585 0.12342158 -0.08073288
000340 e0 4c 48 3c b8 5e 50 bd dc 87 10 bd fe 40 bb 3d
       0.01222536 -0.05087158 -0.035285816 0.09143256
000350 b8 a8 8b bd c0 d3 67 3d e6 23 b7 3d 80 f5 e9 3d
       -0.0681929 0.056598425 0.08942394 0.114237785
000360 70 18 7a 3c 58 9f e6 3c 3e 83 a5 bd 46 a2 9c bd
       0.015264615 0.028152153 -0.08081673 -0.07648139
000370 20 6d 96 bd 2e 3b c6 3d 66 49 dd bd 64 53 13 bd
       -0.07345033 0.096792564 -0.10805015 -0.0359682
000380 46 95 98 bd e0 36 b9 3d 20 f6 c8 bc 00 0a a7 b9
       -0.07450347 0.0904367 -0.024531424 -0.00031860173
000390 c0 67 a5 3b e0 0f 1b bd a0 2e 8c bc a8 cf 5d 3d
       0.0050477684 -0.037856936 -0.017112076 0.054153115
0003a0 8a 7b c4 bd 68 b6 91 3d 9c f2 d9 bd 3e d9 86 bd
       -0.09593876 0.07114869 -0.10641977 -0.065844044
0003b0 64 59 d7 bd 56 51 da 3d 34 b3 6a 3d 56 f9 97 3d
       -0.10515097 0.10660045 0.057299808 0.07420604
0003c0 72 99 b3 3d c8 f4 88 bd 1e 10 ba 3d d4 c0 27 bd
       0.08769502 -0.06687313 0.09085105 -0.04095538
0003d0 40 2a 78 bb f0 0d 1a bc f4 bd 94 bd 14 83 c3 bd
       -0.003786698 -0.009402737 -0.07262793 -0.095464855
0003e0 c0 42 3a 3d 20 5f b2 3c 8a 9c 83 3d 58 3c cb 3c
       0.045473814 0.021773875 0.06426342 0.024809048
0003f0 88 42 43 bd ae bf b1 3d 84 75 67 bd 90 5a 85 3d
       -0.04767087 0.08679138 -0.056508556 0.06511414

l2.bias f4 [64]
000000 fc cd 2d bd a2 be aa 3d 60 8d ef bb 90 b2 b0 3d
       -0.04243277 0.083371416 -0.0073105544 0.08627808
000010 98 f5 64 3d 64 ba 01 3d 96 17 83 bd 48 3a 73 3d
       0.05589828 0.031671897 -0.06400983 0.059381753
000020 a0 a4 9a bd 4c ea bf bd d2 98 80 3d 24 b4 c7 bd
       -0.07550931 -0.093708605 0.06279148 -0.09751156
000030 40 cb 41 3b b6 08 e2 bd 48 11 af bc 84 0b b1 3d
       0.002957061 -0.11036818 -0.021370545 0.086447746
000040 46 e0 a3 3d 4e b2 c4 3d e4 ae f0 bd 7c 7d f9 bd
       0.08001761 0.096043214 -0.11752108 -0.12182137
000050 a0 89 1d bc fe 11 c1 3d 62 2e ef bd 48 67 03 bd
       -0.009615332 0.0942726 -0.11678769 -0.03208092
000060 6a 2a cd 3d f0 19 3a bd 14 45 c1 3d 5e 9e aa bd
       0.100178555 -0.045434892 0.09437004 -0.083309874
000070 de f7 a7 bd 60 8a b5 bc 42 cb 84 bd 3c c7 87 3d
       -0.08201574 -0.022160709 -0.06484081 0.06629798
000080 32 7f 8c bd 88 1d a2 bc 28 8c 17 3d 88 e7 fc 3c
       -0.06860198 -0.019789472 0.036998898 0.030872121
000090 f0 e0 e8 bc b2 5f c3 bd 3c 8f 83 bd 28 b9 95 bd
       -0.028427571 -0.09539737 -0.06423804 -0.073107064
0000a0 28 2f 82 3d 28 77 d2 bc 24 af 48 3d f0 9b f8 3c
       0.063566506 -0.025691584 0.048995152 0.030347794
0000b0 5e e0 85 bd a8 33 d1 3d 2c 7b 4e 3d 70 9b db bd
       -0.06536935 0.10214931 0.050410435 -0.10723007
0000c0 1c c9 7f 3d 00 b4 82 3b 70 e8 e9 bc f0 52 ad bc
       0.062447652 0.003988743 -0.028553218 -0.021157712
0000d0 56 4e 8a 3d a0 2d e3 bc e0 4d e7 3d 94 4b 60 3d
       0.06753223 -0.027731717 0.1129415 0.054759577
0000e0 16 19 8d 3d d8 a7 fb 3c 58 8a 80 3c 10 e4 7e 3d
       0.068895504 0.030719683 0.015690967 0.062229216
0000f0 b0 39 0d 3c 84 b1 4c 3d 08 02 3b bd 40 13 81 bd
       0.008619711 0.04997398 -0.045656234 -0.063025

l3.weight f4 [3, 64]
000000 6a 16 a3 bd ea 0b ee 3d 14 80 e7 bd fc 72 31 bd
       -0.079632595 0.11623366 -0.11303726 -0.04332255
000010 c8 76 90 3c 80 17 23 3b ee d5 80 bd 34 f3 11 3d
       0.017634764 0.0024885833 -0.06290804 0.035632327
000020 10 d7 d1 3c 30 3e 23 3d 20 3f ae 3b 76 71 a0 bd
       0.025615245 0.03985423 0.0053175837 -0.07834141
000030 c0 51 30 3b c4 dc bf bd 88 86 2d 3d a2 37 a8 bd
       0.0026904196 -0.093682796 0.042364627 -0.08213736
000040 98 07 86 3c 00 53 5e 3d ec c1 d0 3d 0a d8 b2 bd
       0.016361043 0.054278374 0.10193238 -0.087326124
000050 48 d4 ae 3c e8 71 e4 bd b4 6b 43 3d 42 b2 cb bd
       0.021341458 -0.111545384 0.047710136 -0.09946109
000060 c0 d5 ae 3b ea 9a c1 3d fa 88 e8 3d 60 0b 23 3d
       0.0053355396 0.09453376 0.11354251 0.03980577
000070 20 8b b8 3b 08 96 d2 3c d8 11 d2 bc 00 66 99 3d
       0.0056318194 0.025706306 -0.025643274 0.07490158
000080 b2 7f 8f 3d 98 84 ab 3c d0 fb 6a 3d 30 23 c7 bc
       0.07006778 0.020937249 0.057369053 -0.02430877
000090 0c 29 e5 bd 00 90 72 38 a4 c9 37 3d a8 bb d4 bc
       -0.1118947 5.7831407e-05 0.044870034 -0.025968388
0000a0 e8 90 f2 bd 70 1a fb 3c 70 57 74 bd 42 9d 89 3d
       -0.11844045 0.030652255 -0.0596537 0.06719448
0000b0 dc 10 7f bd 40 b5 2e bc 00 fc 62 39 44 17 0a 3d
       -0.062271938 -0.010663331 0.00021646917 0.033713594
0000c0 f4 63 40 3d a0 5c 50 3c 68 93 32 bd 7c 36 33 3d
       0.046970323 0.012717396 -0.04359761 0.043753132
0000d0 6e 7e e1 bd e4 b1 34 bd 10 4f 41 bc b0 81 7e bd
       -0.11010443 -0.044114962 -0.011798635 -0.0621354
0000e0 b8 50 26 bd 98 2e da 3c 10 be 01 bd 60 5e d8 bb
       -0.040604323 0.026633546 -0.0316754 -0.0066030473
0000f0 80 e1 3c bc 3e d8 ee 3d ca 91 d4 3d bc 48 71 3d
       -0.011528373 0.11662339 0.103793696 0.058907256
000100 2c 5b 45 bd 22 68 cd bd 20 9d 2c 3c 58 49 e7 3c
       -0.04818265 -0.100296274 0.010535508 0.028233215
000110 f4 16 00 bd 2a f7 84 3d d8 80 90 3d b8 3e 9e 3d
       -0.03127189 0.06492455 0.07055825 0.077268064
000120 94 ed ab 3d 9e bc e0 3d 40 0e c2 3d b0 5f 0b 3c
       0.08394924 0.10973476 0.09475374 0.0085067
000130 c0 df 6f 3d cc d5 bd 3d 08 a1 fc bd d0 66 38 bc
       0.058562994 0.09269294 -0.12335402 -0.011254981
000140 e2 b3 9e bd 6a e1 e7 bd 74 af 7f 3d 1c 25 bf bd
       -0.07749154 -0.11322291 0.062423185 -0.0933325
000150 28 fe df bd 50 22 18 bc 98 2a fb 3d 58 1e 56 3d
       -0.10937148 -0.0092855245 0.122639835 0.05227503
000160 6c a5 41 3d c0 ce ad 3c b8 90 c4 3d 40 d9 b3 3d
       0.0472769 0.02121675 0.095979154 0.087816715
000170 60 94 2a bd 16 8a c8 3d d8 27 b6 3c d8 98 fe 3c
       -0.041645408 0.09791963 0.022235796 0.031078741
000180 b4 ba 45 3d 4e a0 ae 3d 82 4e 92 3d 5e 2c a8 3d
       0.048273757 0.085266694 0.071438804 0.08211587
000190 80 64 ef ba 2e df 92 3d d6 b4 f6 3d f2 b9 a1 3d
       -0.0018264204 0.071714744 0.120462105 0.078967944
0001a0 38 0c 27 bd 98 19 2b 3d 02 95 95 3d 08 2b 75 3d
       -0.040783137 0.041772455 0.073038116 0.05985549
0001b0 24 9e dc bd e0 9e f7 3b b4 b7 3d 3d fc dd 9e 3d
       -0.107723504 0.007556781 0.04631777 0.07757184
0001c0 7c 58 fe bd 98 fe 38 bd 80 53 5f bb 20 98 26 bc
       -0.12419221 -0.045164675 -0.003407687 -0.010168105
0001d0 b4 8d f9 3d a8 35 a4 3d b0 d4 d3 bd 50 d7 be bd
       0.12185231 0.080180466 -0.10343301 -0.09318411
0001e0 40 8c 07 bc d2 7d e1 3d f0 d0 2b bd c2 b8 9a bd
       -0.008273184 0.110103264 -0.041947305 -0.07554771
0001f0 7c ec 6e bd 10 f0 37 3c 40 bb 50 bb d8 bd 32 3d
       -0.058330998 0.011226669 -0.003184989 0.04363808
000200 44 7d a4 bd 84 3e c9 3d 18 e3 8e 3d 10 96 6a 3d
       -0.08031705 0.09826377 0.069769084 0.057272017
000210 b0 73 1d bd 20 0a b7 bb 20 4f 11 bc 06 2d e0 3d
       -0.038440406 -0.005585924 -0.0088689625 0.109460875
000220 7a 5f 88 bd c2 00 e3 bd e6 fb 94 bd 9a 04 e6 bd
       -0.06658836 -0.11084129 -0.07274608 -0.112313464
000230 40 c7 e4 bc 0c 98 2e 3d 90 12 ed bc a6 ba ba 3d
       -0.027927041 0.042625472 -0.028939515 0.091176316
000240 62 86 91 bd 76 c5 db bd 20 e0 18 3d 20 f9 8c 3c
       -0.071057096 -0.10731022 0.037323117 0.017208636
000250 44 89 7d bd f0 ec 94 bc c0 ba 45 bb 22 5e c2 3d
       -0.061898485 -0.018179387 -0.0030171126 0.09490611
000260 b0 3a a4 3d a4 cb 62 3d 62 3d db bd 54 b0 58 bd
       0.08019006 0.055369988 -0.10705067 -0.052902535
000270 40 1e 2b 3b a4 20 05 3d a6 8d c7 bd a8 c0 15 3d
       0.002611056 0.03250183 -0.09743814 0.036560684
000280 14 fc ae bd c0 ba ca 3d 20 7f e9 bd 6c 87 7a 3d
       -0.08544174 0.09898901 -0.114012 0.061164305
000290 1a 07 87 bd b6 9b bd 3d 80 98 92 3c 28 ee 6b 3d
       -0.065931514 0.09258215 0.017894983 0.05760017
0002a0 ee 80 d5 3d b2 76 87 3d 00 2e 25 ba e0 0f 21 3c
       0.10424982 0.06614436 -0.0006301105 0.009830445
0002b0 7c 46 38 3d b0 66 b0 3c 80 0d 80 3a c0 be 09 bc
       0.044989094 0.02153334 0.0009769648 -0.008407295
0002c0 fc fc 2d 3d ee 56 dd 3d f0 9f e0 bc 48 79 81 bd
       0.042477593 0.10807596 -0.027420014 -0.06321961
0002d0 ac 81 86 3d 1e 0e c2 3d 10 78 75 3d 2a 60 b6 3d
       0.06567702 0.09475349 0.059928954 0.089050606
0002e0 a2 e8 eb 3d b0 ec e1 bd 64 a9 25 3d 76 9e b5 3d
       0.115189806 -0.11031473 0.040444747 0.08868115
0002f0 32 4a d6 3d 16 d2 b7 bd 40 43 3f 3b 4c 6f 97 bd
       0.104633704 -0.089756176 0.0029184371 -0.07394275

l3.bias f4 [3]
000000 d4 c4 02 3d 5e 0a f5 bd 90 4c 40 3c
       0.03192599 -0.11964868 0.011737004
