Results/CartPole-A/DQN/initial/model.pt (torch_old, 2563 bytes, 6 tensors)

layers.0.weight f4 [16, 4]
00000000: 767a ce3e 80b6 91bd d453 dbbe 1094 a0bd
00000010: bcd4 223e e883 8b3d 26c3 9a3e f89f cbbe
00000020: 8040 3cbd bec6 e4be 94a2 bcbe e079 90bd
00000030: 600a 0d3d e29c d4be 6080 e2bc de17 f93e
00000040: 8cb5 cfbe fec0 8b3e 4cd9 0bbe 5273 e03e
00000050: 981e 593e 9846 0b3e dc28 75be 2840 f93e
00000060: 1091 1b3d 3296 d8be 0092 873b 4404 7d3e
00000070: 60e6 143d 66c5 ac3e 70ff b53d f233 e6be
00000080: 0c9c 1bbe 58de d73e 7016 683d 3c4e 19be
00000090: c065 b53c 60ef a33c bc7b ac3e fad7 9ebe
000000a0: 085a d0be 3080 223d 0420 353e 20b4 c53d
000000b0: 6a71 ed3e 4a76 80be 5c5f d8be 04ac f1be
000000c0: e61b bebe 6c1d 723e c8cf 963d 3c28 90be
000000d0: d8fa 93be ca2e 95be 1005 efbe 1032 d03d
000000e0: 00c6 0b3e 3835 e63d 82cb a53e d825 ea3d
000000f0: 4629 c43e 6ee8 dfbe 708f a0bd 2074 d2bc
0.40327805 -0.07114887 -0.42837393 -0.07840741 0.15901464 0.068122685 0.3022701 -0.39770484
-0.04595995 -0.44682878 -0.36842787 -0.07054496 0.034433722 -0.41525942 -0.027649105 0.48651022
-0.40568197 0.2729568 -0.13657111 0.43837982 0.21203077 0.13601148 -0.23941368 0.4868176
0.03798014 -0.4230209 0.0041372776 0.24708658 0.036352515 0.33744353 0.088866115 -0.44961506
-0.15196246 0.42161822 0.056662023 -0.1497125 0.022143245 0.020011604 0.33688152 -0.31024152
-0.40693688 0.03967303 0.17687994 0.09653497 0.4637559 -0.25090247 -0.42260253 -0.4720155
-0.3713066 0.23644036 0.0736385 -0.28155696 -0.28902316 -0.2913726 -0.4668355 0.10165799
0.1364975 0.112406194 0.32381827 0.11432999 0.3831274 -0.43732017 -0.078398585 -0.025690138

layers.0.bias f4 [16]
00000000: 70fe 033d 8079 92bd 7470 e23e e0a6 153d
00000010: 5651 bf3e 5a0e f6be 2c7b 623e e0e0 47be
00000020: beeb d7be 02d5 9a3e 1efe c73e d8de b93d
00000030: b0fc 5c3d c293 86be c0da 21bc d881 09be
0.032225072 -0.071520805 0.4422642 0.036536098 0.37366742 -0.48057824 0.22117299 -0.19519377
-0.42172045 0.30240637 0.39061064 0.09075707 0.05395192 -0.26284605 -0.009878814 -0.13428438

layers.1.weight f4 [16, 16]
00000000: 14cd 52be 60d9 dc3c 80f3 d4bc 3089 16bd
00000010: d058 30be ae60 57be 6062 70be 4010 aa3b
00000020: 3656 5c3e 1204 453e 5a65 5fbe 321a 4ebe
00000030: 1410 6b3e 0697 1c3e 7c86 eb3d 0015 f4bb
00000040: 4008 563c 0c70 a2bd c2b3 23be 5e36 7c3e
00000050: e09c 30bd 005d 69bd b896 7f3e 6e8d 69be
00000060: 4865 f33d 3052 87bc a061 94bd f686 083e
00000070: 8c2c 7c3e 5847 2a3d 06fa 373e 40e1 383c
00000080: 9ca0 72be 04b2 98bd 804c 763e 5094 70be
00000090: 4e7f 4f3e deff 3fbe 70e0 0fbd 50a7 e9bd
000000a0: 84e0 9a3d 527d 5b3e bcc0 d73d 78c4 cbbd
000000b0: 8876 28bd 6068 773e a0c6 1dbd f094 bdbd
000000c0: 0469 2abe e026 33be 9049 c9bd f0f0 46be
000000d0: 205f eabc 78ca 073e 3849 af3d 9810 9b3d
000000e0: 2685 463e b40d 4d3e a230 3abe 8089 ae3c
000000f0: 00d3 883b 4083 d93d 6889 60be 0a66 7dbe
00000100: 584d e2bd 28e5 c9bd 9053 e33d 70a3 e6bd
00000110: 80f1 1bbc 10c3 483e 589b 9dbd 2285 693e
00000120: 0265 283e 9cb4 e0bd b0b9 77be c09d 7fbe
00000130: 8032 4fbb dc71 0ebe a818 86bd e028 0ebd
00000140: 584e 36bd 2069 b33d 10f0 9f3c 50f2 b03c
00000150: 30d1 8a3c 1e24 60be 7cb6 ee3d 1c8d e1bd
00000160: 608a 6f3d 30f9 8ebd d050 4d3e fa05 5dbe
00000170: f0c5 1ebd f4f5 313e 02a5 3b3e 545f 7c3e
00000180: a07a 953d f6e9 373e 28fe 0c3d 4c25 debd
00000190: e8c4 9bbd 00e0 13bc 8694 4cbe 8020 1a3c
000001a0: 2430 86bd 54a4 14be d0bc de3c 124e 673e
000001b0: e633 6e3e 4a4b 5bbe 1817 86bd c009 b03c
000001c0: 3082 903d 6875 49bd 00ce 44ba ba4a 013e
000001d0: b0fe ffbc d8bd 723d 9000 a93c 8874 54bd
000001e0: 06bb 15be 04a9 e73d c413 f6bd e00e 1ebd
000001f0: 009b c7bd 5639 443e f661 7a3e e029 35be
00000200: c86f 36bd 20eb f3bc b4fc 19be aced 7c3e
00000210: ecc6 92bd 1cc8 fa3d 40af 0ebd b4a9 4bbe
00000220: ac8c 09be 687d 443e 4c83 56be c83f 943d
00000230: 48ff 22be 641c 19be e0ec 223d e4a3 863d
00000240: 14a9 02be 6071 563c 407e 77bd c8f9 babd
00000250: 1e2b 083e 6891 493d 7082 6d3d 5e91 603e
00000260: aca4 7abe 98f5 7bbe 9cea e5bd d0a5 7fbd
00000270: 048b 6cbe ac31 31be ba77 7f3e 4aa0 09be
00000280: dcd8 873d de4e 75be 04db 2dbe 7046 a6bd
00000290: 60e3 20bd 9008 213e 4826 d23d e0bb 543d
000002a0: 285e 1f3d 0803 203d 6c2e 723e 40ea 66bd
000002b0: 38d3 1dbd 188e 1bbe b076 563e c007 363e
000002c0: 0036 2e3e cee7 7c3e 6ca6 86bd 7cb0 f73d
000002d0: 18c5 693e 804b 4a3b b2eb 1ebe 60b2 6f3c
000002e0: 58d2 5f3e 62de 1c3e 20d1 523c e0f9 383e
000002f0: b471 f3bd d819 d6bd e087 5abc a2cd 6fbe
00000300: ec98 bebd c6de 07be 7866 333d a0c5 76bd
00000310: 6eee 3e3e 4012 f8bb 68eb 13be fc7b 4fbe
00000320: 1006 8d3d 30a6 0e3d 7068 2cbd 8c69 acbd
00000330: 60f9 1a3c d80d 49be 483e 1b3e 68e5 df3d
00000340: c05b 903d 0054 76ba 4a41 613e 80cb 973b
00000350: 5887 21be 46dc 693e 7a75 78be e01f 433e
00000360: eebe 0abe 0c50 af3d b498 9bbd 3015 7d3d
00000370: f00e 4bbd 902a e0bd 4cf7 51be c079 e3bd
00000380: 689f 0dbd 7aca 1b3e 3472 17be faf5 24be
00000390: bc99 96bd 2617 6c3e 10ed c73d 8a20 47be
000003a0: 1065 ca3c 04c5 c33d a4a1 d03d 1c91 183e
000003b0: fc93 a53d 042b 40be 3877 ca3d c02a 633e
000003c0: 6c36 c63d cecd 1a3e fcc1 92bd 90cd ca3c
000003d0: 7076 1c3e 502c 403d c817 1bbd 3289 633e
000003e0: 4cd4 363e 2cb0 ebbd e699 0dbe 5e52 513e
000003f0: d2ec 2dbe 7457 42be 406e 66be 14d3 2fbe
-0.20586044 0.026959121 -0.025995016 -0.036751926 -0.1722138 -0.21032974 -0.23475027 0.0051899254
0.21517262 0.19239834 -0.21816006 -0.2012718 0.22955352 0.15291986 0.1150026 -0.0074487925
0.01306349 -0.079315275 -0.15986541 0.24630114 -0.043118358 -0.056973457 0.24959838 -0.22807857
0.11884552 -0.016518682 -0.07245183 0.13332734 0.24626368 0.041571945 0.1796647 0.011284173
-0.2369408 -0.07455829 0.2405262 -0.23494077 0.20263407 -0.1874995 -0.03512615 -0.114088655
0.07562354 0.21434525 0.10534808 -0.09949583 -0.041128665 0.2416091 -0.0385195 -0.09256923
-0.16641623 -0.17495298 -0.09828484 -0.19427848 -0.028609812 0.1326083 0.08558887 0.075715244
0.1938673 0.20024759 -0.18182614 0.0213058 0.004175544 0.10620737 -0.21927416 -0.24745956
-0.110499084 -0.09858161 0.11099923 -0.11261642 -0.009518027 0.1960566 -0.07695645 0.22804692
0.16444781 -0.109719485 -0.24191928 -0.2496252 -0.0031615794 -0.13910621 -0.065476716 -0.03470695
-0.04450831 0.087602854 0.01952365 0.021599919 0.016945451 -0.21888778 0.116559 -0.110132426
0.058481574 -0.069811225 0.20050359 -0.21584311 -0.038762987 0.1737898 0.18324664 0.2464574
0.072987795 0.17960343 0.03442207 -0.108469576 -0.07605916 -0.009025574 -0.19978532 0.009407163
-0.06552151 -0.14515811 0.027189642 0.22588375 0.23261985 -0.21415439 -0.065473735 0.021489024
0.07056081 -0.049184233 -0.0007507503 0.12626162 -0.031249374 0.05926308 0.020630151 -0.051868945
-0.14622125 0.11311534 -0.12015489 -0.038588405 -0.09746361 0.19162497 0.24451432 -0.17691755
-0.044540197 -0.029775202 -0.15037805 0.2470004 -0.071668476 0.12245199 -0.0348351 -0.19888955
-0.13432568 0.19188464 -0.20948523 0.07238728 -0.15917695 -0.14952236 0.039776683 0.065742284
-0.1275981 0.013088554 -0.060423136 -0.09129673 0.13297698 0.049210936 0.057985723 0.21930453
-0.2447688 -0.24605405 -0.11226389 -0.06241399 -0.23099905 -0.17304105 0.24948016 -0.13440052
0.066331595 -0.23955867 -0.16978079 -0.08118904 -0.03927934 0.15725923 0.10261208 0.051936984
0.038908154 0.03906539 0.23650521 -0.056375742 -0.038531512 -0.15190923 0.20943713 0.17776394
0.17012787 0.24697801 -0.06574711 0.120942086 0.22829092 0.0030867755 -0.15519598 0.01462993
0.21857584 0.15319207 0.012867242 0.1806407 -0.118869215 -0.10454148 -0.013338059 -0.23418286
-0.09306511 -0.13268575 0.043798894 -0.060247064 0.18645641 -0.007570535 -0.14445269 -0.2026214
0.06885922 0.034826458 -0.042091787 -0.08418569 0.00945887 -0.19634187 0.15160477 0.10932428
0.0704875 -0.0009396672 0.21997562 0.0046324134 -0.15774286 0.22837934 -0.24263564 0.19055128
-0.13549396 0.085601896 -0.07597485 0.061787784 -0.049574792 -0.10945618 -0.20504493 -0.11107206
-0.03457585 0.15213957 -0.14789659 -0.16109458 -0.07353541 0.23055705 0.09762013 -0.19446006
0.024706393 0.09559062 0.101870805 0.14899105 0.080848664 -0.18766409 0.098860204 0.22184277
0.09678349 0.15117571 -0.07165906 0.024756223 0.15279555 0.04691726 -0.037864476 0.22220305
0.17854422 -0.115082115 -0.13828239 0.20441577 -0.16984871 -0.18978673 -0.22502995 -0.17170364

layers.1.bias f4 [16]
00000000: 2c14 58be 7e5b 083e 3467 2dbe 8cf0 33be
00000010: 7003 68be 549d cebd 80bc f83d a832 58be
00000020: f00e d4bd f0c4 ec3c 606c c7bc c003 cc3c
00000030: 8673 61be b6bb 6c3e a84c 633e fc9c 33be
-0.21101445 0.13316151 -0.169339 -0.1757223 -0.22657561 -0.10088602 0.121453285 -0.21113074
-0.103544116 0.0289025 -0.02434367 0.024904132 -0.22016725 0.23118481 0.22197211 -0.17540354

layers.2.weight f4 [2, 16]
00000000: c009 a3bb 483a bdbd a002 853d 00d3 c53d
00000010: 280a 873d 54a0 ba3d 3cc6 7a3e bcac 4c3e
00000020: 80c2 0fbd fe4a 2e3e 9c06 063e ac63 443e
00000030: c851 8abd d047 173d 4008 083d f434 fa3d
00000040: 00f2 71bc e01b 553d d8b4 d2bd 6c40 d3bd
00000050: b444 92bd 047e 853d 22af 2d3e e412 12be
00000060: b670 063e d680 70be a4ee 253e cc9b 383e
00000070: a027 77bc a604 4fbe d6f3 0fbe 4042 fdbb
-0.0049755275 -0.09239632 0.06494641 0.09659386 0.06593734 0.091126114 0.24489683 0.19987768
-0.0350976 0.17020795 0.13088459 0.19178647 -0.0675388 0.03693372 0.033210993 0.12217131
-0.01476717 0.052028537 -0.102883995 -0.10315022 -0.0714201 0.06518176 0.16961339 -0.14265019
0.13128933 -0.23486647 0.16204315 0.18028182 -0.015085131 -0.20216617 -0.1405786 -0.007728845

layers.2.bias f4 [2]
00000000: 6cbc 4c3e a262 153e
0.19993752 0.14588407
